models/INFY.NS_lstm.pth (torch, 809557 bytes, 9 tensors)

lstm.weight_ih_l0 f4 [512, 5]
000000 17 49 83 bd d6 74 83 bd e5 67 9d 3c a8 b6 76 bd
       -0.06410425 -0.06418769 0.01921458 -0.06023279
000010 74 10 a0 3d 5c 5b de 3d 59 8b 3e bd 50 68 43 3d
       0.07815638 0.10857269 -0.04651961 0.047706902
000020 7b 39 90 bc 72 be 36 3d e1 57 d8 3d f2 3a 90 3c
       -0.017605534 0.044615217 0.105636366 0.017606232
000030 a3 c3 97 bd f8 97 85 3d 14 2b 95 3d 2e 33 e0 bb
       -0.074103616 0.06523126 0.07283607 -0.0068420386
000040 5f 28 04 bd f2 dd 64 bc 00 86 3c bd c9 25 09 bd
       -0.032265063 -0.0139689315 -0.04602623 -0.0334833
000050 90 08 7d 3d 9f 40 23 3c e4 8b e1 bc 94 a6 7e 3d
       0.061775744 0.009964137 -0.027532525 0.06217058
000060 14 98 88 3c f2 06 be bd 88 61 af bd 34 79 28 bb
       0.016674079 -0.092786685 -0.085635245 -0.0025707008
000070 68 05 8f 3c 2b 9a 1a bd a6 b6 02 3e 55 0f f8 3c
       0.017458633 -0.037744682 0.12764987 0.030280748
000080 c8 e1 d5 3c c0 fc 98 3d ca 24 28 3e 8c 2f 0f 3e
       0.026108637 0.07470083 0.16420284 0.13982981
000090 ad df 0b bd 2a 6c 1d 3e 40 f0 98 3d 76 c5 9f 3d
       -0.03414886 0.15373293 0.07467699 0.078013346
0000a0 a8 41 ba 3d be ee ac 3d ec 7b 38 bd 5a 5c 02 3d
       0.09094554 0.08443974 -0.045040056 0.031826355
0000b0 1f ec e7 bc 6a bb d0 bc 1f 90 82 bc 08 02 f8 bd
       -0.028310833 -0.025479991 -0.015937863 -0.121097624
0000c0 31 27 3a bd ad 05 1f 3d 02 ab 06 bc a1 f2 b8 bd
       -0.045447532 0.038823772 -0.008219482 -0.09030653
0000d0 9c 44 4b 3d fa 3a fe 3c f6 1e 9d bd dc c3 bc 3d
       0.049625978 0.031033982 -0.07671921 0.09217045
0000e0 06 28 b5 bd ff 2d ee 3c dd 98 a3 3d 9f 26 ab 3d
       -0.088455245 0.029074667 0.07988141 0.08356976
0000f0 ce b4 b5 3d b0 7f ac bd e6 5d d5 bc b1 a5 db 3d
       0.088723764 -0.08422792 -0.02604575 0.107249625
000100 84 c0 be 3c de 58 df 3d a2 8b 62 3d 11 60 93 3c
       0.023285158 0.10905622 0.055308945 0.017990144
000110 14 ca d8 3b a5 3c 5c 3d 23 32 82 bd 9c 7c 9f bd
       0.0066158865 0.053768773 -0.06357219 -0.07787439
000120 9e 6c 63 bb ea a1 56 bd 0a b2 81 bd 21 e2 66 bb
       -0.0034702192 -0.052400507 -0.063327864 -0.0035229998
000130 5d bc 5a bc e5 96 16 bc 54 65 0a bc 43 02 27 3d
       -0.013350573 -0.0091912495 -0.00844701 0.04077364
000140 03 39 f8 3d 8e 3d bd 3c c1 96 8a 3d 8a 3d 8b 3d
       0.12120249 0.02310064 0.06767035 0.06798847
000150 68 fd a9 3c e5 0f 19 3d c6 f1 33 3d 4c e7 7a 3d
       0.020750716 0.037368674 0.043931745 0.06125574
000160 8d 39 ec 3c dc e1 81 bd 51 e8 11 3e 8b a1 90 bd
       0.028836036 -0.063419074 0.14248778 -0.07062062
000170 1f a2 0c 3e 89 58 ff 3d f4 85 9b 3d be 87 14 3d
       0.1373372 0.124680586 0.07593909 0.036262266
000180 fc d3 c8 3d 0a 01 9f 3c a6 c3 3f 3b 81 48 2c 3d
       0.09806058 0.019409675 0.0029260903 0.042061333
000190 6f ea a1 3c f9 31 8e 3d ca e6 0a 3e 4f ab c1 3c
       0.019765107 0.06943125 0.13564602 0.023641257
0001a0 24 f9 5b 3d 0b c6 bd bc a4 37 b8 bd 60 60 73 bc
       0.053704396 -0.023165723 -0.089949876 -0.014854521
0001b0 9a 11 7e 3d 65 fe 25 3c d4 06 c6 3d 65 a2 fc 3c
       0.062028505 0.010131453 0.09669271 0.030839154
0001c0 4f bb da 3d dc 77 93 b9 97 47 90 3d de 5e a3 3c
       0.106802575 -0.00028127327 0.07044905 0.019942697
0001d0 cf a3 33 bb 90 d0 08 3e b8 7e 73 3d b4 6e a3 3d
       -0.002741087 0.1336081 0.05944702 0.07980099
0001e0 bb 2b 07 bd fa de 29 3c e9 fe de 3c 1c 72 3e 3d
       -0.03300069 0.010368103 0.02722116 0.046495542
0001f0 8d a9 ac 3d b6 4c a4 3d 48 cd 48 bd 95 cb 93 3d
       0.08430777 0.08022444 -0.049023896 0.072165646
000200 e9 fa 2f bd a0 94 3b bd 0a d0 2f bd cc 47 4b 3d
       -0.042963896 -0.045796037 -0.04292301 0.049629018
000210 e5 12 b4 bd bd 9c 06 3d 5b 69 64 bd 5b 4b 9f 3d
       -0.08792666 0.03286432 -0.055764537 0.07778045
000220 f6 8f 8c bd f3 63 23 3d a1 d5 a7 bd e2 dc 2b bd
       -0.06863396 0.03989024 -0.08195043 -0.041958697
000230 c2 af 8b 3b 3c 86 e1 bc 45 aa d6 3c 18 fe 51 3d
       0.0042628953 -0.027529828 0.026204238 0.051267713
000240 f7 8f 12 3d 0c dd c5 3c 60 fd 4b 3d 5b 0a 67 3d
       0.035781827 0.024153255 0.049802184 0.05640636
000250 ea 3d 44 3d e1 8e de 3c 64 fd 16 3d 60 02 91 3d
       0.04791061 0.02716774 0.036862746 0.07080531
000260 eb 60 2b 3c 8e 68 64 3b 65 76 a6 3c 21 e4 c9 bd
       0.010460119 0.0034852359 0.020320127 -0.09857965
000270 73 d1 4e bd ff 11 37 bd 35 11 d3 bd 12 94 ac 3b
       -0.050492715 -0.044694897 -0.10306016 0.005266675
000280 1c 08 ce bd 09 8d 66 bd 8b 45 5f bd 2e da 6d 3d
       -0.100601405 -0.056286845 -0.05450968 0.0580694
000290 dc dc 8c bd a8 79 33 3d 2e be 23 3d 02 44 09 3d
       -0.06878063 0.043817192 0.03997629 0.033512123
0002a0 4f 93 e2 bd 48 5d 8d bc 48 cf 57 3d 48 3e 6e bd
       -0.11063253 -0.017256394 0.052687913 -0.058164865
0002b0 b8 52 99 3d d3 13 85 bd b2 d3 93 3d f5 ee d1 3d
       0.074864805 -0.06497922 0.07218112 0.102506556
0002c0 52 8f 84 bd 94 bd 45 3d c1 2e a4 3d 97 a5 6a 3d
       -0.06472649 0.0482765 0.0801673 0.057286825
0002d0 4d 35 df 3d a2 a5 45 3d 8d 64 a1 3d ff 15 0f 3e
       0.10898838 0.048253663 0.07880507 0.13973235
0002e0 8d a6 9f 3c e2 a5 38 3d 0f f1 72 bd 34 f2 32 3d
       0.019488597 0.045080073 -0.059311923 0.043688014
0002f0 e3 36 32 3d 3b da 9a bb 48 b7 b5 3d a9 51 95 3c
       0.043509375 -0.004725722 0.08872849 0.018227415
000300 88 9c f8 3c 2a 06 9e bb 66 8f 7b 3d 5b 54 7c 3d
       0.030348077 -0.004822512 0.061416052 0.061603885
000310 f5 56 a8 ba d0 9c 25 3d 07 b1 db bc 13 70 01 3d
       -0.0012843298 0.04043275 -0.026817812 0.031601023
000320 62 2b 32 bd c1 f9 9f bd 31 f2 82 3d 14 17 d5 3c
       -0.043498404 -0.07811309 0.063938506 0.026011981
000330 1b 8a 86 bc 7e c9 95 bd 93 3f 5d 3d 29 7f 8c 3c
       -0.016423276 -0.07313822 0.054015707 0.017150478
000340 f5 43 29 3d c0 bd f9 3c ae 49 e6 3b 36 d0 ac bd
       0.041324575 0.030485988 0.0070278263 -0.084381506
000350 98 9b a2 bb 6f a0 b2 bd 21 49 ae bc eb 9b e8 3d
       -0.004962396 -0.087220065 -0.021275105 0.11357864
000360 a9 da c5 bc 49 27 d8 3d c4 6a dc 3b ef 25 b0 3d
       -0.024152117 0.10554368 0.0067265946 0.08600985
000370 0e da a4 3c de 88 f4 3c f8 08 8a 3d f9 8f 00 3e
       0.020123508 0.02985042 0.06739992 0.12554921
000380 63 54 d5 3d b4 fc 8d 3d ff f7 d9 3c 08 fb af 3d
       0.10416486 0.06932965 0.026607512 0.08592802
000390 79 e7 9e bd d7 64 83 3d 51 5d 3c bc c4 39 4a bc
       -0.07758994 0.06415718 -0.011496858 -0.012342874
0003a0 aa 58 91 bd 53 77 9a bc 1b 59 ed 3c 90 10 ef bd
       -0.070969895 -0.018855726 0.028973153 -0.11673081
0003b0 fb 9f 0e bc 35 4f 7a bd e0 a4 ba bd 6e 7a 46 3d
       -0.0087051345 -0.061110694 -0.09113479 0.0484566
0003c0 53 d2 d8 3d 32 45 8a 3c f1 d8 b9 3d ca ca 7a b9
       0.10586991 0.016878698 0.090745814 -0.00023917403
0003d0 48 33 5a 3d 18 ec 14 3d da 5f 11 3d 85 e4 ad 3c
       0.05327156 0.03635797 0.0354918 0.02122713
0003e0 a5 7a a1 bd 68 d4 b6 bc f1 21 27 3c 83 95 a1 3c
       -0.07884721 -0.02231808 0.010200963 0.019724613
0003f0 48 d8 a3 bb e9 93 9c 3d c9 7d 17 3d 19 14 16 3d
       -0.005000148 0.07645399 0.036985192 0.03664026

lstm.weight_hh_l0 f4 [512, 128]
000000 7b 3f d3 3c 4a 91 28 bc 84 05 8d bd 20 3f 5b bd
       0.025787106 -0.010288546 -0.06885818 -0.053526998
000010 97 5c 70 bd fc ad 50 3d 3e d5 08 bd 0e c2 8c ba
       -0.05868205 0.050947174 -0.03340649 -0.0010738985
000020 56 d6 82 3d b1 89 a6 3c 7b ed ad 3d 0b c2 a9 3d
       0.063885376 0.020329328 0.084925614 0.08288964
000030 e7 ab db 3b db c6 9c 3d 81 84 a8 3d 9a 59 17 3d
       0.006703842 0.07655116 0.08228398 0.036950685
000040 03 fa 1f bb 09 0b 0f 3d af f9 0f 3d 6e 1b 6f bd
       -0.0024410493 0.034922633 0.035150226 -0.05837577
000050 ba 8f b0 bc fe 30 61 bd 9b d6 02 3c 6c 9c 03 bd
       -0.02155291 -0.054978363 0.007985736 -0.032131597
000060 cc ec 7c bb 04 4d 5d 3d 1e a7 34 bd 0f ba 25 3d
       -0.003859329 0.054028526 -0.044104688 0.040460642
000070 d6 f5 f1 bc b2 8f 09 3c 08 12 30 bc 28 38 bd bc
       -0.029536169 0.008396076 -0.0107464865 -0.023098066
000080 a1 b0 f1 ba 0e 37 5a bc fa 63 81 bd 5e 53 61 3b
       -0.001843948 -0.01331879 -0.06317897 0.0034381966
000090 25 25 78 bc 94 81 63 bd 6d 54 66 bc 9c 0d cd 3c
       -0.015145575 -0.055543497 -0.014058215 0.025030904
0000a0 fa 4f 45 3d 75 bf 9f 3d d6 5f 9c 3c 4d 1b e9 bc
       0.048171975 0.078001894 0.019088667 -0.0284554
0000b0 07 c1 bc 39 4a 16 b3 3d 10 76 26 3d 14 b0 a1 3d
       0.0003600197 0.08744486 0.040639937 0.07894912
0000c0 99 85 73 bd 8e 40 10 3c 72 15 9c bd 13 9e 10 bb
       -0.05945358 0.008804454 -0.07621278 -0.0022066876
0000d0 58 c7 fe 3c 15 e2 9b bd 40 d0 4d 3d 77 6f 8a 3d
       0.031100914 -0.07611481 0.05024743 0.067595415
0000e0 97 c0 bc bc b6 64 e6 3d 6b 31 ae bd 33 ed 01 bb
       -0.023041053 0.11249678 -0.085055195 -0.001982522
0000f0 eb f1 19 3d 0d 6f e8 bc c8 ac ae 3d 34 78 96 bd
       0.037584227 -0.028373266 0.08529049 -0.07347146
000100 8b ce 80 bc 3a af 70 3d 89 c3 1d bd 46 b7 32 bd
       -0.015723487 0.05876086 -0.038516555 -0.043631814
000110 6b ec f6 bc 27 8e 52 bc af fd 8b 3d 83 8e fa 3c
       -0.03014203 -0.012851275 0.06835496 0.030585533
000120 ec 08 f0 bc 29 01 0e bd 86 93 6d 3d 9e c5 3d bd
       -0.02930113 -0.034669075 0.058002017 -0.04633104
000130 9b 8a 60 3d 35 84 13 3d d7 8c b0 3d 16 1f a5 bb
       0.054819684 0.036014754 0.08620613 -0.005039106
000140 af dd a4 3c b6 da 89 bd 45 56 c2 3c 48 1d 47 3d
       0.020125238 -0.06731169 0.023722777 0.04861191
000150 8f 4d 42 bc f1 7b 87 3d 69 ff af 3d 00 62 35 bd
       -0.011859312 0.06615437 0.085936375 -0.044282913
000160 a7 be ca 3c e9 6a 01 bc 22 8a 6d 3c 03 16 94 bd
       0.024749113 -0.0078990245 0.014498265 -0.07230761
000170 7a 82 64 3d c5 a0 d1 bc 7a 94 2e bd d9 68 9b bd
       0.055788495 -0.025589356 -0.042622067 -0.075883575
000180 c0 5c 8e 3d 16 df ab 3d 94 ce 83 bd 42 44 69 3d
       0.069512844 0.0839216 -0.06435886 0.05694986
000190 3e 19 3b 3d 03 c0 29 bb 40 99 5c bc e3 7e 86 bd
       0.04567837 -0.0025901801 -0.013464272 -0.065671705
0001a0 cf e5 b2 3c fd 28 a9 bc 8b 0b 01 bd df 5f c4 3d
       0.021838097 -0.020649428 -0.03150515 0.095885985
0001b0 a3 db ad bd a3 21 23 3d aa b3 ca bd 79 74 11 bc
       -0.08489158 0.039827 -0.098975495 -0.008877867
0001c0 04 ab 89 3c 44 05 50 3c 31 1c 9b bd 7b ac 8b bd
       0.01680518 0.012696568 -0.075737365 -0.068200074
0001d0 d0 51 5a 3b 7a f2 1a bd ea fc c7 3d fa cf f1 3b
       0.0033312924 -0.0378289 0.097650364 0.007379529
0001e0 90 8c 08 bb 37 55 ce 3a 54 9a 9a 3d 18 53 85 bc
       -0.0020835735 0.0015741949 0.07548967 -0.016274974
0001f0 24 03 a8 bd 8d 41 2c bc 03 5a 5f 3d 89 98 9c bd
       -0.08203724 -0.010513675 0.0545292 -0.07646281
000200 08 22 97 3d 29 d7 8a 3c 8c fa 94 bd 2f 45 3c 3d
       0.07379538 0.0169483 -0.072743505 0.045964416
000210 a9 c4 cb bd 09 d5 b8 3d 4c c3 02 3e 29 91 93 3c
       -0.09949619 0.09025008 0.12769812 0.018013554
000220 f7 a2 c5 3d b9 c1 c4 bd c9 c2 4a 3d 21 e0 01 3d
       0.09650224 -0.09607262 0.049502168 0.031707887
000230 55 86 39 3d ce 0d b5 bc 3a f9 1f bd 0f 84 11 bd
       0.045294125 -0.02210131 -0.03905604 -0.03552633
000240 d2 25 e9 3d 26 42 e3 bd ca 82 69 3c 36 7e 58 3d
       0.11384167 -0.11096601 0.014252374 0.05285474
000250 1a 75 db 3c 44 a9 4d bd a7 1e 2c 3d 88 2c d4 3b
       0.026789237 -0.050210252 0.04202142 0.006475035
000260 cf 8a da bc 7b c6 53 bd e2 c6 38 bd 50 51 13 bd
       -0.026677517 -0.051702958 -0.045111544 -0.035966218
000270 2e bf 07 3e 89 eb a2 bc 59 df 28 bd 31 01 96 3c
       0.13256523 -0.019887703 -0.041228626 0.018311115
000280 40 42 a1 3d a8 1b c8 bd db 07 d8 bb e6 9e 28 bd
       0.07873964 -0.097709 -0.0065927333 -0.041167162
000290 dd 90 0e 39 90 c6 2e 37 77 96 f6 3d a1 15 0f 3e
       0.00013596141 1.041744e-05 0.12040418 0.13973095
0002a0 50 07 a5 3c e1 91 92 3b e7 4c 08 3d 99 42 d9 bd
       0.020145088 0.0044729565 0.033276465 -0.106084056
0002b0 b6 ca 94 3c aa c8 aa bd d7 f8 ed bc 3d 0e f4 3c
       0.018163066 -0.08339055 -0.02904932 0.029791946
0002c0 7f 2a af 3d 16 0c e4 bc e1 b5 4f 3d 63 8c 90 3d
       0.08553027 -0.027837794 0.050710563 0.07058027
0002d0 a2 ab 2a bd d8 4c b4 bd 6e 73 bd 3d fd 25 93 bc
       -0.041667588 -0.08803719 0.09250532 -0.01796245
0002e0 13 5f 85 3c 27 bd 4b bb 1b b4 fd 3d b2 fc 9a bc
       0.016280686 -0.0031088085 0.12387868 -0.018919323
0002f0 58 20 84 3d cb af 22 bc c3 76 8d bd bf 13 84 bd
       0.064514816 -0.009929608 -0.069074176 -0.06449079
000300 3c a2 d2 bd 73 eb 76 bd df 40 1d 3b ff c6 aa 3d
       -0.1028485 -0.060283136 0.0023994965 0.08338737
000310 f4 99 6d 3d e8 ec 82 3d 2b 67 8d bd 75 b3 c9 3d
       0.05800815 0.063928425 -0.06904443 0.09848682
000320 45 a7 9c 3d db 1e ef 3b 31 53 03 bd 0d c7 c7 bd
       0.07649092 0.0072973794 -0.03206176 -0.09754763
000330 aa 8b 6a 3d 7a 9d a9 3d a2 2a 53 bd 99 80 f8 3d
       0.0572621 0.082819894 -0.05155433 0.12133903
000340 2a 52 3b 3d 6f d2 ba bb 8d 26 69 3d c7 12 78 3c
       0.045732655 -0.005701355 0.05692153 0.015141196
000350 e3 88 81 3a b3 a3 98 3b ff 68 8c bb 49 f5 35 3d
       0.0009882714 0.0046581863 -0.0042849774 0.044423375
000360 1b 3a a0 3d a1 2f 2d 3d bf bd bf 3c 08 e1 82 3b
       0.07823583 0.04228175 0.023405908 0.003994111
000370 cc 9d 51 3d ee 7a d3 3c 90 1a 07 3c 5e a4 c0 bd
       0.051175877 0.025815453 0.008246079 -0.094063506
000380 d9 e0 de 3d a0 f9 35 3c b4 0f 73 3d cd 4c 73 bc
       0.1088273 0.0111068785 0.059341148 -0.014849854
000390 79 11 2c 3c 03 c4 8d 3c 1a a2 1d 3d ce 8f db 3d
       0.010502213 0.01730538 0.03848467 0.10720788
0003a0 25 f7 2a 3d 00 67 d6 bc 27 97 db 3d 7d 44 0b 3d
       0.0417396 -0.026172161 0.107221894 0.034000862
0003b0 7d 55 90 bd cb 27 86 3d 5c f5 56 bd d6 37 bd 3d
       -0.070475556 0.06550559 -0.052480087 0.092391655
0003c0 44 8b 5a 3d d8 cf d0 bc 81 8d 00 be 0c d1 f6 3d
       0.05335547 -0.025489733 -0.1255398 0.12051591
0003d0 e4 44 f3 bd be 8c 19 3d d4 1d 8b bc c6 59 8c bd
       -0.11878374 0.037487738 -0.016981997 -0.068530604
0003e0 50 e2 a7 bd 5d c9 5c bc 34 0d a9 3c 36 89 df 3d
       -0.081974626 -0.013475743 0.020636179 0.10914843
0003f0 50 a9 70 3d 05 2c d0 3c 77 d6 68 3c 91 16 48 3d
       0.05875522 0.025411615 0.014211289 0.048849646

lstm.bias_ih_l0 f4 [512]
000000 de 47 91 bd b8 fa 9f 3a 72 d1 9b bd 07 74 c1 bc
       -0.07093786 0.0012205457 -0.07608308 -0.023614896
000010 f7 66 a2 3d 21 f9 5d bd f8 1e fb 3d 9a be 64 bd
       0.07929795 -0.054192666 0.12261766 -0.055845834
000020 18 a8 23 3d e6 cd b4 bd 70 52 90 3d 2f f4 89 3d
       0.03995523 -0.088283345 0.07046974 0.067360274
000030 82 5e 98 bd 76 c8 9a bd 0f 49 cc 3c 3a fe 63 bc
       -0.07439901 -0.07557766 0.02493718 -0.013915593
000040 ad 85 af 3c b5 76 23 3c 3b db 22 3c 69 fe 6e bd
       0.021426046 0.009977032 0.009939964 -0.058348093
000050 71 2b 9a bd 77 1a 12 3b ca 7d 32 3d 6b f9 59 3d
       -0.07527817 0.0022293606 0.043576993 0.05321638
000060 79 81 32 bd 77 26 71 3c 24 bc ca 3c f9 63 91 3d
       -0.043580506 0.014718643 0.024747916 0.070991464
000070 60 a3 73 3d a7 5e e3 bc 95 7d 81 bd c9 c7 99 bb
       0.05948198 -0.027755095 -0.06322781 -0.0046930057
000080 2b 28 51 3d 2c fd b5 bb 92 31 75 bd 1d 2e 86 3d
       0.051063698 -0.005553862 -0.059861727 0.06551764
000090 19 fc 90 3a 49 49 c3 3c 75 81 ad 3d 69 32 88 bd
       0.0011061459 0.023838656 0.084719576 -0.0665024
0000a0 b0 21 83 ba 79 bc b4 bd 81 40 bb 3a 45 ba 95 bd
       -0.0010004546 -0.08825011 0.0014286191 -0.07310919
0000b0 d8 ab 91 3c 33 ab 27 3b 39 94 b8 bc 15 3a e2 bd
       0.017782137 0.002558422 -0.022531616 -0.110462345
0000c0 77 64 79 3d f9 12 23 3d ab 88 a6 bd 19 c5 06 3c
       0.060886826 0.039813016 -0.08131536 0.008225703
0000d0 c7 60 40 bd 1e ec 89 bc 1c 11 10 3d 66 28 83 bd
       -0.046967294 -0.016836222 0.035172567 -0.0640419
0000e0 37 bc b4 3c 0e 75 94 3d f3 5c 26 bc 83 57 ad bc
       0.022062404 0.07248889 -0.010153997 -0.021159893
0000f0 5d b3 56 3d f1 c8 78 bd b4 af 7c 3d 1a 6c b1 bd
       0.052417148 -0.060738508 0.061691 -0.08663197
000100 0b 1b d4 3d 2e e7 8d bd 3c fb e1 3b 3d 74 c2 3c
       0.103567205 -0.0692886 0.0068964045 0.023737067
000110 47 39 3c bb 50 20 c4 3c 8f a5 86 3d da ce 15 3d
       -0.0028720663 0.023941189 0.065745465 0.036574222
000120 2d af 0c 3d 38 5e b0 3c a3 4a bd bc f0 f1 d5 bc
       0.03434675 0.021529302 -0.023106879 -0.026116341
000130 74 40 a6 bd bb f0 2a bd 41 3b bd bd 86 36 69 3d
       -0.08117762 -0.041733485 -0.092398174 0.056936763
000140 e7 ae 49 bd bd bc e8 bb be f8 24 3d 2b c3 51 3d
       -0.049239065 -0.0071025775 0.04027628 0.051211517
000150 54 4e c1 bb a3 09 84 3d 89 87 c6 bc 59 1c 77 bc
       -0.00589923 0.064471506 -0.02423455 -0.015082442
000160 25 bb a2 bd 52 32 a1 bc 31 86 43 bd 1f e2 ae 3d
       -0.07945851 -0.019677315 -0.047735397 0.08539223
000170 4a ff 2d be a6 29 4e 3d 5b bc 35 3d b6 68 fb 3c
       -0.16991916 0.050332688 0.044369083 0.030689579
000180 8e dd cd 3c 01 49 b2 bd 5f 7a 77 3d 08 f2 2f 3d
       0.02513006 -0.08705331 0.060419437 0.04295543
000190 2d 0d e7 3b 05 f4 9d 3d ef d9 05 3d e1 e8 cf 3c
       0.007051131 0.07712559 0.03267854 0.0253796
0001a0 da 3e 2a 3c 27 5a 92 3c af c7 08 bb 29 4a 09 bc
       0.010390962 0.017865254 -0.0020870974 -0.008379498
0001b0 16 c2 fc 3c be 47 0c bd 24 23 70 3d 86 51 28 3d
       0.030854266 -0.034248106 0.058627263 0.04109337
0001c0 2d e8 03 bd 59 38 c8 bc 97 0d dd 3c c1 37 a6 bb
       -0.032203842 -0.024440931 0.02698402 -0.0050725644
0001d0 bc b7 b8 bd f5 00 72 bd 40 61 04 bc 42 2b 5a 3d
       -0.090194196 -0.059082944 -0.008079827 0.05326391
0001e0 81 b7 8c bc 2f d2 3b 3d ed 5d 7e 3d 48 8f 5c bb
       -0.017177345 0.045854744 0.062101293 -0.0033654738
0001f0 81 11 6c bb 40 9e 02 3b dd 99 56 3d 72 20 bb 3c
       -0.0036021175 0.001993075 0.05239283 0.02284262
000200 07 55 04 3d d6 aa c0 bd 9e 0c 3f 3d cd 1e e6 bc
       0.03230765 -0.09407584 0.046642892 -0.028090859
000210 06 ba 82 bd c5 62 b1 bd 5f b0 b9 bc 77 d1 b3 3d
       -0.063831374 -0.08661417 -0.022667108 0.087801866
000220 43 d6 e7 3a 2f 2a fa bd e6 cc 8b bd ae 50 f8 bb
       0.0017687756 -0.12215077 -0.06826191 -0.007577977
000230 2a 03 c7 bc 89 85 12 bd 30 24 aa bc 91 c4 e4 3c
       -0.0242935 -0.03577188 -0.020769209 0.027925761
000240 7e 79 2b 39 89 92 86 3d 7e 4c 88 bb 2c ef 8d bd
       0.0001635309 0.06570918 -0.004159509 -0.06930384
000250 10 76 56 bd fb a5 86 3b f7 75 47 bd f3 57 f0 3c
       -0.052358687 0.004109142 -0.048696484 0.029338812
000260 65 4b 76 bd 0f 8d c2 3c 2d d5 13 3c 5f c7 96 bd
       -0.060130496 0.023748903 0.009022993 -0.07362246
000270 18 2a c4 bd b7 86 8d 3d fc 08 22 3c 14 a6 b3 bd
       -0.09578341 0.069104604 0.009889837 -0.08771911
000280 0a 29 7f 3c a3 9d 93 bc c1 a3 21 3d 94 84 cd bd
       0.015573749 -0.018019503 0.03946281 -0.10035053
000290 ae 6c 8b 3c eb 82 12 3b b8 00 da bd 63 14 57 bd
       0.017019596 0.0022355865 -0.10644668 -0.052509677
0002a0 5b 01 87 bc 38 f1 31 3b 33 1c 78 3d 7e f7 9e bd
       -0.016480139 0.0027151834 0.060573768 -0.07762049
0002b0 7f ff af bd 02 90 3b bc 28 90 d9 bd 2f 93 9b 3c
       -0.08593654 -0.011447908 -0.10623199 0.018991081
0002c0 17 5b 83 bd 76 73 1f 3c 2e 31 42 bd 9f fd 93 3c
       -0.064138584 0.009732118 -0.047410183 0.018065272
0002d0 2f 0b 18 3d 07 c0 f2 3c b3 10 86 bb 2c 74 83 bd
       0.03712004 0.029632581 -0.004091346 -0.064186424
0002e0 2a 93 91 bd e0 1e 11 bd b4 68 f3 3c e8 08 8c bd
       -0.071081474 -0.035429835 0.029713012 -0.06837636
0002f0 b7 51 82 3c 78 75 6f bc f7 47 20 bc 59 52 81 bd
       0.015908105 -0.014615409 -0.009782783 -0.06314535
000300 7d 53 b7 ba 77 50 31 3d c6 9b 77 ba 38 f6 b9 bc
       -0.0013986673 0.043289628 -0.00094455143 -0.022700414
000310 ce 20 96 bd 25 89 cd 3c 2d 20 0f 3d 80 58 52 bd
       -0.07330476 0.02508981 0.034942795 -0.05135393
000320 6d e3 a5 bb 63 56 83 3d 3e d3 c6 3c da 8a 8e 3d
       -0.0050625117 0.06412961 0.02427065 0.069600776
000330 b3 1f a5 bd 44 ee e2 bc 69 87 97 3d af cd 28 bd
       -0.08062687 -0.027701505 0.07398874 -0.04121178
000340 a7 bb 66 3d 55 c5 30 bc a2 6f 98 3c 64 d9 45 bd
       0.056331303 -0.010789235 0.018607918 -0.048303023
000350 e7 e0 0a 3d c0 59 3c be 37 a8 06 bd 97 56 c4 3c
       0.03390589 -0.18393612 -0.032875266 0.02396707
000360 5e bb ae bd 1c 62 65 bd 57 f7 09 be d4 89 01 3a
       -0.08531831 -0.056001768 -0.13473259 0.00049414975
000370 88 36 28 be 7b 88 67 3d a9 21 5d bd a3 e2 e9 bd
       -0.16427052 0.056526642 -0.05398718 -0.11420181
000380 ad 0f 91 3d 12 4e af bd de 93 ed bc e9 5f 52 bd
       0.07083068 -0.085598126 -0.029001173 -0.051361
000390 4b d0 26 bd d8 0a 19 3d f0 2c be 3c c6 f2 6b 3d
       -0.040725987 0.037363857 0.023214787 0.057604574
0003a0 47 e2 43 bd 85 84 76 bd 41 da 45 bd b8 5d 9e bd
       -0.047823217 -0.060184974 -0.048303846 -0.07732719
0003b0 01 80 8b 3d 71 a8 53 3d c7 b6 b9 bb 2c 28 c9 bd
       0.06811524 0.05167431 -0.0056675407 -0.09822115
0003c0 b3 c9 87 3d 2a 29 11 bd e7 b2 01 bd 15 3d 9c 3c
       0.06630268 -0.035439648 -0.031664755 0.019072095
0003d0 b8 37 18 bc 15 2a 32 3b 81 64 e1 3b dd 86 9d bd
       -0.009290628 0.0027185727 0.006878436 -0.07691739
0003e0 27 be 70 3d d3 2b 38 3c 14 10 be bb b8 f9 18 3b
       0.058775093 0.011240917 -0.0058002565 0.0023342203
0003f0 57 66 a9 bc a2 58 93 bd 5e a5 91 3d ec 91 19 bd
       -0.020678682 -0.0719464 0.071116194 -0.037492678

lstm.bias_hh_l0 f4 [512]
000000 9f 0a 90 bd 84 25 5b 3d 34 e8 e5 3c 19 e3 b0 bd
       -0.07033276 0.053502575 0.028064825 -0.086370654
000010 5d bf 05 3d 63 af dc 3c 91 be ba 3c c4 2c 60 bd
       0.0326532 0.0269391 0.022795947 -0.05473019
000020 29 bd c2 3a 40 e2 bb bd 3b 7c 2f bd 0d 7b c5 3c
       0.00148574 -0.09174013 -0.042843085 0.024106527
000030 d6 d7 34 bd 14 c7 c8 3c 02 69 0e bd d5 5d 75 3d
       -0.04415115 0.02450899 -0.034768112 0.05990394
000040 85 fe b1 3c 38 b9 6a 3b f5 bd 35 3d 0c fa 97 3d
       0.02172781 0.0035815965 0.04437061 0.074207395
000050 10 c9 35 bd 0f db fa bc bc a4 49 bd d5 a9 70 3d
       -0.0443812 -0.030622033 -0.04922937 0.058755714
000060 6b 4f c7 bc 6c ab 88 3d ed ae 91 3d 65 90 ad 3d
       -0.024329862 0.06673321 0.071134426 0.08474807
000070 38 4e d1 bd 15 a5 5e bd 3a 9b 80 bd 93 8c b1 bc
       -0.10219997 -0.054356653 -0.06279607 -0.021673476
000080 7f c6 93 3d 1d c6 4f bd 69 ae 3b bd 17 1f 41 3d
       0.072155945 -0.050726045 -0.045820627 0.04714879
000090 56 e5 a9 3d 0e c6 c4 3d bd 03 8d bd e0 86 01 bd
       0.082956955 0.096080884 -0.06885479 -0.031622767
0000a0 a9 a4 ba bd 71 ff 35 3b b0 29 38 3a 7c 8a 32 3d
       -0.09113438 0.0027770663 0.0007025255 0.0435891
0000b0 b7 74 89 bd 08 37 07 bd 71 3a f4 bd 81 4b 86 bd
       -0.06711715 -0.033011466 -0.11925209 -0.0655737
0000c0 fb 23 93 bc a3 46 f8 bd 6c c5 d9 bc 36 aa 72 3d
       -0.017961493 -0.12122848 -0.026583396 0.059244357
0000d0 c1 8d 93 bb d9 7e a0 bd e6 65 05 bd 77 00 a8 bd
       -0.0045029824 -0.07836694 -0.03256788 -0.08203214
0000e0 44 ba b3 bd 25 3a 27 3d 55 1c 2c bd ec 1b 9e bd
       -0.08775762 0.040826935 -0.042019207 -0.077201694
0000f0 f0 30 89 3d fb a5 7a 3d 0e ef 12 ba 49 31 86 3d
       0.06698787 0.061193448 -0.000560508 0.06552369
000100 fe 40 02 3d 76 6d 3b 3d f5 af 8e bd c3 ff 87 ba
       0.031800263 0.045758687 -0.06967155 -0.0010375906
000110 3e 16 a5 bd 58 e5 91 bd cc ff 14 bd 8e 35 47 3d
       -0.08060883 -0.07123822 -0.03637676 0.048635058
000120 50 f7 eb 3c 40 1c 32 bd 1a 91 34 3d 5c 87 36 bd
       0.028804451 -0.043483973 0.044083692 -0.044562683
000130 8c 0d 92 3d 5e dc 38 bc 22 83 4b bd 32 cf ed 3c
       0.0713149 -0.011283008 -0.049685605 0.029029462
000140 8c 9d 85 bd ba ab 29 3d 2c 81 bf bd 91 70 c8 bc
       -0.0652419 0.041423537 -0.093508095 -0.024467738
000150 b6 b2 ac bd 30 37 b5 3d 1c 30 42 3d b1 78 ff bc
       -0.08432524 0.08848417 0.047409162 -0.03118548
000160 9b b7 d6 3c 73 68 77 3d 3e e0 19 bd f3 8d 86 bc
       0.026210597 0.060402345 -0.03756737 -0.016425109
000170 49 ac 72 bd c1 3b c2 bd 1c af 8e 3d ec bb 16 3d
       -0.059246335 -0.094840534 0.06966993 0.03680031
000180 9c dd 18 3d a7 b7 e9 bd ab 1a 17 bd 04 18 0b 3d
       0.03732072 -0.11411982 -0.036890667 0.03395845
000190 1f 66 a0 3c 85 38 f6 3d ab 93 5d 3d 4b a5 a3 3a
       0.019579945 0.12022499 0.054095905 0.0012485174
0001a0 9a 2a 76 3c af 70 18 bd 08 bd 61 3d d2 0e 42 bc
       0.015024805 -0.03721684 0.055111915 -0.011844354
0001b0 bc fb a3 3d b4 aa a2 3c 2e 32 c5 bc 7f 1a 89 bd
       0.08006999 0.019856788 -0.02407178 -0.06694507
0001c0 e5 63 16 bd dd d7 4a bc 34 ed e6 3d d2 8d 18 bd
       -0.03671636 -0.012380567 0.11275712 -0.037244625
0001d0 22 e8 af bd 62 d6 92 bb ab db 80 3d 58 11 13 bd
       -0.08589198 -0.004481123 0.06291898 -0.035905212
0001e0 05 f5 97 3c 55 de af bc 14 fd 98 3d e1 e8 52 bd
       0.018549452 -0.02146832 0.07470146 -0.051491622
0001f0 31 8f ca bd 39 f5 38 3d b1 55 8f 3d 6c e4 69 3d
       -0.09890593 0.045155738 0.06998766 0.057102606
000200 ef 5e 97 3d 69 82 80 bd 8e 07 90 3c b6 18 1c bc
       0.07391154 -0.06274874 0.017581727 -0.009527376
000210 c4 24 c8 bc 29 c9 1f bc c4 25 43 bd 1f ab 8a 3d
       -0.024431594 -0.00975255 -0.047643438 0.0677092
000220 9b 35 d1 bb 1a 91 b6 3b 8b 97 09 3d 8a ab 71 bb
       -0.006384564 0.0055714967 0.03359179 -0.0036875927
000230 51 1b 8c 3d 13 ec a0 bd f1 e3 9c bd e7 ce 4a 3d
       0.06841148 -0.078575276 -0.07660664 0.049513724
000240 c4 32 bb bd 4f 8f d7 bd 4b 2f a4 3d 35 6a 11 bd
       -0.09140542 -0.10525381 0.08016833 -0.035501678
000250 8a 3b 5c 3d f4 45 88 3d 46 07 85 bd f4 3f 13 bd
       0.05376772 0.066539675 -0.06495528 -0.035949662
000260 ac 16 f9 3c a1 39 73 bd 95 c1 ba 3c f5 1b 1b bc
       0.030406319 -0.05938113 0.022797385 -0.009467115
000270 da 30 f7 3b 0d e2 99 3b e2 e6 0f 3c 7d 05 8a bd
       0.0075436654 0.004696137 0.008783074 -0.06739328
000280 de 05 95 bb fa 0f b9 bd e9 94 36 3d 00 07 08 3b
       -0.0045478186 -0.090362504 0.044575606 0.0020756125
000290 2e 29 25 bd 47 df 0f bc a3 c0 90 bd f7 c1 8d bd
       -0.040322475 -0.008781261 -0.070679925 -0.069217615
0002a0 92 6c a7 b9 a4 72 72 3d c6 95 99 3b cb 61 0d bd
       -0.00031933613 0.05919136 0.004687044 -0.03451709
0002b0 2b 55 c1 bd 27 e0 96 3c d8 36 75 bd 84 24 60 3d
       -0.094400726 0.018417431 -0.059866756 0.054722324
0002c0 8b b2 b6 bc 1f be a0 bd ce 2c 13 bd e1 a4 16 bd
       -0.022301933 -0.07848763 -0.0359314 -0.036778335
0002d0 b5 01 6e bd 3f 7d 02 bd 33 a5 49 bd 5d 64 91 3d
       -0.058107097 -0.031857725 -0.049229812 0.07099221
0002e0 fd e0 0e 3d cc 4f f5 bb 20 ab 6b 3d 98 99 a0 3d
       0.034882534 -0.007486319 0.057536244 0.07841796
0002f0 ef 9e c6 ba 80 35 cc bd 73 5b a6 bd b8 5e aa bd
       -0.0015153567 -0.09971142 -0.08122911 -0.083188474
000300 12 0f d7 3c 94 5e 13 3d a6 f7 32 3d 91 03 79 bd
       0.026252303 0.03597887 0.043693207 -0.060794417
000310 34 ea 94 bd 2e f9 42 3d 37 9e 6f bc ce b6 68 3d
       -0.07271233 0.047600918 -0.014625124 0.05681496
000320 a0 08 74 3d 6a e1 4c 3d 88 09 b5 3c bc 55 d1 3b
       0.059578538 0.05001966 0.022099271 0.006388394
000330 62 34 a5 bd 32 51 ca bc 08 26 22 bd bd 65 8f bc
       -0.08066632 -0.02469692 -0.03958705 -0.017504567
000340 c7 56 58 3d a4 ce d3 bd af 81 21 bc 25 8b 83 3d
       0.052817132 -0.10342148 -0.009857579 0.06423024
000350 c5 bf 47 3d d3 fb 4e bc 84 c2 d5 bc 29 18 72 bd
       0.04876687 -0.012633282 -0.026093729 -0.059105072
000360 50 a9 9e bd 34 ee 95 bd 4a fe dd bd 32 42 1a bd
       -0.077471375 -0.07320824 -0.108395174 -0.037660785
000370 4f 4b 25 bd 0c af ee 3c 11 b5 b5 3c 5c dc cc 3c
       -0.040355023 0.029136203 0.022181066 0.02500742
000380 2e 08 be 3c 90 03 48 bc bf 97 81 3d 73 11 1c bd
       0.02319726 -0.012207881 0.063277714 -0.03810258
000390 2f 25 7c 3d 22 91 9e 3c ce 9f 7f 3d 30 f1 a5 b8
       0.0615589 0.019356314 0.06240826 -7.912738e-05
0003a0 d7 78 10 bd 17 7c bf bd 50 39 1e bc 32 c0 1c bd
       -0.03527149 -0.0934984 -0.009657219 -0.03826923
0003b0 51 73 bb bd 82 b9 a0 bc b1 66 b0 bc 36 36 00 3c
       -0.09152854 -0.019619707 -0.021533342 0.007825425
0003c0 c7 ec 30 3d d8 b4 65 3d ba f5 f8 3c 5f 88 bd bd
       0.04319456 0.05608067 0.030390609 -0.09254526
0003d0 9e 4a b3 bd 2e ee aa 3b 24 70 86 3d c9 59 b7 bd
       -0.087544665 0.0052163815 0.06564358 -0.08952672
0003e0 22 2d d0 bd b5 fa 6e bd d1 57 44 bd aa e6 54 bc
       -0.101648584 -0.05834456 -0.04793531 -0.012994448
0003f0 b7 23 16 bd 48 e3 65 bd 87 19 3d bd 5e 3c 52 3d
       -0.036655154 -0.056124955 -0.046166923 0.051327102

lstm.weight_ih_l1 f4 [512, 128]
000000 60 f2 6b bd 90 55 4f bd 92 4d 4d 3c 0c 19 b7 bc
       -0.057604194 -0.050618708 0.012530701 -0.02235081
000010 ef 55 c7 bb 51 43 d1 3c 12 60 14 3d 13 3a a5 3d
       -0.006083242 0.025544794 0.036224432 0.080677174
000020 05 95 56 3d dd c2 35 bd 90 62 46 3c d4 e6 0c 3d
       0.05238821 -0.04437529 0.01210846 0.034399822
000030 1d af 23 3c fc b9 96 3d ae 58 b4 bd 6d 67 1f 3d
       0.009990481 0.073596925 -0.08805977 0.038916994
000040 fb e8 5f 3c 88 ee 42 3d 5f e5 0b bd 70 dc 1d bd
       0.013666387 0.047590762 -0.034154292 -0.038540304
000050 6e 8c 93 bc 58 ec 4f 3d c3 83 7b bd fc 75 e7 bc
       -0.018011298 0.050762504 -0.061404955 -0.028254502
000060 35 48 95 bd 40 b6 2a bd 30 1b 4c 3c 96 c5 51 3d
       -0.07289163 -0.041677713 0.012457654 0.051213823
000070 bb de 29 3d b5 9a 26 bd 8c a5 9a bd 28 1c 8f bc
       0.041472178 -0.040674884 -0.07551107 -0.01746948
000080 b9 9e 62 bc c2 60 8a bd 42 67 18 bd b6 3a 92 3c
       -0.013831788 -0.06756736 -0.03720785 0.017850261
000090 d6 ee 6f 3d 4f 48 8f bd 8b c9 3d 3d af 86 3e 3c
       0.05857738 -0.06996214 0.046334784 0.011628791
0000a0 cc a9 99 bd c3 d9 51 3d 1c 8a 1f 3d bb 75 3e 3d
       -0.07503089 0.051233064 0.03895007 0.046498995
0000b0 75 c4 11 3b d8 3d df bc 6c ce 62 bd e1 3f cb bc
       0.0022242342 -0.02725117 -0.05537264 -0.024810733
0000c0 01 b3 3f 3d 2c 7e c8 bc ae e9 94 3d 38 1b a9 bc
       0.04680157 -0.024474226 0.07271133 -0.020642862
0000d0 c8 7b 2c 3d 52 9a 8d 3d 31 dc 91 3d fd 18 55 3c
       0.042110234 0.069142 0.07122076 0.013006446
0000e0 b3 2f 96 bc 67 7f 66 bb 4d 0f 88 bc fa 8d e7 bc
       -0.018333292 -0.0035171153 -0.016608858 -0.028265942
0000f0 7d f8 b1 bb 3d f8 2e bd 86 ee c7 3c d7 9e 8d bc
       -0.0054312334 -0.042717207 0.024405729 -0.017287655
000100 81 84 7e bd cd 77 61 bd 7a 72 13 bd ba 67 bd 3c
       -0.062138084 -0.05504589 -0.035997845 0.02312075
000110 09 bc 8e bc fe cc b0 bd a1 da 75 3d 7f 2a 76 bd
       -0.017423647 -0.08632849 0.060022954 -0.06009912
000120 f4 e7 1c 3d f5 bc 83 bd ee 4a bf 3c b0 9a df bc
       0.038307145 -0.06432525 0.023351159 -0.02729544
000130 06 dc 8e bd 8e 0e a6 bb 3c 64 7d 3d 01 ca 59 bd
       -0.0697556 -0.005067653 0.06186317 -0.05317116
000140 01 9b c2 3c 1c 6e 91 3c b8 38 55 bd b8 80 de bc
       0.023755552 0.0177527 -0.052056044 -0.027160987
000150 16 90 8a 3d 1a d5 0e bd ed ed 43 bc 67 8b fe 3c
       0.067657635 -0.0348712 -0.011958581 0.031072332
000160 08 66 8f 3d 6d 6b ce 3c 1b f3 07 3d b9 88 af bd
       0.07001883 0.025197709 0.033190828 -0.08571
000170 6f d0 00 3d 18 30 75 bd 70 66 e8 3c 2b da 58 3d
       0.031448778 -0.05986032 0.028369159 0.052942436
000180 f7 99 49 bb ca 1b a2 ba 3f 15 81 3c b0 87 39 bd
       -0.0030761936 -0.0012367901 0.015757201 -0.045295417
000190 7b 5f 89 3d 23 cd 88 bd 2d 4f b1 3d 30 b7 73 bb
       0.067076646 -0.06679752 0.0865768 -0.0037188046
0001a0 cb 35 92 3b 9d e3 b4 3d de 50 c0 bb 72 87 00 bd
       0.004461979 0.08832476 -0.005869015 -0.03137917
0001b0 72 ff 4b bd a4 8d 7c bc b4 bb 08 3c 3f 1e ed bb
       -0.04980416 -0.015414629 0.008345533 -0.0072362716
0001c0 76 8e 79 3d b2 b8 5d bd d5 39 ff bb 51 8b aa bd
       0.060926877 -0.054131217 -0.0077888765 -0.08327354
0001d0 3a f9 ac 3d 67 b1 53 3d 30 83 3a bc dd 69 7d 3d
       0.08445974 0.051682856 -0.011383817 0.061868537
0001e0 06 cb 86 bd 02 19 2e 3c be fb 8a bd c1 79 05 bd
       -0.065816924 0.0106260795 -0.06786297 -0.032586817
0001f0 15 61 99 bd 21 f0 88 bc 6e 31 2f 3b 12 bd de bc
       -0.0748922 -0.016716065 0.0026732343 -0.027189765
000200 9d 68 2f 3d 07 13 d5 bd 3b 23 85 3d dc ac b2 3d
       0.042824376 -0.1040402 0.0650086 0.087243766
000210 1c 70 db 3b 89 cd 24 bd ee 27 49 3d 2f 46 2c bc
       0.006696714 -0.040235076 0.049110346 -0.01051478
000220 07 19 79 3c 7f 4d 04 3b 64 8e 05 3d c0 3f c4 3c
       0.015203721 0.0020187793 0.032606497 0.02395618
000230 dc fa 7a bc 63 b1 3b bd 6b 73 65 bd d4 4f 8d bc
       -0.015318599 -0.045823466 -0.056018274 -0.01724998
000240 40 ad 6e bd 46 45 30 3c ca 18 a3 bd 43 d8 8f 3d
       -0.058270693 0.010758704 -0.079637125 0.070236705
000250 31 e3 45 3d 95 08 b7 3c 8e f5 37 3d 4f 34 81 bc
       0.04831237 0.02234296 0.044911914 -0.015772013
000260 92 0e 0a bb ed fb 1f bd 25 2b db 39 07 dc a4 3d
       -0.0021065813 -0.039058615 0.0004180308 0.080497794
000270 8a b5 90 bd ed 5d 99 bb 5a 6e 83 3c 48 4f 06 3c
       -0.07065876 -0.0046803863 0.01604383 0.008197613
000280 37 e1 2c bb 38 1d aa bd 19 ee bb bc ad 9b 09 bd
       -0.0026379356 -0.08306354 -0.022940682 -0.03359573
000290 a3 db 8f bc 7f 34 09 3d d4 b8 38 3d e9 5e 0b 3d
       -0.017560786 0.03349733 0.04509814 0.03402606
0002a0 f7 a6 1b bc 9c 0e a7 bd 1a 97 9b 3d 61 ba 46 bd
       -0.009500257 -0.081570834 0.0759718 -0.04851759
0002b0 92 9d 7d 3d 3e fb a1 bc 0f e6 c3 bd c1 40 10 3d
       0.06191785 -0.019773122 -0.095653646 0.035218004
0002c0 a8 9b d7 bc 88 9e 68 3d 13 49 9a bb 41 57 03 3d
       -0.02631934 0.056791812 -0.004708418 0.032065634
0002d0 a8 ad ad 3c 1f c0 ae 3c 72 cc 80 bd 43 6f c9 bb
       0.02120097 0.021331845 -0.06288995 -0.0061472966
0002e0 c5 0a a4 3c ac ea 1b 3d 47 73 89 bd 0f a5 ba 3d
       0.020024667 0.038065597 -0.067114405 0.09113514
0002f0 80 9e c7 36 20 e6 80 3d 42 fb 84 bd b5 5c 89 39
       5.949114e-06 0.06293893 -0.06493236 0.00026199748
000300 f2 cc e9 3c ae 90 4d 3d f1 8d c2 3d 67 cb 9c bd
       0.028540108 0.050186805 0.094997294 -0.076559834
000310 bd 15 a2 3d 84 63 c2 bb 3a cc e7 bc a6 a4 c9 3c
       0.079143025 -0.0059322733 -0.028295625 0.024614643
000320 36 50 58 bd 3f 16 60 3d e9 74 8e bd bd fc 80 3d
       -0.05281087 0.054708716 -0.069558926 0.06298206
000330 3b a7 89 3c 71 63 b9 bc ee 3a ad 3d 00 c1 2c bc
       0.016803375 -0.022630425 0.084585056 -0.010544062
000340 85 db 74 3d 8e eb 8f bd 22 11 c2 3b ad 8b d4 bc
       0.059779663 -0.0702735 0.0059224525 -0.025945509
000350 b1 c2 1d bd a5 c4 15 bb ac 2c bb 3d e3 a6 8b 3d
       -0.03851575 -0.0022852805 0.0913938 0.068189405
000360 ef 71 8c bd 9d b8 ea 38 50 83 e5 bc 48 fd 05 bd
       -0.068576686 0.000111923764 -0.028016716 -0.03271225
000370 ec 00 7a 3b f9 99 48 bd 00 26 83 3d 45 a1 c5 bd
       0.0038147522 -0.048974965 0.06403732 -0.096499
000380 44 2c f9 3c f3 0b 85 bc 74 0d 02 bc 5b 61 7f bc
       0.030416615 -0.01624105 -0.007937778 -0.015587176
000390 e5 49 d3 bc 55 c5 76 3d 24 77 17 3c c6 0a 3e 3d
       -0.025792072 0.060246784 0.009244714 0.046396993
0003a0 67 c5 24 bd 6c 2a b2 bd 1b 10 03 bb 1e 9b 6e bd
       -0.04022732 -0.086994976 -0.0019998613 -0.0582534
0003b0 dd 3a 2b bd 71 58 bf bc 42 a6 84 3b 1e 2f 93 bd
       -0.041804183 -0.023357602 0.00404814 -0.07186721
0003c0 5e a8 12 bd cd e4 d7 bc 61 91 7c 3c 0e cf 92 3d
       -0.0358051 -0.026354218 0.01541552 0.07168399
0003d0 cc 4f 8a 3d c8 7c ad bd bf 22 af 3d ee 7b aa bc
       0.06753501 -0.08471066 0.08551549 -0.020811047
0003e0 97 81 92 3d 76 26 69 3d 4b 80 36 3d 38 ec b3 3c
       0.071536236 0.056921445 0.044555943 0.021963224
0003f0 d0 02 6f 3d 81 c0 2e bd 0a e9 c2 bc cf 2d d6 3a
       0.05835229 -0.042664055 -0.023792762 0.0016340556

lstm.weight_hh_l1 f4 [512, 128]
000000 05 9e a3 3b 93 0f d4 3d c8 1a f1 3d d4 7d 6b bd
       0.0049932026 0.10354533 0.11772686 -0.057493046
000010 a5 76 65 3c 23 c1 5d bd 83 00 5d 3b ac 4a 8f 3d
       0.014005338 -0.054139268 0.003372223 0.069966644
000020 27 3e c8 3c 71 54 2e bd 97 0a c3 bd ac 69 7f 3d
       0.024443699 -0.042561 -0.09523504 0.062356636
000030 7b 72 99 3d c4 0c 0d bd de 97 43 3a a8 bd d9 bb
       0.074925385 -0.034436002 0.00074612896 -0.0066449232
000040 49 63 70 3d 60 f8 ee 3c 52 ba 2d bd 01 13 86 3d
       0.058688436 0.029171169 -0.042414017 0.065465935
000050 52 26 ed 3b fd 09 76 3c bd 50 1c bd d2 2f 95 3d
       0.007237234 0.01501703 -0.038162936 0.072845116
000060 1e 6b c0 3d c2 5c f7 3c c1 8b b1 bd d5 30 2d 3b
       0.09395431 0.030195598 -0.08669234 0.0026426811
000070 90 9d da bc 35 24 75 3d 97 83 6d 3c 12 ab f0 bd
       -0.02668646 0.059848983 0.0144967055 -0.11751379
000080 d9 3a 76 3d 48 6e 1f 3d ac fc ed 3c da 10 3e bd
       0.060114715 0.03892353 0.029051147 -0.04640279
000090 84 b9 f6 bc 4b 32 33 bd 46 06 b8 3d 9a 44 d7 bd
       -0.030117758 -0.043749135 0.089855716 -0.105111316
0000a0 f4 16 57 3d ec ee 96 bd c5 ce 8f 3d 02 d5 e3 3d
       0.052512124 -0.073697895 0.0702186 0.111246124
0000b0 1d 5f 80 3c 92 78 e9 3d 33 c9 b4 bd 0b 7a 05 3d
       0.015670354 0.1139995 -0.08827438 0.032587092
0000c0 b2 b1 be bc 97 bf 16 bd 8d 8c d2 3d 5a 93 9c bd
       -0.023278091 -0.036803808 0.10280714 -0.076452926
0000d0 b2 a8 6c bd 6e fb 52 bd 4e c0 4c bd d1 ae d4 3d
       -0.057778068 -0.051509313 -0.049988084 0.10384906
0000e0 b0 1a dd bd 91 82 5b bc 53 89 b7 bd 02 f7 d1 bd
       -0.10796106 -0.013397829 -0.089617394 -0.10252191
0000f0 fc 00 4c 3b e3 db ec 3b 9b 37 a7 bd a6 8b 53 3d
       0.0031128516 0.007228361 -0.08164903 0.05164685
000100 cb 99 80 bd 51 5a 6f 3d 3e bb d5 3d 92 84 14 3d
       -0.06279334 0.05843574 0.10436104 0.03625924
000110 54 a8 11 bd d7 1b e0 3d 75 d2 2b 3d 46 97 c2 3b
       -0.03556092 0.1094281 0.041948754 0.0059384434
000120 3f 1e 94 bb 98 3b 96 bd 04 b9 58 bc 7c 46 3e bd
       -0.004520207 -0.07335585 -0.013227705 -0.046453938
000130 66 7a 06 bc f1 ad a7 3d 4b 8b b1 bc 30 3f a2 bd
       -0.008207893 0.081874736 -0.021672865 -0.07922208
000140 ad 42 a5 bd 03 3d a3 3d 89 2d 23 bd 86 73 b0 bd
       -0.08069358 0.079706214 -0.039838348 -0.08615784
000150 7e 38 0b bd c7 e4 9e 3d 28 46 97 bd c2 fe 5c bc
       -0.033989422 0.077584796 -0.07386428 -0.013488473
000160 80 86 86 3d 52 08 e7 bc be 86 22 bd 54 46 4c 3d
       0.065686226 -0.02820221 -0.03967928 0.049871758
000170 6b 01 15 bd 2f 9b ae 3d 1c 88 54 bd 2e a8 ce 3c
       -0.036378305 0.08525693 -0.051887617 0.025226679
000180 26 71 ee bc d1 9e 33 bb a8 6f 1f bc 98 2e 99 bd
       -0.029106688 -0.0027407894 -0.009731211 -0.0747959
000190 df ab bf bc 42 5f dc bd a9 67 eb bc b1 b4 fd bd
       -0.023397384 -0.107603565 -0.028735952 -0.1238798
0001a0 93 7a 1e bc e0 04 03 bd 8e af 9b bc 7e d4 a1 3d
       -0.009672779 -0.03198707 -0.01900461 0.07901858
0001b0 3a 4d 03 3d 5c f4 4a bd a6 de 6f 3d 24 57 f2 3c
       0.03205607 -0.049549446 0.058561943 0.029582568
0001c0 bb f1 a7 bd 07 89 d5 3d f9 a0 5e bc 6e 7b d3 3b
       -0.08200403 0.104265265 -0.013588184 0.006453923
0001d0 bb 99 b3 bc da 90 c1 3b cd 50 e1 3d 9e a2 bf bd
       -0.02192389 0.00590716 0.1100174 -0.09357189
0001e0 b3 df 58 3d ca 36 d6 bb d2 94 0a 3c 1f 09 de 3d
       0.05294771 -0.006537293 0.008458333 0.108415835
0001f0 d7 38 52 bd d4 97 28 bd 7a 24 35 bd 66 fb 05 bd
       -0.051323738 -0.04116042 -0.04422424 -0.032710455
000200 4b 38 b2 3c 62 62 de 3b 3d 91 28 3d 01 d0 ba bd
       0.021755358 0.0067866305 0.041154135 -0.09121705
000210 73 67 f9 bb ff 3c 2c bc 9a cf 49 3d 0d 4e af bd
       -0.007611209 -0.0105125895 0.04927025 -0.08559809
000220 63 ad f2 3c 47 ae cd bd 2c 4b 27 bd 11 62 c6 bc
       0.029623693 -0.100430064 -0.040843174 -0.024216684
000230 11 f5 c0 3b a3 51 ea bc 62 92 7f bb 2e 6a ed 3c
       0.005888589 -0.02860338 -0.0038997163 0.028981294
000240 35 46 07 bd ef 10 5e 3b ef 02 15 bd 15 eb fc 3c
       -0.03302594 0.0033884605 -0.03637975 0.030873815
000250 f9 1b b8 bc a5 6b af 3c 37 b4 6e bd ef a8 29 3d
       -0.022474276 0.021413634 -0.058277335 0.041420873
000260 7a 79 53 bc 8a 72 1a bd 3f 2d 67 ba 67 95 89 3d
       -0.01290738 -0.03770689 -0.0008818693 0.06717949
000270 a6 f0 0c bd 1a cf 8d 3b 5d c7 f9 bc 1f 9d 31 3d
       -0.034409188 0.004327667 -0.030490572 0.043362733
000280 29 85 25 bd 10 08 f5 3c af ae ce 3c 89 0d 9b 3d
       -0.040410195 0.029911071 0.02522978 0.07570941
000290 50 4e 2e bc ad 00 96 bd 5d d6 ee 3d 7c 3d 49 bd
       -0.010638788 -0.07324348 0.1166198 -0.0491309
0002a0 76 81 bf 3d 52 56 bb 3c 53 72 a9 bb 52 cf 57 bd
       0.093508646 0.02286831 -0.005171099 -0.05268795
0002b0 ff d4 2e 3d ac 19 0f 3d af c1 76 3d 66 ee c8 bc
       0.042683598 0.034936592 0.060243305 -0.02452774
0002c0 f0 ae e7 3c 03 88 83 bb 42 76 06 bd 6f c6 42 bd
       0.028281659 -0.0040140166 -0.032827623 -0.047552522
0002d0 78 83 8c bb 98 e3 db 3b 62 34 de 3b a7 33 9d 3d
       -0.0042881332 0.006710481 0.006781147 0.076758675
0002e0 52 f3 15 3c 96 c9 ac 3a 37 6a 57 bd 6b 8f 64 bd
       0.00915225 0.0013182636 -0.05259153 -0.055800837
0002f0 14 a2 51 bd ba 2f ae bd 4e a5 6e 3d ca f5 3e bd
       -0.05117996 -0.08505197 0.058263116 -0.04662112
000300 67 7f 89 3a 3b bd 5f 3d 1c 88 90 3d d0 53 80 3d
       0.0010490239 0.054623824 0.07057211 0.06265986
000310 33 4f 29 3d 6d 51 2a 3d 3f 03 03 3b b0 5e dd 3c
       0.041335296 0.04158156 0.0019990948 0.02702269
000320 80 c6 c5 3c f0 e8 84 bc fb fd ca 3c f8 f4 7f 3d
       0.024142504 -0.016224355 0.02477931 0.06248948
000330 2a 4b 8f bd 40 a8 4e b9 a1 99 c1 bb 62 1c 5b bd
       -0.06996758 -0.00019708369 -0.0059082066 -0.053493865
000340 4b 53 2a bd 71 5b 05 3d b9 b2 af bd e6 34 7b 3d
       -0.04158334 0.03255791 -0.085790105 0.061329745
000350 2d cb 41 3c 5a 99 a7 3d 09 1f e8 3c 34 93 8e 3d
       0.011828226 0.08183546 0.028335111 0.069616705
000360 99 7e 8a bc d0 47 9c bd e5 13 d9 bc 28 3e 2e bb
       -0.01690607 -0.07630885 -0.026498744 -0.002658734
000370 46 db 7c bd 2c 8b e6 3d d0 c1 3c bd ac 1d 90 bd
       -0.061732553 0.11257014 -0.04608327 -0.070369095
000380 0b a7 5b 3c 00 4a ac bc d0 fd 19 bd 46 2a 6e b9
       0.013406525 -0.02103138 -0.03759557 -0.00022713197
000390 18 d1 68 bd 32 d0 21 3d 28 87 ce bb 4f 60 54 bd
       -0.056840032 0.03950519 -0.006302733 -0.05184966
0003a0 31 54 85 bd 36 28 4f b9 13 ba b5 bd 6f c1 09 bc
       -0.06510199 -0.00019756038 -0.088733815 -0.008407935
0003b0 ca 49 4d 3b 6d 06 e7 3d fd 84 14 3d c4 d2 ad 3d
       0.00313245 0.112805225 0.03625964 0.08487466
0003c0 35 ee 71 3d 8e 1d 90 bb 97 a5 5f bc 5e e1 e9 3d
       0.059065063 -0.0043980544 -0.01365032 0.114199385
0003d0 e8 9c d3 bd ae 4a 8c 3d 30 de 1d bd fd 6e 90 bd
       -0.10332662 0.068501815 -0.038541973 -0.07052419
0003e0 fd 0f d9 bd a3 35 eb bc 81 32 03 3e ce 13 a6 3c
       -0.10598753 -0.0287121 0.12812234 0.020273115
0003f0 af 9d 34 3b c1 a2 08 bd 6e 87 d3 3d 74 54 92 bc
       0.0027559807 -0.03335834 0.103285655 -0.017862536

lstm.bias_ih_l1 f4 [512]
000000 f1 24 b2 bd 5e 3a 70 bd f9 52 57 bd ea 70 28 bb
       -0.08698452 -0.058649413 -0.052569363 -0.0025702068
000010 d4 cc c1 bc 97 70 5f bd af b1 23 bd 83 d7 19 3c
       -0.02365724 -0.054550733 -0.039964374 0.009389761
000020 a0 7e 5c bd 38 a8 d0 bc 9e 28 3f 3d 77 c6 9a bd
       -0.053831697 -0.025470838 0.046669595 -0.075573854
000030 b6 b5 26 3b 87 db 40 bd 3c 1b 42 3c 58 a3 00 3d
       0.0025437898 -0.047084358 0.0118473135 0.031405777
000040 24 1d 8d 3d 15 0e 03 3d 3a 25 8f 3d c7 df ce 3c
       0.06890324 0.03199585 0.06989522 0.02525319
000050 be e7 63 bd b0 d8 53 3d 82 b0 ad 3d 39 ca e3 3c
       -0.05564093 0.05172032 0.08480932 0.027806388
000060 32 cb 4c 3d df 37 bd bd 81 be a6 3d 78 03 1f 39
       0.04999847 -0.09239172 0.081418045 0.00015164714
000070 b5 c9 89 3c 04 3c aa bd a5 00 81 bc 40 1d 6f 3d
       0.016819814 -0.08312228 -0.015747378 0.058377504
000080 1e 72 af bd 08 42 06 bd 92 7f c7 bd 1d 43 69 bd
       -0.08566688 -0.032777816 -0.09741129 -0.05694877
000090 5f 02 b3 3c ee de b3 3d 6b e9 89 3d 1d 92 14 3d
       0.021851717 0.08782755 0.06733974 0.036272157
0000a0 8c 37 71 3d ac bf 90 3d dc f0 03 3d fb 88 a2 3d
       0.058890864 0.070678085 0.032212123 0.07936283
0000b0 c6 2c fd bb 5d ac c4 bd 6e f1 84 bd a1 cb a9 bd
       -0.0077262847 -0.09603188 -0.064913616 -0.08290792
0000c0 ee 1a 93 3d 82 0f 35 bd 30 0b c5 3d 7f 35 89 3d
       0.07182871 -0.044204243 0.096212745 0.06699657
0000d0 98 68 6c bd 23 dd 3f 3d 95 77 3f bd 61 56 6f 3d
       -0.057716936 0.04684175 -0.0467449 0.058431987
0000e0 d3 23 30 bc 1a 42 56 bc fc f8 3a bd 8b ef 9e bd
       -0.010750729 -0.013077283 -0.045647606 -0.07760533
0000f0 9e 7d 7e 3d f2 bd 54 3c 4b 2e 3a 3c c7 fc 15 3d
       0.062131517 0.01298474 0.011363576 0.03661802
000100 76 72 bb bd ec 4b 10 bd fb 8e 00 3d 66 c2 cb bc
       -0.09152691 -0.035228655 0.031386357 -0.02487297
000110 d3 36 85 3d 0b 31 dd bc 28 4c d0 bc 8b eb 9c bd
       0.065045975 -0.027000925 -0.02542694 -0.07662114
000120 4c 0a e7 3c b1 d0 28 bd ac c9 89 bd 07 4d 68 3d
       0.028203152 -0.04121465 -0.06727919 0.056714084
000130 a3 35 b3 bd e8 5d 85 bd 21 41 93 bd 98 b7 a8 bc
       -0.08750465 -0.06512052 -0.07190157 -0.020595357
000140 4d 23 9c 3d f8 a3 26 3d 2c ba ab 3c f8 84 d4 bd
       0.076239206 0.040683717 0.020962797 -0.10376924
000150 dc c9 eb 3c 04 bc 6c bd be d5 db bc 07 c2 5f bd
       0.028782777 -0.057796493 -0.026835319 -0.0546284
000160 18 7b b6 bd 72 94 ca bc df 06 08 3d f0 ae 11 bd
       -0.08910197 -0.024728987 0.033209678 -0.035567224
000170 7e 63 22 bd 08 24 43 3b 00 64 46 bd f0 77 a3 3d
       -0.039645664 0.0029776115 -0.04843521 0.07981861
000180 fb ae 07 3d 03 a8 81 bd 11 02 b5 bd aa 68 fe 3c
       0.03312586 -0.06330874 -0.08838285 0.031055767
000190 a3 9a 78 bd 3b 1f 36 bd 9c 67 98 bd 85 6a bb 3d
       -0.060694348 -0.044463377 -0.07441637 0.09151176
0001a0 db 2c d3 bd ef dd 82 3c 4c 16 82 3c d3 45 8b bd
       -0.1031129 0.015974967 0.015879773 -0.06800427
0001b0 ed 66 cb 3d 0e 31 95 38 14 39 67 bd c4 14 1c bd
       0.09931741 7.114011e-05 -0.05645092 -0.03810574
0001c0 9e 5c 84 bd fa 82 75 bd dc 51 d1 bc 32 4e 8d 3d
       -0.06462978 -0.059939362 -0.025551729 0.0689968
0001d0 0c e1 d5 ba a8 20 89 bd 10 76 f5 3c 19 13 71 bd
       -0.001631768 -0.06695682 0.029963523 -0.058856104
0001e0 af 50 d5 bc 1c 9b b4 bd 6f 9e c7 bc 81 6c 2f bd
       -0.02603945 -0.08818647 -0.02436754 -0.042828087
0001f0 a7 27 5e 3d 8b aa 3c bd e7 07 50 bd e5 a9 cf 3c
       0.054237034 -0.04606108 -0.050788786 0.025349567
000200 80 78 9a 3d d6 f1 a1 bd c0 7e 45 3d 25 35 aa 3d
       0.07542515 -0.07907455 0.04821658 0.08310918
000210 63 35 49 3d be d7 8f bd b4 cf 73 bd 63 75 15 3d
       0.04912318 -0.070235714 -0.059524253 0.0364889
000220 a9 2b a2 bd 80 0b 9d 3c 58 93 75 bc 85 19 a2 3d
       -0.07918484 0.019170523 -0.014988743 0.07915024
000230 70 c5 9c bd b2 2b 00 3d 0f 27 c8 bc 24 1d 39 bd
       -0.07654846 0.03129167 -0.024432687 -0.045193806
000240 d0 5f 1f 3d df a5 20 3c b6 e6 fb bc 40 89 6b 3d
       0.038909733 0.009805172 -0.03074966 0.05750394
000250 70 e5 37 3d 6f 36 4d 3d 00 49 3e bc 46 a9 6c 3d
       0.044896543 0.05010074 -0.011614084 0.05777862
000260 35 16 5e bd 50 29 83 3d f2 7f 8a 3c 46 c8 64 3d
       -0.054220397 0.06404364 0.016906712 0.055855058
000270 03 9d b5 bd 55 3f fa 3c b1 7a 83 bd 3c 49 88 bd
       -0.08867838 0.030547777 -0.06419886 -0.06654593
000280 e2 a3 fd 3c 39 56 b1 bd cd cf 66 3d 9c 46 ad bd
       0.030961934 -0.08659024 0.056350518 -0.08460733
000290 c5 ff 11 bd 14 1c 21 bd 2c 0b 86 3d d2 8c 09 bd
       -0.03564431 -0.039333418 0.065450996 -0.033581562
0002a0 ef 63 0a bc 5a 60 b7 bd 08 ae e5 3b 82 21 d8 3d
       -0.008446678 -0.089539245 0.0070092715 0.10553266
0002b0 41 5e 24 bd 17 f3 80 3d bd 46 5b bb eb d1 05 bd
       -0.04012895 0.06296366 -0.0033458911 -0.032670897
0002c0 45 1e b1 bd bd 8a 8b 3c c7 8d 7e 3d d5 ba 83 3d
       -0.086483516 0.017033929 0.06214693 0.0643212
0002d0 39 36 be 3c d2 52 96 bd 59 a8 4f 3d 6e bc ab 3d
       0.023219215 -0.073400155 0.05069766 0.083855495
0002e0 70 9a 9b 3d 12 16 75 3d c8 b0 2c 3d a0 88 05 be
       0.07597816 0.0598355 0.04216078 -0.130404
0002f0 b6 40 b7 3d a8 f4 3a bb 7d 45 74 bd b5 e0 97 bd
       0.089478895 -0.0028527174 -0.05963658 -0.07415906
000300 f6 49 9e bd 9c 7b 27 3c 47 32 0c 3d 80 bb 39 3d
       -0.07728951 0.010222342 0.034227636 0.04534483
000310 03 e1 b5 bd e7 22 d9 3a 9c 9c 21 3c ef 47 a6 bd
       -0.08880808 0.0016566188 0.009863999 -0.08119189
000320 65 11 8d bc 01 c7 d2 bc a5 e3 ba bd 96 26 93 3d
       -0.017220208 -0.025729658 -0.09125451 0.07185094
000330 b2 ae 4e 3c 96 45 a1 3d 2d dd b4 bc 78 3d 7a bd
       0.012614893 0.078746006 -0.022078121 -0.061093777
000340 15 29 a5 3d 80 fd d6 bc 5c 26 25 3d 7a e4 49 ba
       0.080644764 -0.026243925 0.040319785 -0.0007701587
000350 7e 18 9f bd c5 e3 e9 3c 2d a3 47 bc d1 44 f8 3b
       -0.077683434 0.028550992 -0.0121849 0.007576563
000360 64 f7 8f 3d 89 e7 9f 3d 35 d0 fc bc 99 bf 0a bc
       0.07029608 0.07807834 -0.030861 -0.008468532
000370 c6 69 a9 bd 44 84 67 bd 25 e1 8e 3c ac a8 6b 3d
       -0.08272128 -0.056522623 0.017441342 0.057533905
000380 16 ed 6f bd 9d 93 6e 3d ac e9 c9 b8 f2 11 d9 bc
       -0.058575712 0.058246244 -9.627952e-05 -0.026497815
000390 08 f8 9b bd c3 83 ac bb 73 f3 0b bd 4b 37 5f 3d
       -0.076156676 -0.0052647307 -0.03416772 0.05449609
0003a0 6c ab 0b bd b5 09 38 bd 7e c4 8d bc c3 5b 86 3d
       -0.034099028 -0.044931132 -0.017305609 0.06560471
0003b0 a5 1d fa bc dd fc 6f 3d 8f 80 4e bd 67 f0 26 3c
       -0.030531714 0.05859076 -0.05041557 0.010189152
0003c0 91 1b 41 3d 81 fc c3 bc 8c 75 73 bd 80 73 c8 3d
       0.04714543 -0.023924114 -0.059438273 0.09787655
0003d0 58 ef 04 3c 15 51 39 bd 55 51 80 bc fd 2e 24 3d
       0.008113705 -0.04524334 -0.015663782 0.040083874
0003e0 92 ec 30 3d 3f 25 7f bd 7a 0b dd 3b 8e 63 33 bc
       0.04319436 -0.06229138 0.006745753 -0.010949029
0003f0 10 6b c8 bc be 75 a3 3c 6e 32 7d 3d c8 fa 09 3d
       -0.024465114 0.019953605 0.06181567 0.03368643
