models/INFY_lstm.pth (torch, 809509 bytes, 9 tensors)

lstm.weight_ih_l0 f4 [512, 5]
0	0x3bf84036	0.007576014
1	0x3d9a636e	0.07538496
2	0xbd54aaca	-0.05192069
3	0x3d5afecc	0.05346565
4	0x3daf54e5	0.08561114
5	0x3d92cf25	0.07168416
6	0xbba7f57b	-0.005125699
7	0x3d880fca	0.066436365
8	0xbd020a08	-0.031747848
9	0xbccafefa	-0.024779785
10	0xbe16e368	-0.14735186
11	0xbdad36c9	-0.08457715
12	0xbe1049fa	-0.1409072
13	0x3c25ecd8	0.010127269
14	0x3d6a0ca3	0.057140958
15	0x3dfba608	0.12287527
16	0xbd4a1f26	-0.04934611
17	0xbca00953	-0.019535696
18	0x3cdc0d9b	0.026861956
19	0x3df454f0	0.11930263
20	0x3e0b86b6	0.13625607
21	0xbc57f577	-0.013181082
22	0x3e12f4a1	0.14351131
23	0x3d9158c2	0.07097007
24	0xbc52252a	-0.012826243
25	0xbdff9ada	-0.124807075
26	0xbdafed62	-0.08590199
27	0xbd875df0	-0.06609714
28	0xbddb8e41	-0.10720492
29	0x3d169a6d	0.036768366
30	0xbd3b94f6	-0.045796357
31	0x3d73df19	0.059538934
32	0xbd1e9693	-0.038717818
33	0xbde55bd8	-0.111991584
34	0xbdfa5e91	-0.12225068
35	0xbc3af749	-0.011411496
36	0xbdecd392	-0.11563791
37	0xbd7badbe	-0.06144499
38	0xbd75ce92	-0.060011454
39	0xbd79508a	-0.060867824
40	0xbd2bd5d8	-0.041951984
41	0x3d5798a1	0.052635793
42	0xbd029473	-0.031879853
43	0xbdaef029	-0.08541901
44	0xbd7308c7	-0.059334543
45	0xbc7153cf	-0.014729454
46	0x3d942681	0.072339065
47	0x3dd49969	0.10380823
48	0xbd558755	-0.052131016
49	0x3e1b8aaf	0.15189622
50	0x3e093dfc	0.13402551
51	0x3d4d5dee	0.050138406
52	0x3d80295d	0.062578894
53	0x3bd93487	0.006628576
54	0x3d78b490	0.060719073
55	0x3d45ff20	0.04833901
56	0x3d72e1b8	0.059297293
57	0xbc707f45	-0.014678781
58	0xbc949bea	-0.018140752
59	0xbc564a89	-0.013079294
60	0x3d3c11d7	0.04591545
61	0xbd2e3607	-0.042531993
62	0xbdacf368	-0.084448636
63	0xbc5688c6	-0.013094133
64	0x3cb23465	0.0217535
65	0x3d4ad3cd	0.049518395
66	0x3d326ad0	0.043558896
67	0x3da5a3a1	0.0808785
68	0x3d5c0bd8	0.053722233
69	0x3cdde722	0.027087752
70	0xbc1f11c9	-0.00970883
71	0xbd005d4a	-0.031338967
72	0xbce9eb47	-0.028554572
73	0x3ce5fbc6	0.028074156
74	0x3d9b0f04	0.075712234
75	0x3d960371	0.07324875
76	0xbd6f5c77	-0.05843779
77	0x3bf10032	0.0073547596
78	0x3dbf20e4	0.09332445
79	0x3c67e5bb	0.014153893
80	0x3ceee377	0.029161198
81	0xbdb3c9f7	-0.08778756
82	0x3c83cead	0.016089762
83	0x3d8c7fce	0.06860314
84	0x3dcf3b15	0.10118691
85	0x3d45a2c4	0.04825093
86	0x3c47d3f2	0.012196528
87	0xbc7ad6d0	-0.015310004
88	0x3d8f6b6d	0.07002912
89	0x3cfd1f13	0.030898606
90	0xbcb823a4	-0.022477932
91	0x3dc20d77	0.094752245
92	0x3d8121a8	0.063052475
93	0x3c62aa89	0.013834604
94	0x3d0016cb	0.031271737
95	0xbdad1a95	-0.08452336
96	0x3c37570a	0.011190185
97	0xbd13b4b0	-0.03606099
98	0x3d8f9820	0.070114374
99	0x3d287265	0.04112472
100	0xbc9146d7	-0.017733974
101	0x3d1adec5	0.037810106
102	0xbdac9b49	-0.08428056
103	0xbd8651ac	-0.065585464
104	0x3cfc6446	0.030809533
105	0x3d66a446	0.056309007
106	0x3e009776	0.12557778
107	0x3e1f3351	0.1554692
108	0x3c75b87a	0.014997596
109	0x3d143215	0.036180574
110	0xbd96d54d	-0.07364903
111	0xbdaab944	-0.08336118
112	0xbd06c61e	-0.032903783
113	0xbcfe2e39	-0.0310279
114	0xbc8b5a53	-0.017010843
115	0x3d4f2ba0	0.050578713
116	0x3dc72603	0.09724047
117	0x3cce4782	0.025180582
118	0x3dc1697f	0.0944395
119	0x3cc5c4c1	0.024141671
120	0xbd4d550f	-0.050129946
121	0x3ca41a9b	0.020032218
122	0xbd0641c8	-0.032777578
123	0xbe08531d	-0.13312955
124	0x3d9ea332	0.07745971
125	0xbdc5c554	-0.09656778
126	0x3c6875fa	0.014188284
127	0xbd92e5d1	-0.0717274
128	0xbcd303a8	-0.02575858
129	0xbd3f546a	-0.046711363
130	0x3cc62be8	0.024190858
131	0xbd579dff	-0.05264091
132	0x3ddf10fe	0.10891913
133	0xbb2b0fb6	-0.0026101894
134	0xbcaac64f	-0.020846514
135	0x3d9083db	0.070563994
136	0x3d88a31d	0.066717364
137	0x3da9fee7	0.08300572
138	0x3b92968c	0.004473513
139	0x3c85cbd8	0.016332552
140	0xbd97964b	-0.07401713
141	0xbc90217d	-0.017594093
142	0xbc0132c8	-0.007885642
143	0xbcf935ed	-0.030421222
144	0x3d5bb3e0	0.05363834
145	0x3dca1300	0.09866905
146	0x3c3ce2d4	0.011528689
147	0xbd2fbfd5	-0.042907555
148	0xbd2d4dd1	-0.04231054
149	0xbd950348	-0.072760165
150	0x3dab68a7	0.0836957
151	0xbc249350	-0.010044888
152	0x3d94b0c6	0.07260279
153	0x3e133f88	0.14379704
154	0x3dbcf792	0.09226908
155	0x3e18df70	0.14928985
156	0x3b7ccae1	0.0038573074
157	0x3d57b518	0.05266294
158	0x3d19f4a4	0.037586823
159	0x3b061a2b	0.0020462375
160	0x3d89bd00	0.06725502
161	0xbaee5de4	-0.001818594
162	0xbd6b6981	-0.057473663
163	0xbc7c6565	-0.015405034
164	0x3cf2d7f7	0.029643996
165	0x3d0bdc3d	0.034145582
166	0xbcc539e5	-0.024075458
167	0xbcc97a4f	-0.024594454
168	0x3d0bfafb	0.0341749
169	0x3ce8eb10	0.028432399
170	0x3dfab13d	0.12240837
171	0x3c988e14	0.018622436
172	0xbcc898f8	-0.024487004
173	0x3cf3eeba	0.02977692
174	0xbd2012e9	-0.039080534
175	0x3d3d05a4	0.046147957
176	0xbda76d3f	-0.08175134
177	0x3d121213	0.03566177
178	0x3d9674e1	0.07346512
179	0x3d374838	0.044746608
180	0x3d9e5a2f	0.07732045
181	0xbd0fd5f0	-0.035116136
182	0x3d1666da	0.03671918
183	0xbd8cd572	-0.06876649
184	0xbcf7fc89	-0.030271785
185	0x3db6c6c1	0.08924628
186	0x3de9ee2c	0.11422381
187	0x3c95c231	0.018281074
188	0x3dfac0db	0.122438155
189	0x3de17d21	0.110101946
190	0x3d5c75d2	0.0538233
191	0x3cef3520	0.029200137
192	0x3d99c3c5	0.07508043
193	0xbca2ed3e	-0.019888517
194	0x3d70833c	0.058718905
195	0xbcc9d412	-0.024637256
196	0x3d17b6dc	0.037039623
197	0x3ddfea4f	0.10933363
198	0x3ba7fe2e	0.005126736
199	0xbcb958bc	-0.02262532
200	0x3c65be92	0.014022486
201	0xbb6932a8	-0.0035583172
202	0x3db28dba	0.087184384
203	0x3d30f192	0.04319913
204	0xba8a784b	-0.0010564415
205	0x3e074429	0.13209595
206	0xbd040e15	-0.032239992
207	0xbcda47bb	-0.026645532
208	0x3dc431b5	0.09579793
209	0x3e07a938	0.13248146
210	0x3d908efc	0.07058522
211	0x3cc6de0d	0.024275804
212	0x3d2f8076	0.04284712
213	0x3d3a3423	0.045459878
214	0x3d3cbd89	0.046079192
215	0x3d87cdcc	0.066310495
216	0xbd76f512	-0.06029231
217	0xbc946469	-0.018114286
218	0x3cdfe06a	0.027328689
219	0x3d5d9c5b	0.05410419
220	0x3e3e93f5	0.18611129
221	0xbc062d91	-0.008189575
222	0x3d854da3	0.06508949
223	0xba44b2d0	-0.0007503452
224	0x3e2aefb3	0.16693
225	0x3db52ea5	0.08846787
226	0x3da2b706	0.07945065
227	0x3dfb6a6d	0.122761585
228	0x3c8c04fa	0.017092217
229	0x3de30ee4	0.110868245
230	0x3c8cb6bb	0.017176976
231	0xbdda87f8	-0.10670465
232	0xbdf9ddb2	-0.12200488
233	0xbd9e12cf	-0.07718431
234	0xbd712113	-0.058869433
235	0x3dbc6042	0.09198047
236	0x3d973701	0.07383538
237	0x3e10283e	0.14077851
238	0x3c719041	0.0147438655
239	0x3ca5dd4d	0.020247126
240	0x3d978d69	0.07400019
241	0x3d83a711	0.0642835
242	0x3d9497d1	0.07255519
243	0x3b4ea64c	0.0031532226
244	0xbcf51f41	-0.02992213
245	0x3dcdd118	0.10049647
246	0x3d9f106e	0.077668056
247	0x3d9baf08	0.07601744
248	0xbcd7f458	-0.02636163
249	0xbc9255eb	-0.017863235
250	0x3cfa6194	0.030564107
251	0x3c2a3660	0.010388941
252	0x3dbbd348	0.09171158
253	0x3d98eb64	0.07466772
254	0x3d80cf8f	0.06289589
255	0x3c101c8d	0.00879587

lstm.weight_hh_l0 f4 [512, 128]
0	0x3d2f5f2e	0.04281538
1	0xbc8312b2	-0.016000126
2	0x3a63cab0	0.00086895656
3	0xbd09a0a3	-0.03360046
4	0x3d9e667c	0.07734391
5	0x3bb4a1f7	0.005512472
6	0x3dbdec9c	0.09273645
7	0x3b53c1bb	0.0032311517
8	0x3d5b4b62	0.053538688
9	0x3d3f8b5e	0.04676377
10	0x3e055014	0.13018829
11	0xbd068ec4	-0.032850996
12	0x3d274b39	0.040843222
13	0xbd38664a	-0.045019425
14	0xbca32d32	-0.019919012
15	0xbdb27635	-0.087139525
16	0xbd702a8a	-0.05863432
17	0xbd6b3019	-0.057418916
18	0xbd825b8f	-0.0636512
19	0x3d287a39	0.041132186
20	0xbc973d05	-0.018461714
21	0x3ccf2c5d	0.025289709
22	0xbcb99204	-0.022652633
23	0x3db8b00c	0.09017953
24	0xbc579d68	-0.013160087
25	0xbd0b49b5	-0.03400584
26	0xbd494add	-0.04914366
27	0xbc863d77	-0.01638673
28	0x3d36052f	0.044438537
29	0x3c8e7e93	0.01739434
30	0x3d89706b	0.06710895
31	0x3ad7f4fe	0.0016476212
32	0x3dc7f767	0.09763985
33	0xbda63ed2	-0.08117451
34	0xbad11b98	-0.0015953658
35	0xbc60c5b5	-0.013719012
36	0xbd5ecdba	-0.054395415
37	0x3d4ecb04	0.05048658
38	0x3d1224f6	0.03567978
39	0x3c544fbe	0.012958465
40	0xbda906b3	-0.08253231
41	0xbd92b7e0	-0.071639776
42	0xbd960e1e	-0.073269114
43	0x3d88ed24	0.06685856
44	0xbdbb3098	-0.09140128
45	0xbaea5222	-0.0017877261
46	0x3da255a6	0.079264924
47	0x3abfe1c2	0.0014639425
48	0x3d9a8820	0.07545495
49	0xbc72faa5	-0.014830266
50	0x3d3a8f61	0.045546893
51	0xbd7295e4	-0.059224978
52	0xbcb14c0f	-0.021642713
53	0x3bd4769a	0.006483865
54	0x3d533fe9	0.05157462
55	0x3d5c1a63	0.0537361
56	0x3d725e32	0.059171863
57	0xb9263048	-0.0001584898
58	0xbceef59b	-0.029169848
59	0x3c9a3d89	0.01882817
60	0x3c3ab290	0.011395112
61	0xbd0ef506	-0.03490164
62	0xbdadfeab	-0.0849584
63	0x3d54ed6a	0.05198423
64	0x3c1bee88	0.0095173195
65	0xbc070977	-0.008242003
66	0x3d427c8a	0.04748205
67	0xbc7151c2	-0.014728965
68	0xbd2abc46	-0.041683458
69	0x3cc4ccd6	0.024023455
70	0x3cfb9acf	0.030713467
71	0x3d8745d7	0.06605118
72	0xbd25c2b6	-0.040468894
73	0xbb9bf0d3	-0.004758933
74	0x3c3aa8c2	0.011392774
75	0xbd9a241f	-0.07526421
76	0x3cadc720	0.021213114
77	0xbd945249	-0.07242257
78	0xbc19de3d	-0.009391365
79	0xbd7f9721	-0.062399987
80	0x3d4549ea	0.048166193
81	0xbd165efc	-0.036711678
82	0x3d0583fe	0.03259658
83	0x3d54d391	0.051959578
84	0xbdb068e1	-0.08613754
85	0xbd29fc4b	-0.04150037
86	0xbcf3fdcc	-0.029784106
87	0xbcbbdb06	-0.022931587
88	0x3d96ff25	0.07372884
89	0xbd871055	-0.06594912
90	0xbce11dbb	-0.027479997
91	0xbd022e71	-0.03178257
92	0xbc1ef8f1	-0.009702907
93	0xbd021a2b	-0.031763237
94	0x3db16770	0.08662307
95	0x3d23ea8c	0.040018603
96	0x3d471bd0	0.04861051
97	0xbd9b0bfe	-0.07570647
98	0x3c97d919	0.018536137
99	0xbd5fd841	-0.054649595
100	0x3d012846	0.03153255
101	0x3d410358	0.04712233
102	0xbceeb471	-0.029138776
103	0xbcf3005e	-0.029663261
104	0x3deb30b9	0.114839025
105	0x3da81cd5	0.08208624
106	0xbb36e79e	-0.002790905
107	0xbd16c6f2	-0.036810823
108	0x3bdaa894	0.006672928
109	0x3c47f233	0.012203741
110	0x3db4ad7a	0.088221505
111	0xbd8eef98	-0.06979293
112	0x3c51a072	0.012794601
113	0xbcebd98e	-0.028790262
114	0x3cc70c47	0.024297846
115	0xba8f51d9	-0.0010934427
116	0xbcf0dd2b	-0.029402336
117	0xbcb5b3a2	-0.022180382
118	0x3dbb2b6c	0.091391414
119	0x3c69b5bb	0.014264519
120	0xbcad661c	-0.021166854
121	0x3dc0e86a	0.094193295
122	0xbdbe8fb7	-0.09304755
123	0x3c32d617	0.010915301
124	0xbd1fe24d	-0.039034177
125	0xbd816523	-0.063181184
126	0xbd4a78e0	-0.04943168
127	0x3d097710	0.033560812
128	0xbd7271fe	-0.059190743
129	0x3cd8ce8a	0.026465673
130	0xbd431ba4	-0.047633782
131	0xbd80eef4	-0.06295577
132	0x3c636cae	0.013880892
133	0x3c587c5c	0.013213243
134	0xbda4701a	-0.08029194
135	0x3da234a2	0.07920195
136	0x3d841e8a	0.06451137
137	0x37df78b0	2.6639871e-05
138	0x3d126deb	0.035749357
139	0xbd945029	-0.07241852
140	0xbd04b6f7	-0.03240105
141	0xbced6295	-0.028977672
142	0xbd89cf5a	-0.06729002
143	0xbb56761d	-0.003272421
144	0xbd46bc4a	-0.04851941
145	0xbce8d37e	-0.02842116
146	0x3d6dc828	0.058052212
147	0x3db06820	0.0861361
148	0x3d8d49f9	0.06898875
149	0x3d533097	0.05156001
150	0x3ae512a9	0.0017476875
151	0xbd9797af	-0.07401978
152	0x3d5d98b4	0.054100707
153	0x3dae0271	0.084965594
154	0xbc2b6847	-0.010461873
155	0xbd68871c	-0.056769475
156	0xbda63282	-0.08115102
157	0xbc3baac4	-0.011454288
158	0x3d184ddd	0.03718363
159	0x3d5d4c59	0.05402789
160	0x3d91b8d6	0.07115333
161	0x3d981bca	0.07427175
162	0x3d9df27d	0.077122666
163	0xbd85f5be	-0.06541012
164	0x3d5e3426	0.05424895
165	0x3ceba0b8	0.02876316
166	0x3d9b44c4	0.075814754
167	0xbd81c4bc	-0.06336352
168	0xbd493c98	-0.049130052
169	0xbd08b6ef	-0.033377584
170	0xbb8fab5a	-0.0043844404
171	0xbbb8d435	-0.0056405314
172	0xbd6e8f0b	-0.058241885
173	0x3d648842	0.055794008
174	0xbd75d86b	-0.060020845
175	0xbd8a74c6	-0.06760554
176	0x3ce09b25	0.027417729
177	0xbcf3f889	-0.029781597
178	0x3d93ad5b	0.07210799
179	0x3d862ed8	0.065519035
180	0x3d6f1680	0.058371067
181	0x3cd53f04	0.026031025
182	0xbd95b42c	-0.07309756
183	0x3af328c1	0.0018551574
184	0x3d638900	0.055550575
185	0x3c6209df	0.013796299
186	0x3d989d16	0.07451837
187	0x3d11d8fd	0.035607327
188	0xbd4dcb4a	-0.0502427
189	0xbda89b63	-0.08232763
190	0xbc325ce0	-0.010886401
191	0xbd8da28b	-0.06915768
192	0xbcc052ac	-0.023476921
193	0xbd94b18a	-0.072604254
194	0x3d1b84e3	0.037968528
195	0xbcdf82de	-0.027284082
196	0x3b0756d3	0.0020651117
197	0xbcadbdcc	-0.021208666
198	0xbd25651b	-0.040379625
199	0x3c776d94	0.015101809
200	0xbdbda3cd	-0.09259758
201	0xbd9f64f1	-0.07782925
202	0xbd4affce	-0.04956036
203	0x3d586cc3	0.0528381
204	0x3d8fd199	0.070223995
205	0xbd069adf	-0.03286254
206	0x3cd6fde6	0.026244115
207	0x3da76e65	0.08175353
208	0x3d2512a4	0.04030098
209	0xbd40b23b	-0.047044974
210	0xbd1677c8	-0.036735326
211	0xbdb96748	-0.090529025
212	0xbd5f6d04	-0.054547325
213	0x3d0e2264	0.034700766
214	0x3d9c5651	0.07633651
215	0x3d59e38b	0.053195518
216	0xbd8e8e68	-0.069607556
217	0xbcd7dcf9	-0.026350485
218	0x3d9a6517	0.075388126
219	0x3ce12867	0.027485086
220	0xbb71fa78	-0.0036922973
221	0xbd5917da	-0.053001262
222	0xbd274ae7	-0.040842917
223	0xbda930a0	-0.082612276
224	0xbd90c810	-0.07069409
225	0x3cbcb31d	0.023034627
226	0x3d24cf4e	0.040236764
227	0xbdb90906	-0.09034924
228	0xbd8838c0	-0.06651449
229	0xbda5c4da	-0.08094187
230	0xbd812d5d	-0.063074805
231	0x3da79378	0.08182424
232	0xbd781995	-0.060571272
233	0x3da9a087	0.08282571
234	0x3ca70d1d	0.020391995
235	0x3d8f8c57	0.070091896
236	0x3daed8bb	0.08537432
237	0x3c1ac3d4	0.009446103
238	0xbc23555e	-0.009969084
239	0xbd998fc0	-0.07498121
240	0xbd9a5a27	-0.075367264
241	0x3c4f17f9	0.012639993
242	0x3d33dd5d	0.04391228
243	0x3c4a603b	0.012352045
244	0xbce5b1c6	-0.02803887
245	0x3c25b236	0.01011329
246	0x3da298e3	0.07939317
247	0x3d751f50	0.059844315
248	0xbdc1c793	-0.09461894
249	0x3d8b3778	0.06797689
250	0x3d918f60	0.07107425
251	0x3d04c9d1	0.03241903
252	0x3cc03112	0.023460899
253	0x3d9c034a	0.07617815
254	0x3c1ad429	0.009449997
255	0x3a9e0aec	0.0012057698

lstm.bias_ih_l0 f4 [512]
0	0x3c97a942	0.018513326
1	0xbd71cdd4	-0.059034184
2	0xbc7b2783	-0.015329245
3	0xbc17aa02	-0.009256842
4	0xbd357a64	-0.044306174
5	0xbd86c278	-0.06580061
6	0xbd2ac387	-0.041690376
7	0x3d09931b	0.033587556
8	0x3c640282	0.0139166135
9	0x3d0db27d	0.034594048
10	0x3dbf94e3	0.0935457
11	0x3d45cf8b	0.04829363
12	0x3beb6871	0.0071840812
13	0xbd0c15b7	-0.034200396
14	0x3b761a69	0.0037552363
15	0x3db42dc5	0.08797792
16	0xbcb3e86a	-0.02196141
17	0x3c8ed82d	0.017437065
18	0xbd459bc3	-0.04824425
19	0xbd640274	-0.055666402
20	0xbcbb1dea	-0.022841413
21	0x3c8bc31c	0.017060809
22	0xbca3031f	-0.01989895
23	0x3b9847de	0.004647239
24	0x3ca9c32c	0.020722948
25	0x3c355283	0.011067036
26	0xbc931945	-0.017956385
27	0x3c2f5dcf	0.010703518
28	0x3d96fbc6	0.07372241
29	0xbccad678	-0.02476047
30	0x3cc8d978	0.02451776
31	0x3d65fc83	0.056149017
32	0x3d200113	0.039063524
33	0x3d892235	0.066959776
34	0x3cb449bd	0.022007817
35	0xbb3274d0	-0.002723027
36	0x3c3dbb5c	0.0115803145
37	0x3d288a12	0.0411473
38	0x3ddd69f5	0.10811225
39	0xbdb251cd	-0.087070085
40	0x3d137ba0	0.03600657
41	0xbd940eb9	-0.072293706
42	0x3d188dd7	0.037244644
43	0xbcc9ff6a	-0.024657924
44	0xbd5d46bc	-0.054022536
45	0x3ca64493	0.02029637
46	0xbd8f93d1	-0.070106156
47	0xbcfd0a1a	-0.030888606
48	0xbc100e6f	-0.008792504
49	0x3d8e0146	0.06933837
50	0xbd2346bc	-0.03986238
51	0xbda11a45	-0.07866339
52	0xbd83caf4	-0.064351946
53	0xbc2c9dd3	-0.010535675
54	0x3d448b31	0.047984306
55	0x3d803d17	0.06261652
56	0x3d9fa478	0.07795042
57	0x3dd5fd76	0.104487345
58	0x3d62d97a	0.055383183
59	0x3df9f537	0.12204974
60	0x3d8f5620	0.06998849
61	0x3d4df716	0.050284468
62	0xbc81f874	-0.015865542
63	0x3c9f57c2	0.019451026
64	0xbdab6f44	-0.083708316
65	0xbde4d193	-0.111727856
66	0xbcc627bd	-0.02418887
67	0xbcc30836	-0.023807626
68	0x3c1fb302	0.009747269
69	0xbd086ded	-0.03330796
70	0xbd67ad8d	-0.056561995
71	0xbb03033f	-0.0019990948
72	0x3dae5030	0.08511388
73	0xbd770643	-0.060308706
74	0x3ac7cf08	0.0015244195
75	0xbbca577b	-0.0061749793
76	0xbabd9ff0	-0.0014467221
77	0xbdb1e7a3	-0.08686759
78	0x3d98611d	0.07440398
79	0xbc5aa065	-0.013343905
80	0x3d7311c4	0.059343114
81	0x3d091366	0.033465765
82	0xbda74d0f	-0.08168995
83	0x3d99e1c4	0.075137645
84	0x3c0f0961	0.008730263
85	0xbd7e49ea	-0.06208221
86	0x3d858653	0.06519761
87	0x3d7f726c	0.06236498
88	0xbd303946	-0.04302337
89	0xbd8e0a11	-0.06935514
90	0x3d3501f0	0.0441913
91	0x3da63403	0.08115389
92	0x3c861cea	0.01637121
93	0xbdc15430	-0.094398856
94	0x3c5a4a6e	0.0133234095
95	0xbc4a5408	-0.012349136
96	0xbd532c72	-0.05155606
97	0x3b85532b	0.0040687523
98	0xbd69f095	-0.057114203
99	0x3d943616	0.072368786
100	0xbd1c9cf6	-0.038235627
101	0x3d4f46b3	0.050604533
102	0x3d4482ee	0.047976427
103	0x3c185a39	0.0092988545
104	0x3c5e0f10	0.013553396
105	0x3d21cbe6	0.039501093
106	0xbc0fcd74	-0.008777011
107	0x3d83fe87	0.064450316
108	0xbcf663cd	-0.030076886
109	0xbd003f48	-0.03131035
110	0xbd9b1cfc	-0.07573888
111	0xbcd48230	-0.025940984
112	0x3d7fc979	0.062448
113	0x3d83e12f	0.06439435
114	0xbd9b143d	-0.075722195
115	0x3da66e60	0.08126521
116	0x3c38aab6	0.011271169
117	0x3ca5bd5e	0.020231899
118	0xbd169c79	-0.036770318
119	0x3d3db5dc	0.046316013
120	0xbd8bc1d6	-0.06824081
121	0xbd77ccc8	-0.06049803
122	0x3d80bbcc	0.062858194
123	0x3c31a5c3	0.010842743
124	0xbc00529a	-0.007832194
125	0xbd9a0f5e	-0.07522462
126	0xbc7c806f	-0.01541148
127	0x3d5d4e52	0.05402977
128	0xbd9655aa	-0.07340558
129	0x3b398bf6	0.0028312183
130	0x3d2b592a	0.04183308
131	0x3d1bce29	0.038038407
132	0xbdc055a4	-0.09391335
133	0x3d8ae744	0.06782392
134	0xbb2c53d4	-0.0026295083
135	0xbdfd5170	-0.123690486
136	0xbdbd46bb	-0.092420064
137	0xbc844c1e	-0.016149577
138	0x3d95dd7a	0.07317634
139	0xbc76488d	-0.015031946
140	0xbc5de0a5	-0.013542329
141	0x3cb3eb1f	0.0219627
142	0x3b9af656	0.0047290726
143	0x3c88a078	0.01667808
144	0x3d3f1832	0.046653934
145	0x3d69249f	0.05691969
146	0xbd311c4a	-0.04323987
147	0xbccbf43e	-0.024896737
148	0xbd8c8c5c	-0.06862709
149	0x3d94b734	0.07261506
150	0xbd91d573	-0.0712079
151	0x3da6ba5d	0.08141015
152	0x3c46d3c1	0.012135447
153	0xbd49de33	-0.04928417
154	0x3d3aef80	0.04563856
155	0xbaef3aa1	-0.0018251726
156	0x3d6448de	0.055733554
157	0xbc550914	-0.013002653
158	0x3b16746b	0.0022957574
159	0xbdae99e1	-0.08525444
160	0x3e13e256	0.14441809
161	0xbd06fbcb	-0.032954972
162	0xbd322e7f	-0.043501373
163	0x3cf86ca8	0.030325249
164	0xbd8177a8	-0.06321651
165	0xbd540bd6	-0.0517691
166	0x3d88551d	0.06656859
167	0xbd9585d6	-0.07300918
168	0x3cb0bf33	0.021575546
169	0xbcd757da	-0.026287008
170	0x3d2b8a53	0.041879963
171	0xbd04e04a	-0.03244046
172	0x3caa630e	0.020799186
173	0x3da4fea8	0.08056384
174	0x3b949991	0.004534908
175	0xbb027dad	-0.0019911334
176	0xbd335479	-0.04378173
177	0xbd11c55a	-0.0355886
178	0xbdb94862	-0.09047009
179	0xbbd7b150	-0.0065824166
180	0xbd3dd4df	-0.046345588
181	0x3d0b3f08	0.03399566
182	0xbb437478	-0.002982406
183	0xbbc37045	-0.0059643113
184	0xbd579d7b	-0.05264042
185	0xbc2cc003	-0.010543826
186	0x3d585315	0.05281361
187	0xbcf8c452	-0.03036705
188	0xbcda5fb1	-0.026656957
189	0xbcac5095	-0.021034518
190	0xbd9c036c	-0.0761784
191	0x3b54c32d	0.0032464967
192	0x3a36ff27	0.00069807697
193	0x3d25d3cd	0.040485192
194	0xbd2e63dd	-0.042575706
195	0x3d808bdf	0.06276678
196	0x3d192295	0.037386496
197	0xbd338314	-0.043826178
198	0x3caccc8c	0.02109363
199	0xbcd37f53	-0.025817549
200	0x3d104dce	0.03523045
201	0x3bca52e6	0.006174433
202	0xbdcedf70	-0.10101211
203	0xbddf2107	-0.10894971
204	0x3d964a14	0.07338348
205	0x3d469237	0.048479285
206	0xbd5dcf05	-0.054152507
207	0xbd3e42b7	-0.046450343
208	0xbdfc96cb	-0.12333449
209	0xbb976b8a	-0.004620974
210	0x3d7a9b2a	0.061183132
211	0xbd584cf5	-0.052807767
212	0xbd65b816	-0.05608376
213	0xbd88aea9	-0.06673939
214	0xbdde66fa	-0.10859485
215	0x3d790d8b	0.06080393
216	0xbd8fa9e5	-0.07014827
217	0xbda18a3e	-0.07887696
218	0xbd19fb74	-0.03759332
219	0xbd844f3f	-0.064604275
220	0xbd033d01	-0.0320406
221	0xbcf1e2e9	-0.029527145
222	0x3d5cf3ca	0.053943433
223	0x3d0c94e7	0.03432169
224	0xbc16dd12	-0.009207981
225	0xbdb370cc	-0.08761749
226	0xbd9ecbe1	-0.077537306
227	0x3b93af88	0.004507009
228	0x3d9c8c41	0.07643939
229	0x3d077ce2	0.033078082
230	0xbd88a10f	-0.066713445
231	0x3bfdf2f3	0.007749909
232	0xbdae9476	-0.085244104
233	0x3bfc2528	0.007694859
234	0xbd8aed57	-0.0678355
235	0xbda1d1ea	-0.07901366
236	0xbd47b43b	-0.048755866
237	0xbd82c01f	-0.063843004
238	0xbc8eb369	-0.017419534
239	0xbc668e24	-0.014071975
240	0x3d5b5479	0.053547356
241	0xbc907ec6	-0.017638575
242	0x3d03d6d8	0.032187313
243	0x3c24672f	0.0100343665
244	0xbd382c6b	-0.044964235
245	0xbd1e5969	-0.038659487
246	0xbd955e12	-0.07293333
247	0xbd9ec985	-0.077532806
248	0xbce85940	-0.02836287
249	0x3ca0ff09	0.01965286
250	0x3d42ea41	0.047586683
251	0xbdd93872	-0.10606469
252	0x3d487854	0.04894288
253	0xbd501ad9	-0.050806854
254	0x3db2e1b8	0.08734459
255	0xbd4ff30c	-0.050768897

lstm.bias_hh_l0 f4 [512]
0	0xbd86cf76	-0.06582539
1	0x3d4205f0	0.047368944
2	0xbdc7f593	-0.097636364
3	0x3de32aa7	0.1109212
4	0xb9fbdfd6	-0.0004804122
5	0x3d2e629c	0.04257451
6	0xbde1c111	-0.110231526
7	0xbb37a4cf	-0.0028021818
8	0xbbf9e689	-0.007626359
9	0xbbb41db8	-0.005496707
10	0x3d8115c9	0.06302983
11	0xbb7025b2	-0.0036643562
12	0xbda44a58	-0.080219924
13	0x3b52fab6	0.0032192892
14	0x3a0e4b6d	0.00054281094
15	0x3d923311	0.071386464
16	0xbdc07af3	-0.09398451
17	0xbd52db10	-0.051478446
18	0x3d9f8b74	0.077902704
19	0x3d9bf399	0.07614822
20	0x3daaf9ee	0.083484516
21	0x3dd2c9c9	0.10292394
22	0xbb04f9a0	-0.002029039
23	0x3d283697	0.041067686
24	0xbd61ef63	-0.055159938
25	0xbc15e1d5	-0.009148081
26	0xbda03263	-0.078221105
27	0xbaba550c	-0.001421602
28	0xbdaa4cbf	-0.083154194
29	0xbddb81db	-0.10718127
30	0xbd23bab9	-0.039972994
31	0xbd55a933	-0.052163314
32	0x3d255cb9	0.04037163
33	0xbc9e181d	-0.019298607
34	0x3d403e61	0.04693449
35	0xbce03415	-0.027368585
36	0x3c39f0b6	0.011348894
37	0x3b227c78	0.0024793427
38	0xbc5e77ec	-0.013578396
39	0x3d6ed4a5	0.058308262
40	0x3c93d18c	0.018044256
41	0xbc15b375	-0.009137024
42	0x3d626dc5	0.055280466
43	0xbc858aae	-0.01630148
44	0x3dd88491	0.1057216
45	0xbd518e1a	-0.05116091
46	0xbdf49787	-0.11942964
47	0x3db693a9	0.08914883
48	0x3cef7816	0.029232066
49	0x3ccc3ccf	0.02493134
50	0x3d447dc0	0.047971487
51	0x3d168c91	0.03675515
52	0xbc734d6e	-0.014850004
53	0x3d98690a	0.074419096
54	0xbb7c30b5	-0.003848118
55	0xbd7a4832	-0.061104007
56	0x3cc58c96	0.024114888
57	0x3db1074c	0.0864397
58	0xbc859d98	-0.016310498
59	0x3db7e8cd	0.0897995
60	0x3d39f58c	0.045400187
61	0xbc8b06df	-0.01697105
62	0xbca0944f	-0.019601969
63	0xbd165113	-0.036698412
64	0x3d95c3f2	0.07312764
65	0x3d1b5f79	0.037932847
66	0x3dab2782	0.08357145
67	0x3d8919c1	0.06694365
68	0xbd3cc595	-0.046086866
69	0xbc110f10	-0.008853689
70	0xbbff1de2	-0.0077855447
71	0xbc876450	-0.016527325
72	0x3d698fc5	0.057021875
73	0x3da67587	0.08127885
74	0x3d8b3b2a	0.06798394
75	0xbcff59ca	-0.031170744
76	0xbda5c114	-0.08093467
77	0xbda60cc9	-0.08107907
78	0xbcd505e6	-0.02600379
79	0xbd428721	-0.04749215
80	0xbcf80d21	-0.030279698
81	0xbc03ee0b	-0.008052359
82	0xbd670d27	-0.056409027
83	0xbd4df906	-0.050286315
84	0xb827ed67	-4.0037e-05
85	0xbd9f5de7	-0.07781582
86	0x3c76e296	0.015068671
87	0xbc906efa	-0.017631043
88	0xbc829180	-0.01593852
89	0xbd90ad27	-0.07064276
90	0xbbd88f74	-0.006608898
91	0xbd9adcdf	-0.07561659
92	0x3cb49a3c	0.0220462
93	0xbd786da0	-0.06065142
94	0xbda584e8	-0.080819905
95	0x3d49348f	0.04912239
96	0xbd78d4b6	-0.060749732
97	0x3d9801f5	0.07422248
98	0x3d0059ce	0.031335644
99	0x3ac21d0e	0.0014809684
100	0xbd0d53b4	-0.034503654
101	0x3ceede82	0.029158834
102	0x3da30848	0.07960564
103	0xbdc2a173	-0.0950345
104	0xbc90af16	-0.017661612
105	0xbd8506f2	-0.06495465
106	0x3d217730	0.039420307
107	0xbd0d6cf9	-0.034527753
108	0x3d4b0230	0.049562633
109	0x3db94f0a	0.09048279
110	0x3d83b54f	0.06431066
111	0xbd2c61f8	-0.042085618
112	0xbcb4f693	-0.022090232
113	0xbd85a3cf	-0.06525385
114	0xbca655a0	-0.020304501
115	0x3d9f916a	0.077914074
116	0xbdb9541c	-0.09049246
117	0x3d49d188	0.04927209
118	0xbd4a58f7	-0.04940125
119	0xbcdd02fb	-0.02697896
120	0xbd3510ad	-0.044205356
121	0x3c02638c	0.007958304
122	0xbd8c7b30	-0.06859434
123	0xbce40e5d	-0.02783888
124	0xbbeabdd5	-0.007163743
125	0x3b9fd58f	0.004877753
126	0x3d816654	0.06318346
127	0x3cdca334	0.02693329
128	0xbd660f88	-0.056167156
129	0xbd63c7e8	-0.055610567
130	0xbd75c924	-0.060006276
131	0xbd39e591	-0.045384947
132	0xbd9e4cfe	-0.07729529
133	0xbcaafda5	-0.0208729
134	0x3be27f5b	0.0069121546
135	0xbd59c5cf	-0.05316716
136	0x3c85dc7e	0.01634049
137	0x3d8693fb	0.06571194
138	0x3d0f7d2a	0.035031475
139	0x3b77d4f6	0.0037816144
140	0x3ce0f3a3	0.027459925
141	0xbcf052b9	-0.02933632
142	0xbdc8a0db	-0.09796306
143	0x3c78cdc1	0.015185774
144	0x3ca91b53	0.020642912
145	0x3c0320b7	0.008003405
146	0x3d442c12	0.04789359
147	0x3c8ccaba	0.017186511
148	0xbceace39	-0.028662788
149	0xbc027390	-0.007962123
150	0x3cf3f624	0.029780455
151	0xbb2b3e77	-0.0026129761
152	0xbc2989f5	-0.010347833
153	0xbd9966b1	-0.0749029
154	0x3d3ad366	0.04561176
155	0xbd839057	-0.06424015
156	0x3c76309a	0.015026236
157	0xbd2cf122	-0.04222215
158	0xbcd54aa0	-0.02603656
159	0xbdb2c87d	-0.08729646
160	0x3e0e7f5c	0.13915771
161	0x3d66022f	0.056154426
162	0xbda5b6c2	-0.08091499
163	0x3d000d41	0.03126264
164	0xbd148c71	-0.036266748
165	0x3dd4990d	0.103807546
166	0xbc910be7	-0.01770587
167	0xbd89d5bc	-0.0673022
168	0x3b7b3283	0.0038329668
169	0x3d0882f5	0.033328015
170	0x3d6af40b	0.057361644
171	0xbdc96298	-0.098332584
172	0x3d985b93	0.074393414
173	0x3c8d7ee8	0.017272428
174	0x3d879e7c	0.06622025
175	0xbdbf95be	-0.09354733
176	0x3d1bec87	0.038067367
177	0xbc2b8876	-0.010469547
178	0x3d602217	0.05472001
179	0x3d32d4a1	0.04365981
180	0x3c0733c6	0.00825209
181	0xbd81ef40	-0.063444614
182	0xbc8a8fe8	-0.016914323
183	0x3d3717e6	0.044700526
184	0x3d152995	0.03641661
185	0xbdb54cab	-0.08852514
186	0x3ba4198b	0.005007928
187	0xbb7e1270	-0.0038768314
188	0x3ce14ac0	0.027501464
189	0x3d715360	0.058917403
190	0xbd9fe68a	-0.07807644
191	0xbd62462c	-0.055242702
192	0x3cc5aa7c	0.024129145
193	0x3ca5c6f8	0.020236477
194	0xbc8a9c2c	-0.016920172
195	0x3c02c874	0.007982362
196	0xbcf3b4bc	-0.029749267
197	0x3d7b287c	0.061317906
198	0xbd3a10d3	-0.0454262
199	0xbc097584	-0.008389834
200	0xbd602338	-0.054721087
201	0xbdd73023	-0.10507228
202	0xbd5e2232	-0.05423183
203	0x3ce29d0f	0.027662782
204	0x3c9b8c95	0.018987933
205	0x3cceaf77	0.025230153
206	0x3d0dfea7	0.034666684
207	0x3cdbad6b	0.02681609
208	0xbd8a2ab6	-0.06746428
209	0xbd41f02a	-0.04734818
210	0x3ca95ac0	0.020673156
211	0x3c859b4d	0.016309405
212	0xbda64a16	-0.081195995
213	0x3d295548	0.041341096
214	0x3cc68ae1	0.024236144
215	0xbdae9e2f	-0.08526265
216	0x3cf1c852	0.029514465
217	0x3d8686b2	0.0656866
218	0xbdd3cdf4	-0.10342017
219	0x3c036ea9	0.008021989
220	0xbd65581c	-0.05599223
221	0xbd4e22ce	-0.05032616
222	0xbd5e6e8c	-0.054304644
223	0xbdc4562b	-0.09586748
224	0xbd725993	-0.059167456
225	0xbd235d67	-0.039883997
226	0xbba257ab	-0.0049542985
227	0xbd67e172	-0.056611486
228	0xbbad3c64	-0.00528674
229	0x3bd5840f	0.0065159868
230	0xbc4a2090	-0.012336865
231	0xbd69a3ff	-0.057041164
232	0x3d58c2b2	0.05292005
233	0x3c8259f7	0.01591204
234	0x3d712feb	0.05888359
235	0xbd4af6c7	-0.04955175
236	0xbad5c994	-0.0016310685
237	0x3d499a61	0.049219493
238	0xbd5c3f7b	-0.053771477
239	0x3c9a9f49	0.018874781
240	0x3b627a1a	0.0034557641
241	0xbd5f04e9	-0.054448042
242	0x3ce4ca97	0.027928634
243	0xbbc5f431	-0.006041073
244	0xbdcba751	-0.099440224
245	0xbd9a5063	-0.07534864
246	0x3d205b59	0.039149616
247	0xbd3042ad	-0.043032337
248	0x3c2d188f	0.010564937
249	0xbd33517d	-0.043778885
250	0x3c6a106c	0.014286142
251	0xbca76af4	-0.020436741
252	0x3d9a7114	0.07541099
253	0xbd5d9213	-0.054094385
254	0x3db41b2e	0.087942466
255	0x3d807ff5	0.06274406

lstm.weight_ih_l1 f4 [512, 128]
0	0x3d9a0768	0.07520944
1	0x3d09ef66	0.033675574
2	0xbd6b611d	-0.05746566
3	0x3d372c97	0.04472026
4	0x3d4a2be2	0.049358256
5	0x3cd2dc7e	0.025739904
6	0x3d7b58fd	0.061364163
7	0x3d1a6be0	0.037700534
8	0xbd542e56	-0.051802002
9	0x3c2f9988	0.010717757
10	0xbae411fe	-0.0017400382
11	0x3d886d61	0.06661487
12	0xbd0aa848	-0.03385189
13	0xbd21f9ce	-0.039544873
14	0xbddb9133	-0.10721054
15	0x3cb5140b	0.022104284
16	0xbcfc4f80	-0.030799627
17	0xbd81485f	-0.06312632
18	0xbd3c3303	-0.045947086
19	0xbd149062	-0.036270507
20	0xbcdea9ba	-0.027180541
21	0xbc24a555	-0.010049184
22	0xbdadf44b	-0.08493861
23	0xbdac3716	-0.08408944
24	0x3dc54e23	0.09634044
25	0xbda224de	-0.07917188
26	0x3d54ee94	0.05198534
27	0x3db9d893	0.090745114
28	0x3c9734d5	0.01845781
29	0xbb5fcc03	-0.00341487
30	0xbca45a96	-0.020062726
31	0x3d83b9bc	0.064319104
32	0xbc591bc8	-0.0132512525
33	0xbcf1a9dd	-0.029499942
34	0x3d8b303b	0.067963086
35	0x3c7fd12b	0.015613834
36	0x3c496c48	0.012293883
37	0x3da37739	0.07981724
38	0xbdf46816	-0.11933915
39	0x3cf8f711	0.030391248
40	0xbd9b3db6	-0.0758013
41	0xbd8a4cc0	-0.0675292
42	0x3d944edf	0.07241606
43	0x3d0eb0c3	0.03483654
44	0x3b6db5d0	0.0036271699
45	0xbd9d16fc	-0.076703995
46	0x3d8e12af	0.06937157
47	0x3d439490	0.047749102
48	0x3d1daff5	0.038497884
49	0x3d9438f1	0.07237423
50	0x3d05678a	0.032569446
51	0x3ccf5adb	0.025311878
52	0xbb9f0af7	-0.004853602
53	0x3d492237	0.049104895
54	0xbd822fa2	-0.063567415
55	0x3d096007	0.033538844
56	0xbd911fce	-0.070861444
57	0x3ca3c0bf	0.01998937
58	0xbc018180	-0.00790441
59	0xbcc00dd1	-0.023444088
60	0x3b62f195	0.0034628857
61	0x3c1858ec	0.009298544
62	0xbce91852	-0.02845398
63	0xbda6be66	-0.08141784
64	0xbd725659	-0.05916438
65	0xbc482678	-0.012216203
66	0x3c0c0972	0.008547174
67	0xbd97d530	-0.07413709
68	0xbcaab74a	-0.020839352
69	0x3daa2a80	0.083088875
70	0xbd0bdfa8	-0.034148842
71	0xbd855018	-0.06509417
72	0xbcfaac95	-0.030599872
73	0xbabb524a	-0.0014291492
74	0xbd071381	-0.032977585
75	0x3d89c6a9	0.067273445
76	0xbd228ea7	-0.039686825
77	0x3d6de89e	0.05808317
78	0xbd9dfa76	-0.07713787
79	0x3d09dce8	0.03365794
80	0xbcdb6c66	-0.026785087
81	0x3d65b86c	0.05608408
82	0x3daa12f8	0.08304399
83	0x3caf3f5e	0.02139252
84	0xbdb02a84	-0.08601859
85	0xbdb0d47b	-0.086342774
86	0x3b2434e5	0.0025055942
87	0xbda92340	-0.082586765
88	0x3dbf9702	0.09354974
89	0x3cf381c9	0.029724972
90	0x3d2b9a98	0.04189548
91	0xbd4bcfc1	-0.049758676
92	0x3da342f0	0.07971752
93	0xbd478f74	-0.048720792
94	0xbc8e6ffa	-0.017387379
95	0xbd0a1d67	-0.033719447
96	0xbd89e1f7	-0.067325525
97	0x3d13b76a	0.03606359
98	0xbd787c6e	-0.06066554
99	0x3de86e69	0.11349184
100	0xbc10c988	-0.008837111
101	0x3c319d7a	0.010840768
102	0xbcc30c76	-0.023809653
103	0xbd067364	-0.03282489
104	0xbcc1e72b	-0.0236698
105	0x3d907ae0	0.070546865
106	0xbda99916	-0.08281152
107	0x3cbd791a	0.023129035
108	0xbc4e3b86	-0.012587434
109	0x3c46cdd2	0.012134032
110	0x3d05d718	0.032675833
111	0xbd7b6bcb	-0.061382096
112	0x3ce7aab5	0.028279642
113	0xbdcc21ee	-0.09967409
114	0x3d39938c	0.045306727
115	0xbd56b7fd	-0.05242156
116	0x3bf22b39	0.0073904064
117	0x3cec1c22	0.028822009
118	0x3d59fe68	0.053221136
119	0x3ca8a5e5	0.020586917
120	0xbd7fd19b	-0.062455755
121	0xbd22cb34	-0.03974457
122	0xbb5335f0	-0.0032228194
123	0x3dc0dca6	0.09417085
124	0x3d56ba2f	0.052423652
125	0x3d383821	0.044975404
126	0x3dbe408b	0.09289654
127	0xbdad635e	-0.084662184
128	0xbb4d3598	-0.0031312462
129	0xbc836bc1	-0.016042592
130	0x3d1363de	0.035983913
131	0x3cc834fb	0.024439326
132	0x3b8c66ed	0.0042847306
133	0xbd501afb	-0.05080698
134	0xbd379951	-0.04482395
135	0xbb555cf0	-0.0032556616
136	0xbb9c5495	-0.004770825
137	0xbd7e2cd2	-0.062054463
138	0xbd5bc51b	-0.05365477
139	0xbd91d400	-0.07120514
140	0xbcfc1786	-0.030772936
141	0x3d6dc011	0.058044497
142	0xbdb4e186	-0.08832078
143	0xbd9d0270	-0.076664805
144	0xbbea4d75	-0.007150347
145	0xbccea3e9	-0.025224643
146	0x3d41fa48	0.047357827
147	0x3d956a4b	0.072956644
148	0x3c62d6e8	0.013845183
149	0x3d89927c	0.06717393
150	0xbcc860c4	-0.024460204
151	0x3cc0a519	0.023516225
152	0xbd245e7f	-0.04012918
153	0xbce6c301	-0.028169157
154	0xbd4a259b	-0.04935227
155	0xbce566ae	-0.028003063
156	0x3cf0c427	0.029390408
157	0xbc91431e	-0.0177322
158	0xbd157318	-0.036486715
159	0x3d610ef5	0.054945905
160	0x3d34027d	0.043947686
161	0xbda67a8a	-0.08128841
162	0xbd6ebbbc	-0.058284506
163	0xbd84a627	-0.064770035
164	0xbd99bd04	-0.07506755
165	0xbc71bd20	-0.014754564
166	0x3be359a5	0.0069381767
167	0xbcf95886	-0.03043772
168	0xbd725458	-0.059162468
169	0xbcda9813	-0.026683843
170	0xbd268d4f	-0.040662106
171	0xbc0f8cef	-0.0087616285
172	0xbd6fb984	-0.05852653
173	0xbc9a43a3	-0.01883108
174	0xbc9d3353	-0.019189512
175	0x3d965cf1	0.07341946
176	0x3bf9059e	0.0075995466
177	0xbcfb261e	-0.030657824
178	0xbdb85b3c	-0.090017766
179	0xba112535	-0.00055368553
180	0xbce69a26	-0.028149676
181	0xbc60b746	-0.013715571
182	0x3d993046	0.074799106
183	0xbd80d57a	-0.062907174
184	0x3c938d5d	0.018011743
185	0x3cf081e1	0.029358806
186	0x3a9ca10e	0.0011949854
187	0x3d32b537	0.04362985
188	0x3bc8a166	0.006122756
189	0x3c9a39a3	0.018826311
190	0x3c1bf75f	0.009519427
191	0xbd874e44	-0.06606725
192	0xbd89e29e	-0.06732677
193	0x3d5e1361	0.0542177
194	0x3ca8a48a	0.02058627
195	0x3c61d689	0.013784059
196	0xbcb316a1	-0.021861376
197	0x3d10f1f1	0.035386983
198	0x3d9fee08	0.07809073
199	0xbda54c10	-0.080711484
200	0x3d9178b1	0.07103098
201	0x390b79d0	0.00013301452
202	0x3c9a335e	0.018823322
203	0x3d5442bd	0.05182146
204	0xbd21dad7	-0.039515343
205	0x3dacd93a	0.0843987
206	0x3c76502c	0.015033763
207	0x3d2a459d	0.041570295
208	0xbd276ca6	-0.0408751
209	0x3dbf16bc	0.09330508
210	0xbd89619e	-0.06708072
211	0xbd503e81	-0.05084086
212	0x3cd446cc	0.025912665
213	0xbcd88a31	-0.026433082
214	0x3d945749	0.07243211
215	0xbd8d38ea	-0.06895621
216	0x3ce1ff3b	0.027587524
217	0xbdb2abb0	-0.08724153
218	0xbd9f13e6	-0.07767467
219	0xbd9a8442	-0.075447574
220	0x3dc3e24e	0.095646486
221	0x3d898cf1	0.067163356
222	0x3dc4e158	0.096132934
223	0xbd874026	-0.06604032
224	0xbdb5115b	-0.08841201
225	0xbdcf02a7	-0.10107928
226	0x3da2e97d	0.079546906
227	0x3d48e556	0.049046837
228	0x3d5ff174	0.054673627
229	0xbd1dd8b4	-0.038536742
230	0x3d43fc7a	0.047848202
231	0x3da70629	0.08155472
232	0xbcffa502	-0.031206612
233	0xbd0d8815	-0.034553606
234	0x3d172d4c	0.036908433
235	0xbb5af49e	-0.0033409963
236	0xbc4d2c7e	-0.012522815
237	0x3c4c6f7d	0.012477753
238	0xbd98c17f	-0.074587815
239	0x3db94174	0.09045687
240	0x3d011e2a	0.031522907
241	0xbcdd896c	-0.027043067
242	0xbc88ebd0	-0.016714007
243	0xbca67436	-0.020319086
244	0xbd6e012e	-0.058106594
245	0x3d9853a7	0.074378304
246	0x3c06f7c6	0.008237785
247	0xbd2dba2f	-0.042413887
248	0xbc744532	-0.014909076
249	0x3dad35eb	0.0845755
250	0x3a3887c9	0.00070392765
251	0x3d80e8cb	0.06294402
252	0xbd52c884	-0.051460758
253	0xbd8abd0f	-0.06774341
254	0x3dd7eb0c	0.105428785
255	0x3d1c3ac3	0.038141977

lstm.weight_hh_l1 f4 [512, 128]
0	0x3d037cc3	0.032101404
1	0xbdcf0a7f	-0.10109424
2	0xbb8b5533	-0.0042521
3	0xbcb042a7	-0.021516157
4	0x3c9a38e2	0.018825952
5	0xbd1f6404	-0.03891374
6	0xbdce6051	-0.10076965
7	0xbd3a4ac7	-0.04548147
8	0x3b78e42d	0.00379778
9	0x3da6dc9e	0.08147548
10	0x3d96415a	0.073366836
11	0xbd898de5	-0.06716517
12	0x3dd6a998	0.10481566
13	0xbc062d4f	-0.008189513
14	0xbda0ff44	-0.07861188
15	0xbd93054e	-0.07178746
16	0x3cb6195c	0.02222889
17	0x3be5d39a	0.0070137503
18	0x3d191bce	0.037380032
19	0xbcbf39cf	-0.023342995
20	0x3d739385	0.059466857
21	0xbda3f9a9	-0.08006603
22	0xbd8a7f40	-0.06762552
23	0xbbee9677	-0.0072811204
24	0xbcf8f771	-0.030391427
25	0xbb141607	-0.0022596137
26	0xbdb96e8b	-0.090542875
27	0x3d881092	0.066437855
28	0xbb9f6a5f	-0.0048649753
29	0xbcc0bdef	-0.023528067
30	0x3d08371c	0.03325568
31	0x3dfdd949	0.123949595
32	0x3d176d95	0.03696974
33	0x3a0c15d7	0.00053438306
34	0xbd4025ee	-0.046911173
35	0xbc036c65	-0.008021449
36	0x3da2ff62	0.07958867
37	0xbd8197e6	-0.063278005
38	0x3d5e4b66	0.054271124
39	0xbd99f948	-0.0751825
40	0x3d2819ea	0.04104034
41	0xbd35c229	-0.04437462
42	0x3da53f3e	0.08068703
43	0xbcfef3fa	-0.031122196
44	0x3d4924ac	0.04910724
45	0x3d0168fb	0.031594258
46	0x3d2480e3	0.04016198
47	0x3da01863	0.078171514
48	0xbd7812ea	-0.060564913
49	0xbb4e5d24	-0.0031488622
50	0x3d314798	0.043281168
51	0xbd76c268	-0.060243994
52	0x3de0da65	0.109791555
53	0xbd9011b7	-0.07034629
54	0xbcf34409	-0.029695528
55	0xbc89b70e	-0.01681092
56	0xbcc16325	-0.023606846
57	0x3c3a6ba5	0.0113782035
58	0xbd0d470a	-0.034491576
59	0xbd85e434	-0.06537667
60	0xbbc74437	-0.00608113
61	0xbc931676	-0.017955046
62	0x3d262ec7	0.040571954
63	0x3d29010b	0.04126076
64	0x3c05a1a6	0.008156216
65	0xbd8e41f4	-0.06946173
66	0xbc9bcc53	-0.019018328
67	0xbd6fc06f	-0.05853313
68	0x3cf3f840	0.02978146
69	0x3d675782	0.05647994
70	0x3d877d58	0.06615704
71	0xbd858bed	-0.06520829
72	0xbda7b2d1	-0.081884034
73	0x3d0b5f91	0.034026686
74	0x3d092cfa	0.03349016
75	0x3d0ac28a	0.033876933
76	0x3ac114b5	0.0014730903
77	0xbab70cbc	-0.0013965587
78	0xbdba3f7a	-0.090941384
79	0x3d031d5f	0.032010432
80	0xbd76fbdf	-0.060298797
81	0x3c38c56f	0.011277541
82	0xbcbe6e1e	-0.023245867
83	0x3cfdf101	0.030998709
84	0x3c13b5dd	0.009015528
85	0x3dc4581d	0.09587119
86	0x3cb8c1df	0.022553382
87	0xbc8cb6bc	-0.017176978
88	0x3d2ca96e	0.04215377
89	0xbdb1c12b	-0.08679422
90	0x3dc9baf3	0.09850111
91	0xbd058756	-0.03259977
92	0x3cc830aa	0.024437267
93	0x3d05ddb1	0.032682125
94	0xbd93f6e0	-0.07224822
95	0xbd26765a	-0.040640213
96	0xbc801922	-0.015636984
97	0x3c1da43e	0.009621678
98	0xbd3190ac	-0.04335086
99	0x3d2f6119	0.04281721
100	0x3dddb881	0.10826207
101	0x3d1b6ff5	0.037948567
102	0xbad1d3ef	-0.0016008596
103	0x3d8b46b3	0.06800594
104	0xbda20088	-0.079102576
105	0x3cdf0af1	0.027226897
106	0xbc8ba148	-0.017044678
107	0x3dd41bd0	0.10356867
108	0xbcf07872	-0.029354308
109	0xbdbaa1d9	-0.09112901
110	0xbdac0a83	-0.084004425
111	0x3db8e60a	0.090282515
112	0x3db085c8	0.08619267
113	0xbd947318	-0.07248515
114	0xbcbf9fe8	-0.023391679
115	0xbcca666a	-0.024707038
116	0xbd99db36	-0.07512514
117	0xbd2969df	-0.041360732
118	0xbc5ba45e	-0.013405887
119	0xbd99f459	-0.07517309
120	0xbdd18ee4	-0.10232332
121	0x3d441bf7	0.04787823
122	0x3d0fbd9a	0.035092928
123	0xbd1f02b2	-0.03882093
124	0xbd6b4943	-0.057442915
125	0x3d96a210	0.0735513
126	0x3db196fd	0.08671377
127	0x3d9ee2a6	0.077580735
128	0x3cc1bc0f	0.023649244
129	0x3d7e04f1	0.06201643
130	0x3c8b0e15	0.016974488
131	0x3d075891	0.033043448
132	0xbb8d8571	-0.004318886
133	0xbcd7e861	-0.026355924
134	0x3ce2bc48	0.02767767
135	0x3d92aef6	0.071622774
136	0xbda29acb	-0.07939681
137	0x3d027ef5	0.031859357
138	0xbd3337b9	-0.043754313
139	0x3d92a6a1	0.07160688
140	0x3c986031	0.018600555
141	0xbd032705	-0.032019634
142	0xbdb0e163	-0.08636739
143	0xbcf15948	-0.029461518
144	0xbdb11a86	-0.08647637
145	0xbd5a3806	-0.053276084
146	0x3d71c2d7	0.059023704
147	0xbdcaadb4	-0.098964125
148	0x3da79b14	0.08183876
149	0x3da2cbf6	0.07949059
150	0x3b80bfeb	0.0039291284
151	0xbd0a71d0	-0.033799946
152	0xbd8446ca	-0.064588144
153	0xbb681ea3	-0.0035418652
154	0xbbfb4e14	-0.0076692197
155	0xbd85f494	-0.0654079
156	0x3d6456fe	0.055747025
157	0x3d2d0e07	0.042249706
158	0xbd21a4ec	-0.039463922
159	0xbcac3aaa	-0.021024067
160	0x3cf1a900	0.02949953
161	0x3cb5e8fa	0.022205818
162	0xbcd3c275	-0.02584956
163	0xbd83a0fc	-0.0642719
164	0x3ddbb453	0.107277535
165	0x3c3574b1	0.011075185
166	0x3d4a1ae7	0.049342062
167	0x3c4e2c3e	0.01258379
168	0x3d2bc048	0.04193142
169	0x3dc3f8b8	0.09568924
170	0xbd80ea52	-0.06294693
171	0xbd751e81	-0.059843544
172	0xbd27e9f2	-0.040994592
173	0x3d02d7e6	0.031944178
174	0x3d699de3	0.057035338
175	0xbd588faf	-0.052871402
176	0xbd12d5be	-0.03584837
177	0xbd22b566	-0.039723776
178	0xbd651623	-0.055929314
179	0xbd516396	-0.051120363
180	0x3d17a8d4	0.03702624
181	0xbcb5cda4	-0.022192784
182	0x3aefdda4	0.0018300307
183	0xbd2f8f3b	-0.042861205
184	0x3d2c6875	0.042091805
185	0x3d99303c	0.07479903
186	0xbd0dbdbd	-0.034604777
187	0xbac92052	-0.0015344715
188	0x3d91ac4e	0.07112943
189	0xbd10910a	-0.03529457
190	0x3d81c361	0.06336094
191	0xbba8ff31	-0.0051573743
192	0x3d62f495	0.055409033
193	0x3d91267e	0.0708742
194	0xbd43da13	-0.047815394
195	0x3cc01db4	0.023451664
196	0x3da5de45	0.08099035
197	0x3c567150	0.013088539
198	0x3d63106f	0.055435594
199	0xbc35d15b	-0.0110972775
200	0xbd8805fb	-0.06641766
201	0x3da33de8	0.07970792
202	0xbc892230	-0.016739935
203	0xbb6be1f0	-0.0035992824
204	0x3d7e97f9	0.06215665
205	0xbd0a76f8	-0.033804864
206	0xbd9f61a7	-0.077822976
207	0xbd70278a	-0.058631457
208	0x3c2e2fb4	0.0106314905
209	0x3d83e811	0.064407475
210	0xbce202f0	-0.027589291
211	0x3d4c486f	0.049873766
212	0x3cf866d1	0.030322464
213	0xbd8dd965	-0.0692623
214	0x3cc7fa43	0.024411326
215	0xbd838057	-0.06420963
216	0xbd479487	-0.04872563
217	0x3cf3b35f	0.029748617
218	0x3dcad2fd	0.09903524
219	0x3c68796d	0.014189106
220	0xbc6e6fa9	-0.014552989
221	0x3ccf963d	0.025340194
222	0xbdd3cddb	-0.10341998
223	0xbca09ae9	-0.019605117
224	0x3c4f5826	0.012655294
225	0x3c4b6099	0.012413167
226	0x3c64114e	0.013920141
227	0xbdbe8c25	-0.09304074
228	0xbcf54ed6	-0.029944818
229	0x3bfca340	0.0077098906
230	0xbc2d7a8e	-0.010588301
231	0xbd87e680	-0.06635761
232	0x3c1f5aa5	0.009726201
233	0x3d224b69	0.039622698
234	0x3d085b1a	0.033290006
235	0xbc16e410	-0.009209648
236	0x3d4272eb	0.047472876
237	0x3d95add6	0.07308547
238	0xbd36f43e	-0.04466652
239	0xbccfa35b	-0.025346449
240	0xbc816e88	-0.015799776
241	0xbc0f1d7e	-0.008735059
242	0xbc3e1329	-0.011601248
243	0x3dd26077	0.102723055
244	0x3cc68c1c	0.024236731
245	0x3bce61b7	0.0062982696
246	0xbd29e026	-0.04147353
247	0x3d2d62cc	0.04233055
248	0xbd45712a	-0.048203625
249	0x3d1beb90	0.038066447
250	0xbdcf68dd	-0.10127423
251	0x3c5083dc	0.01272675
252	0x3d4d5368	0.05012837
253	0x3c47cc09	0.012194642
254	0x3dcc0697	0.099621944
255	0x3d327931	0.04357261

lstm.bias_ih_l1 f4 [512]
0	0xbdb3f2c8	-0.08786541
1	0xbdaa653b	-0.083200894
2	0xbd7342a3	-0.05938972
3	0x3c9b132e	0.018930044
4	0xbdc252bf	-0.09488439
5	0x3d62ee54	0.05540307
6	0xbdbecdff	-0.093166344
7	0xbcdd4850	-0.02701202
8	0x3d87e31d	0.06635115
9	0xbdcd429c	-0.1002247
10	0xbc3f5d56	-0.011679968
11	0x3cf49658	0.029856846
12	0xbcaacffc	-0.020851128
13	0x3cfda45f	0.030962167
14	0x3cc2635e	0.023729023
15	0x3d787e77	0.06066748
16	0x3c5c9742	0.013463797
17	0xbd94897b	-0.07252785
18	0xbc5e6897	-0.013574741
19	0x3c02dc4c	0.007987093
20	0x3daeaeb4	0.08529416
21	0x3d5dfb1a	0.054194547
22	0xbddf46d7	-0.109021835
23	0xbd4686c3	-0.048468363
24	0x3dd8d40c	0.1058732
25	0x3d02c5a5	0.03192677
26	0x3d1df5b7	0.03856441
27	0xbcba9940	-0.022778153
28	0xbc142d20	-0.009043962
29	0xbd84b4e3	-0.06479814
30	0x3d862345	0.06549696
31	0x3d21f189	0.039536987
32	0xbd7773fb	-0.060413342
33	0xbcbbbf0a	-0.022918243
34	0xbca6c798	-0.020358846
35	0xbd4455e7	-0.047933485
36	0xbdbfef87	-0.09371858
37	0xbd9307c5	-0.07179216
38	0x3d148f24	0.036269322
39	0xbbdb6c0f	-0.006696231
40	0xbd6446c1	-0.05573154
41	0xbd708cd8	-0.05872807
42	0x3d881ffb	0.06646725
43	0xbd1cd412	-0.038288184
44	0xbd553d46	-0.052060388
45	0x3d70f4a4	0.058827057
46	0xbd198321	-0.03747857
47	0xbcb80f6a	-0.022468287
48	0xbb990fff	-0.0046710963
49	0xbc828dbe	-0.015936729
50	0x3c0fdcb4	0.008780647
51	0xbd09ede2	-0.03367413
52	0xbd5ce031	-0.053924743
53	0x3d403eb9	0.046934817
54	0x3c0fdab0	0.0087801665
55	0x3d71818a	0.05896143
56	0x3ca20bc3	0.019780999
57	0x3d8708e3	0.06593492
58	0xbd31ccc3	-0.043408167
59	0xbcf12f94	-0.029441632
60	0xbdc64179	-0.09680457
61	0x3dc59e50	0.09649336
62	0xbda732c0	-0.08163977
63	0xbd8c8e0f	-0.06863033
64	0x3cfd1c54	0.030897297
65	0x3b9172b4	0.0044387225
66	0xbcdf51fe	-0.027260777
67	0xbcd846e2	-0.026400987
68	0xbcb150af	-0.021644918
69	0xbcfda540	-0.030962586
70	0x3d181221	0.037126664
71	0xbde0a6fc	-0.1096935
72	0xbd9ef180	-0.07760906
73	0xbd248e62	-0.04017485
74	0x3beefa23	0.007293002
75	0x3d25ba6b	0.040460985
76	0xbd3035e7	-0.043020155
77	0xbcca0c45	-0.024664054
78	0x3ca87bf1	0.020566912
79	0x3d53e9cc	0.051736638
80	0x3cb4e47f	0.022081612
81	0x3d930996	0.07179563
82	0xbc923a57	-0.017850084
83	0xbda28a6b	-0.079365574
84	0x3c1ed21c	0.009693649
85	0xbc1b0ab9	-0.009463006
86	0xbda5ff5f	-0.08105349
87	0xbdb1059a	-0.086436465
88	0x3de2f4b6	0.11081831
89	0xbc3422bd	-0.01099461
90	0xbb8b4ae6	-0.004250872
91	0xbdd7356e	-0.10508238
92	0x3ac6bca4	0.001516242
93	0xbd984f00	-0.07436943
94	0xbcc7b039	-0.024376022
95	0xbd47b10c	-0.04875283
96	0x3db0dc1a	0.08635731
97	0x3d918f6e	0.07107435
98	0xbd940e87	-0.07229333
99	0xbcabe035	-0.020980934
100	0xbc8fa22c	-0.017533384
101	0x3d368fe6	0.044570826
102	0xbb7709ea	-0.0037695118
103	0xbd47a5b2	-0.048742004
104	0x3d84b3b7	0.064795904
105	0x3c763ef5	0.015029659
106	0x3d729187	0.059220817
107	0xbd1db929	-0.03850666
108	0x3a568008	0.00081825303
109	0x3cdce43f	0.026964305
110	0xbd885f79	-0.06658835
111	0xbd2704e4	-0.04077615
112	0x3d6efd2e	0.05834692
113	0xbda9b936	-0.08287279
114	0x3d51e4b7	0.05124351
115	0xbd5ddc0b	-0.054164927
116	0x3c0404af	0.008057757
117	0xbcb5e7b6	-0.022205215
118	0xbb56ed12	-0.0032795114
119	0xbda05b10	-0.07829869
120	0xbd94da23	-0.07268169
121	0x3ce025cb	0.027361771
122	0x3d8a37c0	0.06748915
123	0x3d7ad683	0.06123973
124	0x3d9a3b1a	0.07530804
125	0xbd606aba	-0.054789282
126	0xbd801a50	-0.06255019
127	0x3d59addf	0.053144332
128	0x3d19ff2d	0.03759687
129	0xbdcf34d2	-0.101174966
130	0xbd86e68f	-0.06586944
131	0xbd9a3417	-0.075294666
132	0xbb846508	-0.004040364
133	0xbc94bff1	-0.018157931
134	0xbcc0ae04	-0.023520477
135	0xbdadb5c1	-0.084819324
136	0xbd9baa06	-0.07600789
137	0x3d4f31d7	0.05058464
138	0x3bf524ae	0.007481179
139	0x3d9f635e	0.07782625
140	0x3d90467c	0.07044694
141	0x3cb5cb3b	0.022191634
142	0x3c09df11	0.008415
143	0xbdb1bd16	-0.086786434
144	0xbd7e7722	-0.062125333
145	0x3d5b7d98	0.053586572
146	0x3c408272	0.011749851
147	0xbdaab32a	-0.08334954
148	0x3daf10d2	0.0854813
149	0x3d172fb7	0.03691074
150	0xbd1bc767	-0.03803196
151	0xbd1f0642	-0.038824327
152	0xbd18c432	-0.03729648
153	0xbda8b5f4	-0.0823783
154	0xbd777246	-0.060411714
155	0x3d1f2d6f	0.03886169
156	0x3b4651d7	0.0030261183
157	0xbda824ea	-0.08210166
158	0x3d838eb8	0.06423706
159	0x3d73ada8	0.059491783
160	0xbccad9a9	-0.024761992
161	0xbdc328f0	-0.095292926
162	0x3d92e324	0.0717223
163	0xbd6afec1	-0.05737186
164	0xbd51265c	-0.051061973
165	0xbc8bcce9	-0.017065482
166	0x3d36d9bd	0.044641245
167	0xbdc03790	-0.09385598
168	0x3d948841	0.07252551
169	0xbc6e60f5	-0.014549484
170	0x3b02c7eb	0.0019955586
171	0xbb020989	-0.001984211
172	0xbd8e6c27	-0.06954222
173	0x3d51b200	0.051195145
174	0x3ca88d7c	0.020575278
175	0x3d06de1c	0.032926664
176	0x3d68d4e6	0.05684366
177	0xbd926df0	-0.07149875
178	0xbda75cb4	-0.081719786
179	0xbd8e0457	-0.069344215
180	0xbcc367c0	-0.023853183
181	0x3bc72f35	0.0060786256
182	0xbd60d091	-0.054886404
183	0x3d748a14	0.059701994
184	0xbd68fd2e	-0.056882076
185	0xbd78de16	-0.060758673
186	0x3c55d557	0.013051352
187	0x3d9a12cd	0.07523117
188	0xbc62f2c5	-0.013851826
189	0x3cf81f52	0.030288372
190	0xbd522ba9	-0.05131117
191	0x3c7ba25a	0.015358532
192	0x3b4af2ae	0.0030967402
193	0xbd49cef0	-0.049269617
194	0x3d828e0f	0.06374752
195	0xbd1d8ba5	-0.038463254
196	0xbcb20872	-0.021732543
197	0x3d568a68	0.05237809
198	0xbd826e32	-0.06368674
199	0xbd12336e	-0.03569358
200	0xbcaf76b0	-0.0214189
201	0xbd6a068e	-0.057135157
202	0xbdd6df20	-0.104917765
203	0x3c9593d4	0.018258967
204	0xbdb7b7ef	-0.089706294
205	0xbd167ed7	-0.036742058
206	0x3d62c5ec	0.055364534
207	0xbcd276f2	-0.025691483
208	0xbd887f9f	-0.06664967
209	0xbcd1904f	-0.025581507
210	0x3cb695b4	0.02228818
211	0xbda1863a	-0.0788693
212	0x3cd2b3ee	0.025720563
213	0x3d89726f	0.067112796
214	0x3c57cd97	0.013171575
215	0xbdb36794	-0.0875999
216	0xbdde1bb6	-0.10845129
217	0x3c8a02ea	0.016847093
218	0x3d0313b1	0.0320012
219	0xbcde9bb9	-0.027173864
220	0xbd8cade6	-0.06869106
221	0xbd797b21	-0.06090844
222	0xbd1dd11c	-0.0385295
223	0x3bca3f8a	0.006172125
224	0xbd98ef6c	-0.07467541
225	0xbd758f5a	-0.059951164
226	0xbd932d00	-0.071863174
227	0xbce712b8	-0.028207168
228	0x3c7cb384	0.015423659
229	0xbd80e4ad	-0.062936164
230	0xba1a92cd	-0.0005896509
231	0x3cd68a4f	0.026188998
232	0xbd1a2c73	-0.037640046
233	0xbcff8197	-0.031189723
234	0x3d9a72c4	0.07541421
235	0xbd950f92	-0.072783604
236	0xbd73f9d1	-0.059564415
237	0xbd969ec9	-0.073545046
238	0xbd1e171b	-0.038596254
239	0x3d091a44	0.033472314
240	0x3cbfdd87	0.023421062
241	0xbbd37cba	-0.0064540775
242	0x3dc71af0	0.09721935
243	0x3da7148d	0.081582166
244	0x3d984957	0.074358635
245	0xbcf306bb	-0.029666295
246	0x3c72008c	0.014770638
247	0x3a49c65a	0.0007697098
248	0x3d0c99d7	0.0343264
249	0x3ccb4bb2	0.024816368
250	0x3db876db	0.09007045
251	0x3d24f995	0.040277082
252	0xbd67241e	-0.05643093
253	0xbdb629c6	-0.088946864
254	0xbd410fa6	-0.047134064
255	0x3d29acd6	0.041424595
