models/ITC.NS_lstm.pth (torch, 809541 bytes, 9 tensors)

lstm.weight_ih_l0 f4 [512, 5]
00000000: 7a4c 7ebd dcd0 b0bd 4b9f c8bd becb d0bd
00000010: 82d7 32bd a790 c03b 4aae 273c 5a77 7abd
00000020: e0d1 0b3c ff2b 503d aa99 2b3c f59c 12bd
00000030: 24ea 3ebd 48a1 163d b2b6 d13d 984e 363d
00000040: f3d5 3d3d 93b2 d4bc 068e aebd e671 b8bd
00000050: 0bd2 8c3d 1f85 883a d57e 34bd 5412 9cbd
00000060: 73c1 183d 56f5 5a3d 54cd 3cbd bd28 c33c
00000070: dcd4 db3d 4de5 a63d d0f6 98bd 4565 49bc
00000080: 24d5 a6bd b119 a4bd 46fd b5bc ccca abbc
00000090: 6741 a6bd 41e5 253d dab4 9d3c db13 ddbb
000000a0: 0b8c bd3d fcdb 04bb f624 dbbb 19b9 3b3c
000000b0: dbb9 f03d ecc3 8c3c 9c21 9a3d ef5a 88bd
000000c0: d46d 21bc 6c55 59bd e4f0 a0bb 03c9 053d
000000d0: 59e2 7bbc 51fb 6ebb 55e6 523d cc39 fe3d
000000e0: 19b1 b5bd 1271 d63d 613b dd3d 944d b93d
000000f0: aa11 163d 54de fcbc a53e 573d 9876 473c
00000100: 09de 66bb 7f6d bb3d ec7f 453d 536b 023d
00000110: 71c4 0fbd 4bb6 763d b78a 78bd 28ec 803d
00000120: cba3 993d 3eea a13c d09b acbd e6a7 6ebb
00000130: 6bd3 b83d e172 793d 020e 393c 42a1 a53c
00000140: 75f4 943d ec0c d83c 79f4 71bc 3f18 19bc
00000150: 629e 993d 74ec 423d ef45 24bc 8ed2 f43d
00000160: 3a97 74b9 0190 e13c a38d bdbc acc2 433d
00000170: 6121 e4bc f928 b83d 45c3 833d caab ad3c
00000180: a2a6 f1bc e0a8 20bd 1264 87bc 6a80 26bd
00000190: dc11 e33d 2179 7d3c 98c3 013e 27a6 813d
000001a0: b1f6 b53c 361e 0c3d a45f a73d 5f63 8dbc
000001b0: 12b4 75bd f014 be3d bb90 1dbd cc72 cb3b
000001c0: 00d1 13bd 6100 d03c ac5a bdbc 4c9b 453d
000001d0: 1e82 8ebd d1c4 6dbd c469 79bc 3f05 f33c
000001e0: 7623 2f3d ccf7 73bd 247f 7cbc abdf eebc
000001f0: 636f 3b3d a296 08bd 9d35 443d c8d4 863d
00000200: 4ee8 ff3c 396c bf3d 406a 20bd cf96 04bd
00000210: 42cc 143c 325c 163d c5e2 8e3d 3c7e ce3c
00000220: 0b66 c93c 97f7 8d3d e17c c9bd e43f 673c
00000230: 740f 7e3c d491 773d cf41 8a3d 458c 3cbd
00000240: 9d85 30bd 156f a9bd 69b6 04bd 7148 80bd
00000250: 3715 5f3d c591 7b3d 21e7 b73d 445b 05bb
00000260: 719b c03d ab9d 84bc a5b3 82bd e7a6 bf3d
00000270: 91fd bfbc c9df d83c 3505 ddbc 71f4 b4bd
00000280: 9db2 fc3b 15ec 43bd ca36 943b fd1e 4d3d
00000290: 7941 9dbd e826 b8bd be37 34bd 4536 01bc
000002a0: 808c a33d 95a5 8dbd 1a04 943d fcd2 553c
000002b0: 8f81 473a f14a d43c 29e7 023e 7cb2 06bd
000002c0: 629d 98bb 6ef4 9bbc 51d3 d7bc b035 e8bb
000002d0: 9b12 9d3d 317c 03bc 25ea 22bd cddf a33d
000002e0: 776d 96bd 256b 7dbd fb71 f1bb e18a 25bc
000002f0: 08cb 3d3d b262 403d e87c f8bc 327e 28bd
00000300: 9b1f 08bd 85b8 043e 756f 123d 2547 a73b
00000310: 9a50 3e3d dc11 3dbd a0a3 d5bd 9a60 1abd
00000320: d7c2 adbc a302 56bd 406f 083d 73fa 27bc
00000330: 19ba d3bc febd 11bd 060c c6bd 01e3 8e3d
00000340: f5c3 6f3d 6518 653d 17ed 8b3d 37a8 8fba
00000350: 2c21 81bc eee4 873d 004e e73c 6c3b 473d
00000360: 5263 a9bd 8c4f f1bc 3f9e d93d 6a4e a03d
00000370: 93ba 67bd 62b6 6f3d 399a 623c c5d8 3b3d
00000380: 8870 533b 9420 7f3d d49c a1bd 70cc 783d
00000390: 7e50 993d d3a2 2d3d a6ee cc3d 4406 3abd
000003a0: 22be 28bb 990d d13d 6901 56bd 45fd f73c
000003b0: e5bc e5bd 2665 9dbd ecf7 2fbd 1e8d b4bd
000003c0: 24cd 693d ccb8 993c a718 bd3d 8203 243d
000003d0: ae45 f23c 38b3 1f3d add8 1b3d b670 4d3d
000003e0: 0f7b c13b f19c 263d bb82 173c b40a 5d3d
000003f0: 5241 c23d a9b3 a53d a49f d53d c4be d73b
-0.062084652 -0.08633587 -0.09796008 -0.10195111 -0.043662556 0.005876619 0.010234425 -0.06114898
0.008533925 0.050823208 0.010473648 -0.035794217 -0.046610013 0.036774904 0.102399245 0.044508547
0.046346616 -0.025964057 -0.085231826 -0.090060994 0.06876 0.001041565 -0.04406627 -0.07620683
0.037293863 0.053456627 -0.046094254 0.023823136 0.10733959 0.081492044 -0.07468951 -0.012292211
-0.08146122 -0.08012713 -0.022215497 -0.020970725 -0.08117943 0.040501837 0.019251276 -0.0067467517
0.09255227 -0.0020272722 -0.0066877557 0.011457705 0.11754199 0.017183267 0.07525942 -0.06657969
-0.009852845 -0.05305998 -0.004911529 0.032662403 -0.01537379 -0.0036465714 0.051489193 0.12413368
-0.08871669 0.10470785 0.10802341 0.09048 0.03663794 -0.030867733 0.052549977 0.012174271
-0.0035227558 0.09151744 0.0482177 0.031840634 -0.03509945 0.060232442 -0.060679164 0.06295043
0.07501944 0.019765016 -0.084281564 -0.0036415993 0.090247 0.060900573 0.011294844 0.020218495
0.07273189 0.02637335 -0.0147677595 -0.00934416 0.07500912 0.04758878 -0.010026439 0.119542226
-0.0002332599 0.027534487 -0.023138827 0.047793075 -0.027847948 0.0899219 0.06433729 0.02120008
-0.029498402 -0.03922355 -0.01652721 -0.04064981 0.11087391 0.015470774 0.1267227 0.06330519
0.022212358 0.0342085 0.08172539 -0.017259298 -0.05998618 0.09281337 -0.038468104 0.006208753
-0.03608799 0.025390806 -0.023114525 0.048243806 -0.06958412 -0.058049027 -0.01522297 0.029665587
0.042758428 -0.05956249 -0.015411172 -0.029159388 0.045760524 -0.03334678 0.047902692 0.065835536
0.031238701 0.09346814 -0.039163828 -0.032370385 0.009081902 0.036709018 0.069768466 0.025206678
0.02458479 0.0693199 -0.09838272 0.014114354 0.015506614 0.060441807 0.06750833 -0.04603221
-0.043096174 -0.0827314 -0.032400522 -0.06263817 0.05446359 0.061418314 0.08979631 -0.0020348588
0.09404648 -0.016188463 -0.06381921 0.09358006 -0.02343634 0.026473897 -0.026980022 -0.08835686
0.007711722 -0.047832567 0.004523133 0.05007838 -0.076785035 -0.08991796 -0.043998472 -0.007886474
0.079857826 -0.06916348 0.07227345 0.013050791 0.00076105533 0.025914641 0.12783493 -0.03288506
-0.0046574334 -0.019037452 -0.02634588 -0.007086478 0.07669564 -0.008025215 -0.03977408 0.08001671
-0.073450975 -0.06186976 -0.007368324 -0.010103912 0.046336204 0.046969123 -0.030332997 -0.041135974
-0.033233266 0.12961014 0.035750825 0.0051049166 0.046463586 -0.04615961 -0.104315996 -0.037689783
-0.021211071 -0.05224861 0.03330922 -0.010252583 -0.025845574 -0.03558158 -0.09670262 0.06976891
0.05853649 0.055931468 0.06832331 -0.0010960166 -0.015762888 0.06635462 0.028235435 0.048640653
-0.08270897 -0.029456876 0.10625886 0.07827456 -0.056574415 0.058523543 0.013830715 0.045861024
0.0032263119 0.06228693 -0.07891241 0.06074184 0.07486056 0.04239161 0.10006456 -0.04541613
-0.0025748094 0.10207672 -0.05224744 0.030272136 -0.112176694 -0.07685308 -0.042961046 -0.088159785
0.057080403 0.018764876 0.09233218 0.040042408 0.029574241 0.038989276 0.038048435 0.050156318
0.0059045623 0.040677015 0.009247477 0.053965285 0.09485115 0.08090908 0.1043084 0.0065840203

lstm.weight_hh_l0 f4 [512, 128]
00000000: 53da 56bd 6b6e a1bd 0b24 ba3c 95a1 bd3d
00000010: 8c7e ed3d 7b35 883d 2646 a6bd cf34 79bd
00000020: a0a1 95bd 40b7 05bd da65 7fbd 4b53 a2bd
00000030: 7c22 56bb 9ed0 bd3d 4d7e ca3d e96a 7c3d
00000040: 8ce5 85bd f791 ce3d 67c3 623d 87b6 b33d
00000050: 917d 92bd d150 8dbd 4f9a 45bd bb94 3b3b
00000060: 7b8a 9a3d 4c00 5d3d c63c b43d 0890 b6bd
00000070: f3b5 673d 2d69 80bd e802 1bbc 5fef 02bc
00000080: 3612 063c 04d9 8ebd 6340 173d f451 633d
00000090: 8107 683c 34a3 593d 3eac cbbc bb64 bdbd
000000a0: 02a5 58bd 2913 463d 8501 983c 5022 a0bc
000000b0: 17d1 c13d 7b1e b43d c4ca 30bd 3eb6 2a3d
000000c0: 7b19 b23c 7e2b 44bd 7f29 a2bc 09e8 cabc
000000d0: 7c8f 873d 3005 083d e6b8 16bd ab1f e2bc
000000e0: a25f 67bd b363 99bd 06f1 41bd 14f2 243d
000000f0: 7f65 183d d1bd e6bc 64c9 fdbc cc8b 68bb
00000100: 7f24 bdbd cafb c93d 0a6a 693d 39b9 5c3d
00000110: 00ad eebc a4f2 8f3d 7a4e b03d ed7d 623d
00000120: bded b93d 6352 953d b296 efbc 6efa 963c
00000130: 1055 9d3d 36cb 8dbd be09 b23d e51b 343d
00000140: 1621 acbc 15dc 59bd 3c52 88bd fa83 6cbd
00000150: b6ee 89bc e29c 8abd df21 dfbc 1acc 85bd
00000160: 0fc9 bf3c 5b02 1d3d 225b e7bd 6dcc be3d
00000170: a3f1 1abc 326f 5c3d 3ccb a8bb 93de a63d
00000180: 9d26 063d 45f8 a9bd e75e 123d cb14 a4bd
00000190: 5507 89bd c082 8a3d 6fdf 93bc 85e9 92bd
000001a0: d214 07bb d0da e73d 2df2 833d 7c0b 5a3c
000001b0: 8497 4dbd 89ef fa3d 8342 0dbd 9da4 f33b
000001c0: 7414 3abd 2229 a8bd b2eb 933d 651c b4bd
000001d0: fb0b 40bd 5b2b 0c3e a3f5 8c3d 9f4c b93c
000001e0: 9c12 4c3d ac05 5dbd 3b06 05bd 2c74 b23d
000001f0: e53d 87bd f97e 22bd bd70 0f3d f8b3 73bd
00000200: 8abe bdbd 78cf a33d 94c0 cabc 07e4 a5bd
00000210: b9c6 92bd 44e1 62bd 2091 1fbd 429f cdbc
00000220: 7c99 77bb 7963 ae3d 4c75 05bd ccfc 1fbd
00000230: 9768 c0bc 65db efbd 9768 2bbd 1f47 063d
00000240: c627 5fbd e089 90bd 4164 27bd ff42 9ebd
00000250: 613a 7fbc a2d7 b7bc 104c 5d3d efab ae3d
00000260: 957f 9cbd fcf3 c73d b227 d8bd bc7d 85bc
00000270: 4a63 4e3d 89c7 fbbd 682f 15bc eff8 96bd
00000280: cf96 93bd b803 cdbc b6b5 82bd ccac 6cbd
00000290: b1ac 75bd 934d 92bc 7627 68bd 6d22 7e3c
000002a0: 9f33 833d f285 1439 4346 8a3d 8f6a 1bbd
000002b0: 255a cabd 23c9 a63d 2a4f 4f3d 6fcf 9bbc
000002c0: 9aa6 ecbb e517 8b3d 0a8a 62bd 9a8e 163d
000002d0: 34bd f5bb 4847 853d a561 2c3d 63c9 583d
000002e0: 389b c63c 4a47 e13c eae0 c93c 99bb 293d
000002f0: 6d13 7f3b 2cee cb3d be52 3abd c936 04bd
00000300: 6046 673d 2b91 973c 4886 27bc 935a 0f3d
00000310: af6d 4ebd 4a2a 563d d94f 36bb dd91 8d3d
00000320: 222e e2bd 7f60 9f3d 26c6 9b3d b027 35bd
00000330: 8f2f b93d 36d7 26ba 3c38 c0bb e9f6 1b3d
00000340: 16f8 f3bc acee c0bd 313a 71bd f38f 21bd
00000350: b766 123d 96d8 4a3c d7b2 d0bd bc0f a03d
00000360: 2537 fc3c 6837 d93c 772b 6a39 b563 c73a
00000370: f451 eabc c475 9dbd 7402 303d c598 b53c
00000380: d711 103d 3aec 9b3d 78e1 1cbd d22e 6c3d
00000390: 8749 aabd e444 99bd 0bbf bd3c a017 ee3b
000003a0: 7847 68bc 1909 a63c 6cc2 19bd 98c0 34bc
000003b0: 71ea 813d 3d5d ba3d df24 e5bd b740 16bd
000003c0: 28bd 52bd 2801 12bd 46a9 67bd aaa1 c33d
000003d0: de52 9fbd ad00 77bb 723b 10bd 4450 8bbd
000003e0: f68b 3d3d 7ff8 ed3c 187e 593d e3ed ca3c
000003f0: 27f3 1c3c f279 c6bd b440 1e3d ee10 36bb
-0.052454304 -0.07882389 0.022722265 0.09259335 0.115964025 0.066508256 -0.081188485 -0.060841378
-0.07306218 -0.032645464 -0.062352993 -0.07926043 -0.0032674363 0.09268306 0.09887371 0.061625395
-0.06537923 0.10086434 0.05536213 0.08775049 -0.07152856 -0.0690018 -0.048242863 0.0028622586
0.07545944 0.05395536 0.08800654 -0.089141905 0.056570005 -0.06270061 -0.009461142 -0.007991641
0.008183053 -0.06974986 0.03692664 0.05549808 0.014161945 0.05313416 -0.024862405 -0.092477284
-0.05289174 0.048358116 0.018555412 -0.019547611 0.09463709 0.08794876 -0.043162122 0.041677706
0.021740666 -0.04789304 -0.019795178 -0.024768846 0.06619164 0.033208072 -0.036797427 -0.027602991
-0.056487687 -0.07489719 -0.047349 0.040269926 0.03720617 -0.028166683 -0.03097982 -0.0035483716
-0.09235477 0.09862478 0.056985892 0.05388758 -0.029135227 0.07028702 0.08608718 0.055295873
0.09078548 0.07291105 -0.029246662 0.018429961 0.0768224 -0.06923525 0.086932644 0.043971915
-0.02101187 -0.053188402 -0.0665631 -0.05774305 -0.016837459 -0.06768204 -0.02723783 -0.0653307
0.023411302 0.038332324 -0.11296679 0.09316335 -0.009457025 0.05381698 -0.0051511806 0.081479214
0.03275167 -0.08299307 0.035735037 -0.080117784 -0.066908516 0.0676322 -0.018050877 -0.071734466
-0.0020611775 0.11321032 0.06442676 0.013308402 -0.050193325 0.12252719 -0.03448726 0.007435395
-0.045429662 -0.082109705 0.0722269 -0.08794478 -0.046886425 0.13688414 0.06882789 0.022619544
0.049822435 -0.053960487 -0.032476645 0.08713564 -0.06603602 -0.03967187 0.035019625 -0.059497803
-0.09264858 0.07998556 -0.024750032 -0.081001334 -0.071668096 -0.05539061 -0.03895676 -0.025100354
-0.0037780693 0.08515067 -0.032582566 -0.039059445 -0.023487372 -0.11711768 -0.04184779 0.03278267
-0.05448129 -0.070575476 -0.040867094 -0.07727622 -0.015577883 -0.022441689 0.054027617 0.085288875
-0.07641522 0.09763333 -0.10554446 -0.016295306 0.05038766 -0.12293918 -0.009105541 -0.07371699
-0.07206499 -0.025026187 -0.06382315 -0.05778198 -0.059979144 -0.017859256 -0.056678258 0.015511137
0.0640633 0.00014164278 0.067516826 -0.03794342 -0.09880475 0.081438325 0.050612606 -0.01901981
-0.007222009 0.06791667 -0.055307426 0.03675709 -0.0074993614 0.065077364 0.04208531 0.052926432
0.024243936 0.027499814 0.02464338 0.041438673 0.003892149 0.09957537 -0.045489065 -0.03227881
0.0564636 0.018501839 -0.010224886 0.034998488 -0.05039757 0.052286424 -0.002781859 0.06912587
-0.110439554 0.07782077 0.07606153 -0.044227302 0.09042274 -0.00063644664 -0.0058660787 0.03807727
-0.029781383 -0.09420523 -0.058893386 -0.03944392 0.035742488 0.01238074 -0.10190361 0.07815501
0.030788014 0.026515678 0.00022332171 0.001521221 -0.028603531 -0.07688478 0.04297109 0.022167573
0.035173263 0.07613416 -0.03830096 0.05766184 -0.083148055 -0.07483843 0.023162385 0.007266
-0.014177196 0.02026801 -0.03753893 -0.011032246 0.06343544 0.09099815 -0.11188673 -0.03668281
-0.051449925 -0.035645634 -0.056557916 0.09552319 -0.077794775 -0.0037689612 -0.03521294 -0.06802419
0.046276055 0.029049156 0.053098768 0.024771636 0.009579456 -0.09691228 0.038635924 -0.0027781087

lstm.bias_ih_l0 f4 [512]
00000000: 848c 9fbd ff14 3ebd 15ec 6bbd b597 cb3c
00000010: 1d76 c4bd b503 03bd 8486 84bd d6d1 b6bd
00000020: 9dc7 8d3d 6024 ef3c db33 a73d e994 473c
00000030: d53a 8b3c 0e47 2c3c 9979 553b 3e44 dbbc
00000040: 2ebb 8bbd e690 80bc 2070 f2ba b8da 34bc
00000050: a1fa 1cbd d705 bfbc e702 a3bc 18aa e83c
00000060: 6b4e 223d fc15 94bd ca4f 82bd 4cf2 5cbd
00000070: 550b 6b3d 3846 543d cd15 b8bd 3faf 1ebd
00000080: 9522 a7bc 18f1 7bbb 6893 d23d 374d bcbc
00000090: 3ba4 84bd 2972 533d a621 afbd 1600 673c
000000a0: 6618 abbd 8441 82bd f26f 6fbd 4170 88bd
000000b0: 94ad c2bd a756 0abd 715f c4bd 7b0f 23bd
000000c0: 2f0e bd3c b3df 8a3d 52d2 0dbb f201 fdbb
000000d0: 5451 4abd 121c 983c eb8f bb3a 4435 293d
000000e0: 4afe babd 6096 5d3d 1a7b aebd 5c02 c7bd
000000f0: d897 ddbd 7d59 c93c 9ca1 82bd cb86 49bd
00000100: 8aab debd 2105 fcbc 5a20 613d 6871 f8bc
00000110: 9745 b8bd c619 5b3a e611 8d3d fd57 c73d
00000120: bd8d c8bc deca 6e3d bc2f aebb 77ba a1bd
00000130: ec54 413d f088 6c3d 5ac3 413d cc97 5a3d
00000140: af55 3dbd 69aa c4bd ddd8 013d 9974 303d
00000150: 3eb1 3638 e31d c43d 4c5a 45bd a65d 94bd
00000160: b0d7 3fbd 66b8 1c3d 9207 583d ff9c 47bd
00000170: 3ecc 873d e6e9 893c 6e3d bcbb f89d a4bd
00000180: 7c2c 57bd 5542 56bd e325 193d 8d9c 233d
00000190: 85be 1c3d bcfe 66bc d554 893d caff 96bd
000001a0: eb56 383c ca77 3cbd 3874 373d 8f4b 7b3d
000001b0: d5a3 d9bd 71c3 623c 72dc 56bd 7a79 1ebd
000001c0: 2fd0 823d 9ac4 d93a f27a 9cbd 9e31 ffba
000001d0: 3604 d3bd 5a19 9fbd 8d27 b73b 4daf 233d
000001e0: e9d7 3e3c 0a49 a8bc bcb3 98bc e231 50bd
000001f0: 7516 bdbc 4e05 b4bd 6905 6f3d 5c7d 713d
00000200: f36f f2bc 9880 a23d 008c 54bd ae6a a33c
00000210: 3303 39bd 57d8 9a3c 7a2e 9a3b 9d1b 663d
00000220: a095 8e3c f48a 4dbd 3b75 b6bc 0238 ec3c
00000230: 6862 c7bd 5cdd b8bd dc60 dcbd fe99 453d
00000240: 1915 f6bc 0ff9 4d3c 72e8 e4bd d1a9 80bc
00000250: 607c 07bc 2ff6 893d 9dc8 b8bc c6b6 0bbe
00000260: e029 23bc d7df 903d 577a a9bd c7b5 40bb
00000270: 4914 3f3d 362e 923d b90f 07bd 3c81 3f3d
00000280: b0f5 62bd 1e0c 77bd a318 2ebc 0cf6 6ebd
00000290: 888e 40bd 03f5 76bc 21fd 12bd ad0f 83bd
000002a0: e529 843d bf33 c2bd 670e 19bb a013 90bd
000002b0: e53d c9bd 043f 83bd d3d8 04bd 217f c1bd
000002c0: e7a0 efbc 776a 843d f9b2 5e3d 35ca dc3c
000002d0: 017a 113d 600e bcbd b3a8 38bd ccbe c3bd
000002e0: 8942 ad3c 4e68 36bd d758 c8bc 0acb 683d
000002f0: 6881 8fbd 78ef 043d 3977 15bc 235b e3bd
00000300: 8288 a3bd 3e24 1fbd 98ab 383d 1a1f 64bd
00000310: 9bf5 243d 5dec 92bd 21d9 79bd faed 803d
00000320: a8ae 72bd 9e4b a8ba 3956 03be d467 1abe
00000330: 431a 7fbd 5416 a5bd ff1e 213d d5cd 4cbd
00000340: 6762 abbd 1ec7 cabd 1e55 c5bc 4fae 6a3c
00000350: 75dd 81bd 6e57 0cbd 4609 47bd a7f8 683d
00000360: d35d 853c dd55 fabb 2c7c 13bd a095 023d
00000370: b05c 80bd 6969 363d 80e9 603d cf83 8b3d
00000380: 9e98 e9bd 4ffd 813d 97b9 69bd 1624 393c
00000390: 6f14 a3bd 8381 3739 75dc 913d 7fa7 5e3b
000003a0: 1a38 863d e78e 5dbc 8d02 d2bd 7a76 2dbd
000003b0: e7b3 3cbd e8db cfbd 2da7 fdbc 1ef2 6c3c
000003c0: adf4 f33c cfe9 9bbc bbe6 52bd 4678 263d
000003d0: 3b21 bbbc 1fcf eb3c 1e6a 613d fa31 7dbd
000003e0: 05b9 7dbd 4598 03bb 5185 0a3d 9ce8 283d
000003f0: 2904 c3bd 6ac7 d7bc 0105 d3bc 7432 61bb
-0.07790473 -0.046406742 -0.057598192 0.024852613 -0.09592841 -0.031985957 -0.06470969 -0.08926742
0.06922839 0.02919215 0.081641875 0.012181499 0.016995827 0.010514988 0.0032573699 -0.026765939
-0.06822811 -0.015694093 -0.0018496551 -0.011038475 -0.038324956 -0.023318214 -0.019898845 0.02840142
0.039625566 -0.07230756 -0.06362875 -0.05394201 0.057383854 0.05182478 -0.08988533 -0.038741346
-0.020402232 -0.0038443264 0.10282022 -0.022986038 -0.06476637 0.051622543 -0.0855134 0.014099142
-0.08354263 -0.06360152 -0.05845637 -0.06662036 -0.09505764 -0.033774044 -0.095885165 -0.039809685
0.023078052 0.067809485 -0.0021640253 -0.007721179 -0.049393967 0.018568072 0.0014309859 0.041310564
-0.09130533 0.054098487 -0.085195735 -0.09717247 -0.108199775 0.024578804 -0.06378481 -0.049200814
-0.10872562 -0.030764164 0.054962493 -0.030327514 -0.08997648 0.00083580276 0.068881795 0.09733579
-0.024481649 0.058298938 -0.005315749 -0.078968935 0.04720013 0.05774778 0.047305442 0.05336742
-0.046224292 -0.09602816 0.031700958 0.043079946 4.355725e-05 0.09576013 -0.048181817 -0.072444245
-0.046836555 0.038261794 0.052741595 -0.048733708 0.06630753 0.016835164 -0.0057446277 -0.08037943
-0.052532658 -0.052309353 0.037389647 0.03994422 0.03826763 -0.014098819 0.067056336 -0.07373007
0.011251192 -0.046012677 0.04478857 0.061351355 -0.106269516 0.013840542 -0.052456327 -0.038690068
0.06387364 0.0016614378 -0.076406375 -0.0019469743 -0.103035375 -0.07768507 0.0055894316 0.0399621
0.011648157 -0.02054264 -0.018640392 -0.050828822 -0.023081997 -0.08790074 0.05835477 0.058957443
-0.029594397 0.079346836 -0.051891327 0.01994833 -0.045169067 0.018901987 0.0047052475 0.056178678
0.017405331 -0.050181344 -0.022272697 0.0288353 -0.097355664 -0.09026596 -0.10760662 0.04824256
-0.030039357 0.012571587 -0.11177148 -0.015705975 -0.008269399 0.06736409 -0.022556597 -0.13643941
-0.009958714 0.07073944 -0.082752876 -0.0029405223 0.046650205 0.0713772 -0.03297398 0.046754107
-0.055410087 -0.06031429 -0.010625991 -0.058340117 -0.04701093 -0.015073064 -0.035885934 -0.06399474
0.06453303 -0.09482526 -0.0023354532 -0.07034993 -0.098262586 -0.06408504 -0.032433342 -0.09448076
-0.029251529 0.06465619 0.0543699 0.026951889 0.035516743 -0.09182429 -0.04508276 -0.09557876
0.02114989 -0.044533066 -0.024456425 0.05683426 -0.07007104 0.032454938 -0.009122663 -0.11101367
-0.07985021 -0.038852923 0.04508552 -0.055693723 0.04027329 -0.07173989 -0.060998086 0.062953904
-0.059248596 -0.0012839918 -0.1282586 -0.1507867 -0.062280905 -0.080608994 0.0393362 -0.050000984
-0.08368378 -0.0990126 -0.024088439 0.014323785 -0.06341068 -0.034263067 -0.04859283 0.05687776
0.01628009 -0.00763963 -0.03600709 0.031880975 -0.06267679 0.04453412 0.054910183 0.0681225
-0.114060625 0.06347143 -0.057061758 0.011300107 -0.07962882 0.00017500487 0.07122127 0.0033974347
0.06553669 -0.01352284 -0.10254393 -0.042349316 -0.046070006 -0.10149366 -0.030963505 0.014462022
0.029779756 -0.019032387 -0.051489573 0.040642045 -0.022842994 0.028785286 0.05503284 -0.06181524
-0.061944026 -0.0020079773 0.033818547 0.04123746 -0.09522278 -0.026340205 -0.025759222 -0.0034362348

lstm.bias_hh_l0 f4 [512]
00000000: 65db dfbc 92c1 4b3c fabf a23d a075 36bd
00000010: 3b00 c2bd 1485 1d3d 5444 163d 580c 36bd
00000020: 9b5b a23d 06b4 d03c 4a50 2fbd dd2b 31bd
00000030: f2aa 98bc cf96 f6bc d6c6 1b3d 6a2b 94bc
00000040: fbca 623d 0fa6 843b 3195 4dbd d2ef 33bd
00000050: c5ec 763d 39d0 9f3d e319 a3bd aff9 a83a
00000060: a2d0 9cbd e7f3 833d 2b3b 8dbc 16df 5e3d
00000070: 8dc5 c7bb dc1d 59bd d03a 163d da6e 38bd
00000080: 9e24 e1bd 6143 a6bd 1af2 17bd e0dd 69bb
00000090: db4e 11bd f19e bfbd 4ecb e63b 0b3d c4bd
000000a0: 6c93 96bd 450f e73c 2af2 3d3d f485 ccba
000000b0: 1a69 903d 3c0f 68bd 880c 1e3c bbdd f5bc
000000c0: b0ac 8abd dd62 cbbd 8d1e a8bd bcea a3bd
000000d0: a946 29bd 3c1b 7eb9 50e0 523d 457a 26bd
000000e0: 84d0 c7bd b705 86bc a2bc 07bd ad16 d83c
000000f0: 2a78 103d 9fc0 eabc f701 9139 85b4 61bd
00000100: 655b e2bc d7ff b0bd b01f aebd 98a9 263d
00000110: c9ba 1c3c a7f9 903d 76cc 1a3d 8a90 0e3c
00000120: 2bad 1b3c 1de9 a9bb f2c1 0dbe f300 efbc
00000130: 35aa 85bc 2e74 8cbd 78dd 1dbd 7aed 64ba
00000140: 4fe7 923d 85b2 35bd 71de 48bd 538f 373d
00000150: 81f6 f2bb 8099 29bd 1018 2dbd ca95 abbd
00000160: d42f 15bd 5b76 b6bc 2006 57bd 7916 31bd
00000170: 4240 94bd 5423 df3c e1b1 95bd 8a11 b2bd
00000180: 299b 083c e4ff 953d 4ac1 283c 67b3 d93c
00000190: 4b1a 78bd 8742 623d aea9 95bd b4fc a5bd
000001a0: 93ad 983c 2eef 3dbd 533b 49bc 4b99 4bbd
000001b0: eb0a 4bbd 4425 e23c be4a 99bd 3277 203d
000001c0: 14dc bcbd d818 82bc ae2b a2bc 1a67 cfbc
000001d0: f75a d1bb b71e 28bc 4420 e53b dcd3 d2bc
000001e0: 2cdd 4ebd 91af 893a 4a4f 263c 3f3c 28bb
000001f0: 9867 00bd c5f8 203d c296 c8bd c094 5cbc
00000200: 03bf 9bbc 6385 4d3d 9a06 9ebd 6137 08bd
00000210: f41a c2bb fcf6 9fbd e266 213d 18b1 a4bd
00000220: d0b4 9c3c 2241 4c3d 70c5 503d 5494 ef3b
00000230: ce6f 423d aa64 7c3d d988 d4bd b76a 413c
00000240: 8b3b 82bd b1c3 653d d22d d6bd 98ba 4f3c
00000250: 0057 a3bd 70a9 f43c 188e 60bd 9fbe 2cba
00000260: a4f2 82bd 79b6 babd 6338 bd3c 194c 9f3c
00000270: f9d4 7a3c d853 92bc 84f8 573a 1a51 a3bd
00000280: 161c 6f3c 7455 c0bd 2ccf 22bd 57db 64bc
00000290: 7f73 d2bd 705b 313d b5cc b6bd 1723 7abd
000002a0: 90ce 3e3d fb87 8dbc ca7f 093d a438 91bd
000002b0: be44 b93c e793 143d e600 99bd 7f51 6fbd
000002c0: 2953 e73c d462 f5b9 721e a33c 1680 babd
000002d0: d791 98bd eea2 5dbd f338 29b9 03e4 a1bd
000002e0: 3db9 63bd b885 563d af97 95bd d0cb 17bc
000002f0: a041 943c e478 4e3d 4e5a 1abd 78d1 473d
00000300: d8e4 d2bd 5d45 11be e955 183b 1a4a 7a3d
00000310: a1fe 0abc d1fb 66bd 8254 8dbd 8cf2 5b3d
00000320: 6a8b 70bd b022 40bc 2651 f4bc d1e5 38bd
00000330: 4ea9 5fba 644a f3bc 3fa1 343d 6e35 d6bd
00000340: a570 4b3d a6cf a4bd 94c0 6dbb 656f f8bc
00000350: 4d13 61bd 4c63 653d 2a50 fdbb 55de 9fbd
00000360: 8217 6f3c 6b9f f1bb 6406 9c3c 8ad7 373d
00000370: cf10 3e3d 0ff3 87bb 2e88 1d39 0946 82bc
00000380: 3798 89bd 45b6 8bbd bdf1 a23b fa1a bebd
00000390: 3a66 203d 560a 38bd 35f8 a73d b6f6 e4b9
000003a0: 340a 833d 2eda 87bd 308a b63c 407f 37bd
000003b0: 7955 3e3d 18ab d0bd 51d0 643d e14c acbc
000003c0: 1977 b2bd bbc7 41bd ed42 813d 5a84 cfbd
000003d0: 28ee a8bd 5af9 08bc 7e87 c3bd 2bcc a9bd
000003e0: 8d8a 81ba 4342 8c3c 672a c2bd 905b f7bc
000003f0: ed9b 0fbe cf7b 37bc 93dc 4f3b 0b34 8c3c
-0.027326295 0.0124362875 0.07946773 -0.04454577 -0.094727 0.03845699 0.036686257 -0.044445366
0.079276286 0.025476467 -0.04280118 -0.043254722 -0.0186362 -0.030101208 0.03803142 -0.018087108
0.05536936 0.004048116 -0.05019111 -0.043929882 0.060284395 0.07803387 -0.07963922 0.0012891794
-0.07656981 0.06443005 -0.017240128 0.05441197 -0.006096548 -0.05300699 0.03667718 -0.04502759
-0.10993312 -0.0811832 -0.03709612 -0.0035685226 -0.035475593 -0.093564875 0.007043279 -0.095819555
-0.07352337 0.028205523 0.046373524 -0.0015603886 0.070512965 -0.056655154 0.009646542 -0.030012956
-0.06771219 -0.09930966 -0.08208952 -0.080037564 -0.041327152 -0.00024233473 0.051483452 -0.04064395
-0.09756568 -0.016360147 -0.03313888 0.026378 0.035270847 -0.028656302 0.0002765802 -0.055103797
-0.027631471 -0.086425476 -0.08502138 0.04068908 0.009566017 0.070788674 0.037792645 0.008701453
0.009501736 -0.00518526 -0.13843516 -0.029175257 -0.016316513 -0.06858097 -0.038541287 -0.00087328965
0.07173025 -0.044359703 -0.04904026 0.04481442 -0.0074146395 -0.041406155 -0.042259276 -0.08378179
-0.036422566 -0.022273233 -0.052496076 -0.043234322 -0.07238819 0.027238525 -0.07309318 -0.086947516
0.008337774 0.07324198 0.01029999 0.026574804 -0.06057195 0.055239227 -0.073077545 -0.0810484
0.018637454 -0.046370678 -0.01228221 -0.04970674 -0.04957096 0.02760566 -0.07484959 0.039176174
-0.09221664 -0.015880987 -0.019796219 -0.025317717 -0.0063890177 -0.010261229 0.0069923718 -0.025735788
-0.050503895 0.0010504593 0.01015074 -0.0025670675 -0.031348795 0.039299745 -0.0979438 -0.013463199
-0.01901198 0.050176036 -0.07716103 -0.03325594 -0.005923623 -0.078107804 0.039404757 -0.080415905
0.019129187 0.049866803 0.05096954 0.0073113833 0.047469907 0.06161944 -0.10377664 0.011805228
-0.06359013 0.05609483 -0.10457958 0.012678765 -0.07975578 0.02986595 -0.05482301 -0.0006589684
-0.06393936 -0.09116835 0.023098176 0.019445466 0.015309566 -0.017862245 0.0008238631 -0.07974453
0.014594099 -0.09391299 -0.039748356 -0.01396831 -0.102759354 0.043300092 -0.089257635 -0.06106862
0.046583712 -0.017276755 0.033569135 -0.070908815 0.022615787 0.036273863 -0.074708745 -0.05842733
0.028237896 -0.00046803674 0.019911978 -0.09106462 -0.07449692 -0.05411046 -0.00016138311 -0.07904818
-0.05559658 0.052373618 -0.07304322 -0.009264901 0.018097699 0.05040826 -0.037683778 0.04878375
-0.10297555 -0.14186616 0.0023244566 0.061105825 -0.00848356 -0.056392495 -0.06900884 0.053698108
-0.058726706 -0.01172702 -0.02982385 -0.045141045 -0.0008532003 -0.029698558 0.04409909 -0.1045941
0.049667973 -0.08047418 -0.0036278116 -0.030326555 -0.054950047 0.0560029 -0.0077305036 -0.07806078
0.014593007 -0.0073737404 0.019046016 0.04488329 0.04640275 -0.004148848 0.00015023418 -0.015902536
-0.06718486 -0.068218745 0.004972665 -0.09282489 0.03915999 -0.044931732 0.082016386 -0.00043671363
0.063984305 -0.06633411 0.02228269 -0.04479909 0.04646823 -0.101888835 0.05586273 -0.021032752
-0.08714122 -0.04730962 0.06311593 -0.10132666 -0.0824855 -0.008360231 -0.095473275 -0.08290895
-0.000988321 0.01712144 -0.09480744 -0.030195028 -0.14024325 -0.011198952 0.0031717166 0.01711466

lstm.weight_ih_l1 f4 [512, 128]
00000000: dfe2 8e3d 6d4a d2bc 8197 b5bd 27fc 68bd
00000010: 0fe7 183c 351a 023d 1e1c e83c 208f 5a3c
00000020: fbfd 813d 086c ad3c 2f3b 473d 4dfa 1a3d
00000030: eec2 b23c 6c9d 83bb f50c a3bd 637d 783c
00000040: 2f2b fd3d 95bd e43b 371d b7bd 68c7 7dbc
00000050: 7c3b e43b a718 13bc 55c1 823c fb70 213d
00000060: 762f 823d 57b7 15bd c29f 173d db7a b73c
00000070: 9966 8dbc 4856 d7bb 6ada 583d 8d7d eabd
00000080: 58e8 0e3d 8c9c 94bd bd38 e13d a87e dcbd
00000090: f1e0 c1bd 7c3b 633b 10b4 d7bc 337f a8bd
000000a0: 541e 033c 43e6 913c b120 303d a883 7b3d
000000b0: 6f99 2c3d d5f2 0e3d 16e3 adbc 0545 c13c
000000c0: 48ef 193d d811 75bd 70f0 45bd 2973 96bc
000000d0: 1b15 373d 08f6 383d 1d64 803d 2af4 5a3d
000000e0: 13bd ad3b dea1 7b3d 63b2 a23d 680a 813d
000000f0: 62ec 02bd 5a08 1dbd 22e6 1c3d 9293 0c3c
00000100: df6b 08bd 0944 3e3c 3da8 a73d 9b0d e339
00000110: 0108 e1bd 07bf f9bc 00bf 2ebc aa62 b33d
00000120: 8bc9 35bd 794b f03d 185c 93bd e6ba b93c
00000130: 6173 c83b b950 a3bd 7cdb 0dbd 587d 9e3c
00000140: 0772 733d 8c07 c8bd 9991 fabc c724 ea3d
00000150: 3039 d33d 2bba ddbd ba5d c9bd 1204 c13d
00000160: cf23 063d 57de 2e3c 5e7e 05bd 1319 413d
00000170: e162 d3bd 7237 5b39 c798 c5bd b741 69bb
00000180: d869 95bd 1150 8fbd 4960 9b3c 07a2 6cbd
00000190: 6a49 a1bc 3e2b 1b3d 018a b6bc 05f6 133d
000001a0: 6266 8d3d 0ea2 6abc edae 64bd 7baa 0ebc
000001b0: 9e54 6d3d 68f2 1c3d 51d0 fc3c 83da 20bd
000001c0: daca c8bd aa32 b43d cf73 b7bc cec0 a13d
000001d0: e8d8 dfbc 34b7 223d abc2 3fbd c606 3a3d
000001e0: 2f7a cfbd 48ab 803c d39f 433d 21d1 48bd
000001f0: 5ba5 72bd 4946 15bd 881e 1abd 12ca 21bd
00000200: 7f85 20bc af8c 6fbd 8f85 bc3d 32bd 5a3d
00000210: 6c6a cb3c 62d1 563d 569e 383d cc98 22bd
00000220: bf45 04bb f39b 7dbd db8a fe3c 2611 9abd
00000230: 9132 cabd 882d 6e3d d1c8 0dbd 20b3 bc3b
00000240: 2ad1 2e3d 84d4 913d 45a7 e9b9 6b99 7abd
00000250: 9151 52bd 17b3 46bd f761 583d c045 84ba
00000260: fd70 a43d 8e30 58bd 79d2 3fbd bc00 6dbd
00000270: 063e ad3d 5e13 e93c 62d3 463d 6205 2abc
00000280: 267a 00bd d92a 18bd 88ff 893c 1908 a6bd
00000290: a086 843c 8aff 583d 51a3 a0bc 59ad aa3c
000002a0: 81fd 82bc 126a bdbd b3d2 833d c559 2fbd
000002b0: 2e31 abbd 8924 fd3c 8282 993d c231 8d3d
000002c0: 1950 b0bc 5898 93bd 97b6 a73c 1aae d63c
000002d0: 0fb7 ae3d 79b1 c7bc cd9f 0f3d 018d 08bc
000002e0: e2ec 013d 2998 72bd 1b66 833d f234 873c
000002f0: e4cd ab3d f8a4 ca3a 1114 943d 9bc4 993b
00000300: dbe3 37bd fff4 97bd 2c60 58bc c039 a33d
00000310: 8612 8c3d 7689 a3bd 3f3e 853c fd28 bf3b
00000320: b8f7 7dbc 998a c93d 9bbc f7bb ace0 c1bc
00000330: cef2 b0bc 42d4 70bc 850c bf3a 8110 b4bc
00000340: 8c6d ca3c 947f 1dbd 5fb4 023d 9425 b83d
00000350: 2668 4dbb d092 69bc fdce 95bd b588 913d
00000360: b821 d43c cc87 38bd 4750 babd 6463 d93c
00000370: e848 36bc 27fe 353d 2308 5fbd c959 523d
00000380: db9f f93c 29ae 73bd 70ad a33d e6f6 1fbb
00000390: 2f61 29bd 4e04 04bd c1c9 a0bd f5b0 6939
000003a0: 51a9 053c 7990 59bd 69d7 4abd bd6b 9a3d
000003b0: 2054 ac3d c38a 51bd 13e1 9d3d 15db 9ebd
000003c0: d337 7cbd a36e a1bd af57 8c3d 0ac9 c33b
000003d0: a0aa a9bc 2808 023d 30d0 7abd a637 89bc
000003e0: 2efe 743d 0bce 1cbd f25b 77bd 1c7d 4fbd
000003f0: bc97 413d 873e aa3d c2eb c6bc cc9b 9a3c
0.06976866 -0.025670255 -0.08866788 -0.056881096 0.009332432 0.031763274 0.02833372 0.013339788
0.06347271 0.021169677 0.048640426 0.03783636 0.021821465 -0.004016569 -0.07961456 0.015166613
0.12361752 0.0069806078 -0.08941119 -0.015489437 0.006965099 -0.008978046 0.015961329 0.039414387
0.06356709 -0.0365518 0.03701759 0.02239745 -0.017260836 -0.006571565 0.05294267 -0.11449728
0.03488955 -0.072564214 0.1099715 -0.10766345 -0.09466732 0.0034672907 -0.026330978 -0.08227386
0.008002836 0.017809993 0.042999927 0.061404854 0.042138513 0.03489955 -0.021226447 0.023592481
0.037581712 -0.05983147 -0.048325002 -0.01836546 0.044697862 0.04515651 0.06269095 0.05345551
0.0053020804 0.061433665 0.07944181 0.06300813 -0.031963713 -0.038338043 0.03830541 0.008580105
-0.033306 0.0116129005 0.08186386 0.0004330695 -0.10987855 -0.030486597 -0.010665655 0.08759053
-0.04438166 0.11733145 -0.071953 0.022672128 0.00611727 -0.07974381 -0.034633145 0.019346878
0.059434917 -0.097670645 -0.030587004 0.11432796 0.10313642 -0.10826524 -0.0983233 0.094246045
0.032748993 0.010673127 -0.032591216 0.047143053 -0.10321594 0.00020906123 -0.096482806 -0.0035592148
-0.07295579 -0.06997693 0.01896681 -0.05777171 -0.019688327 0.037883036 -0.022282602 0.036123294
0.069042936 -0.014320863 -0.055830885 -0.008707638 0.057942025 0.038317114 0.030861052 -0.03927089
-0.09804316 0.08798726 -0.022394089 0.07898103 -0.027325109 0.039725497 -0.04681651 0.045416616
-0.101307265 0.015706673 0.047759842 -0.049027566 -0.059239727 -0.036443982 -0.037626773 -0.03949935
-0.009797453 -0.058483776 0.09205162 0.053403087 0.02483102 0.052445777 0.045072876 -0.0396965
-0.0020183173 -0.061916303 0.03107207 -0.07522802 -0.09872926 0.05814889 -0.03461534 0.005758658
0.042679943 0.07120612 -0.0004456585 -0.061181467 -0.05134732 -0.048510637 0.0528278 -0.0010091588
0.08029363 -0.05278068 -0.04683158 -0.05786203 0.08459096 0.028451618 0.048541434 -0.01037726
-0.03136649 -0.037150238 0.01684548 -0.08107013 0.016177475 0.052978076 -0.019609125 0.020834612
-0.01599002 -0.09248747 0.06436672 -0.04281022 -0.0835899 0.03090121 0.074955955 0.06894256
-0.021522569 -0.07206792 0.020472808 0.026206065 0.085310094 -0.024376618 0.035064507 -0.008334399
0.03172005 -0.059227142 0.064159594 0.016504738 0.0838888 0.0015460541 0.0723039 0.0046926267
-0.044895034 -0.07419776 -0.013206523 0.07969999 0.068394706 -0.07985203 0.016265033 0.0058337436
-0.015500955 0.098408885 -0.0075603253 -0.023666702 -0.021600153 -0.014699044 0.0014575875 -0.021980526
0.02471044 -0.038451746 0.031910297 0.089915425 -0.0031342595 -0.014256194 -0.073148705 0.07106153
0.025894985 -0.04505138 -0.09097343 0.026536651 -0.011125781 0.04443183 -0.05445112 0.051355157
0.030471733 -0.059492264 0.07992065 -0.0024408638 -0.041352447 -0.032230668 -0.078509815 0.00022286533
0.008158044 -0.053116295 -0.049521837 0.07540081 0.08414483 -0.051157724 0.07708945 -0.0775663
-0.061576676 -0.078824304 0.06852662 0.0059748935 -0.020711243 0.03174606 -0.0612337 -0.016750168
0.059812717 -0.038282435 -0.06039042 -0.050656423 0.047263846 0.083127074 -0.02428234 0.018873118

lstm.weight_hh_l1 f4 [512, 128]
00000000: f946 d13a e7e3 d23b f357 84bd bf5c 9a3d
00000010: e585 c63d 476d 8d3d c6d7 3e3c e39b 52bd
00000020: 52b1 c1bd 9a70 4f3c 5e8a e0bc 7146 62bd
00000030: f04a 11bd 64f5 86bc 3aa9 2ebc 6269 3dbd
00000040: 6921 98bc 749b 9abc 11bc 18bd 1049 4a3d
00000050: 3298 acbc b69a 793d 1ca0 723c 105d 7abc
00000060: 690a 523d c3ea 843d 8e17 2fbc d811 cc3d
00000070: d596 49bd 4365 64bd bee5 f83c b74e ab3c
00000080: c7d8 8bbd dccc 61bd 70d6 55bd 394c 6a3d
00000090: c53f 73bd cd33 6a3d 722d bfbd effc e7bc
000000a0: e9a2 53bd d1ba b13a 55e5 523d dce5 83bb
000000b0: baa5 8bbd 99a9 f5bc c7ea e23d 1eb5 1cbd
000000c0: 3c8c f03b 034a 6e3b 5454 283d 7093 303d
000000d0: 22a6 573d 3dca 81bc dd73 463d ace0 8cbd
000000e0: 1ee6 673d 9032 b33b b96f 593d f612 2b3d
000000f0: 939a b13d 1864 95bc d6d5 323d 5bcf f13c
00000100: 8bf7 7fba 58a7 56bd c055 fd3c c5ba b3bc
00000110: 9129 49bd 42a4 353b e3d7 823d c852 dc3b
00000120: 7a6f 873d 1fc8 66bd c565 15bb 2be8 b3bd
00000130: 7ff0 9c3d 33b8 6abc ca67 17bc 66ed a0bd
00000140: 691a 803a 177f d3bd 9e9a 87bd f4df f6bc
00000150: 4c2c b8bd e99f c1bc f369 b3bd 8b43 babd
00000160: df8a 553d 4b11 453d d41e 48bc 65d5 a939
00000170: 8097 4eba 2e2a eebc e629 debd a043 8bbd
00000180: 6cbe 22bd 986b 66bb 147c 883d c7b9 86bc
00000190: 0d32 e1bc bb87 943d 66e8 d3bb 58bb 853d
000001a0: f9a3 1cbd 8c31 c2ba 74ad 323c 9205 69bd
000001b0: 2f5e ad3c a6e5 023d 46c2 9b3c 3903 0cbd
000001c0: fa4d 20bd d442 ec3c 2f80 4ebd b65d 7a3d
000001d0: df91 51bc 15b3 5cbd 23c5 653d d1b8 e83c
000001e0: ca2d babb 670e 2c37 460c 333c d5f2 fcbc
000001f0: 938b f53c 994d 8ebd a67a 43bd da6e 4bbd
00000200: 5d2f b0bd 2fd2 c33d 16ca 8ebb d1b2 713d
00000210: b248 83bc 03b2 503c b5d7 8dbd aab4 f83c
00000220: ff6b e0bd 9dd9 dcbd a377 a23d 0d16 a9bd
00000230: 87d2 813c e28c bcbd 9bc3 e8bd b5d5 253c
00000240: 42a0 c73a 40dc 98bc 2c01 bdbd 2268 b03d
00000250: db44 383d 6571 dcba bd9c 8e3d 2424 e23c
00000260: 24aa 863d 6b76 ad3b 3456 1b3d 4994 a33d
00000270: 8611 7cbd 6407 813d 76e0 053d b492 7ebd
00000280: d768 9cbc d29f 533d 3b4d d53d 1974 8cbd
00000290: 9f07 a9bd 5efe 6ebd 320a 55bc ec24 a9ba
000002a0: 69a3 76bd 68d1 403d 7b1b 29bd 310d 813b
000002b0: 5656 30bd c81f 95bd 950a 823c 9494 f73b
000002c0: 5ea8 793d 425d 67bd 3f35 bdbd 2cdd adbd
000002d0: d6ac bfbb cd32 4bbd f911 8abd 9451 cc3c
000002e0: 6479 73bd 507a 0bbd 7101 6dbc a3fd 703d
000002f0: a3b6 603d 56d5 ae3d da9a 5a3d 42a1 133d
00000300: ae32 923b 24c7 41bd 28b7 7d3d f383 db3c
00000310: 2fcc b93c 42b6 583d b6f6 9ebd d5f9 a83d
00000320: 8c26 e43c 35aa b43c a36f fabc 0a66 21bd
00000330: a979 1cbd 0df6 b83d 89ed 98bc d25c 163d
00000340: bc90 4abd 3c1b c2bd b4b3 f5bc 2674 68ba
00000350: babb 20bd dd68 723d 815d 10bc 18ee 86bc
00000360: ff91 72bb 06f1 073c fdbe 033d 3411 273d
00000370: 88d3 8bbd 010e 833c 6553 60bd 12c2 6d3d
00000380: 11fd 79bb 04d0 ccbc 1551 19bc d71f 913d
00000390: 3308 8f3d c3fe f6bc 7b18 273d 2ffe 353d
000003a0: 3855 94bd 9cd9 c8bc 0f5e 42bd ba43 53bd
000003b0: c86d 7ebb 7856 af3b f36e 46bd a3bd a2bd
000003c0: a72d a1bd 12b1 cd3c 793a b83d 8ee0 c93d
000003d0: dca3 1cbd 4081 4abd 06eb 56bd d20f 7bbd
000003e0: 6a95 3c3c effd 12bd ff9a 95bd cd4b 4abd
000003f0: 9e13 87bd faf8 abbd 7fa4 a6bd 9d04 0abd
0.0015966586 0.0064358595 -0.064620875 0.07537221 0.09693507 0.069056086 0.011648124 -0.051418196
-0.09457649 0.012661124 -0.027409729 -0.05524296 -0.035471857 -0.016474433 -0.010660464 -0.04624308
-0.018570619 -0.018872954 -0.03728873 0.049386084 -0.021068666 0.06093856 0.014808681 -0.015280977
0.05127946 0.0649009 -0.010686768 0.09964341 -0.04921611 -0.055760633 0.030382987 0.020911558
-0.06828456 -0.05512701 -0.052206457 0.057201598 -0.059386987 0.057178307 -0.0933484 -0.02831885
-0.051669035 0.0013559704 0.05148824 -0.004025204 -0.06818719 -0.029988097 0.110799365 -0.038258664
0.007340936 0.0036360032 0.041096047 0.043109357 0.05264867 -0.015843505 0.04845034 -0.0687879
0.05661594 0.005468674 0.053085063 0.04176613 0.08672061 -0.018236205 0.04366096 0.02951782
-0.0009764365 -0.052405685 0.030924678 -0.021939645 -0.049111906 0.0027716313 0.063888334 0.0067237355
0.06613059 -0.056343194 -0.0022796255 -0.08784517 0.076630585 -0.014326143 -0.009241054 -0.0785778
0.0009773496 -0.10326975 -0.06621288 -0.030136086 -0.08992824 -0.023635821 -0.087604426 -0.09094914
0.05213439 0.048112195 -0.012214381 0.00032393183 -0.00078808516 -0.029072847 -0.10847835 -0.06800008
-0.03973238 -0.0035159346 0.06664291 -0.016446007 -0.027489686 0.07252451 -0.006466913 0.065298736
-0.038242314 -0.0014815792 0.010905612 -0.056890078 0.021163074 0.03195729 0.019013535 -0.03418276
-0.039136864 0.02884046 -0.050415214 0.061124526 -0.012791126 -0.053881723 0.056096207 0.02840844
-0.005681728 1.0255352e-05 0.010928219 -0.03087751 0.02997378 -0.06948394 -0.04772439 -0.049666263
-0.08602784 0.09561574 -0.0043575866 0.059008423 -0.016025875 0.012737754 -0.069259085 0.030359585
-0.109580986 -0.10783694 0.07932975 -0.08256159 0.015847458 -0.09206559 -0.11365434 0.0101217525
0.0015230256 -0.01865971 -0.09228739 0.08613612 0.04498754 -0.0016818462 0.06963489 0.027605124
0.065754205 0.0052936575 0.037924007 0.079872675 -0.06154015 0.06300238 0.032684766 -0.062151626
-0.01909296 0.05166609 0.10415121 -0.06858081 -0.08253407 -0.058348052 -0.013002919 -0.001290468
-0.060214434 0.047074705 -0.041285973 0.00393834 -0.043051086 -0.072814524 0.015874187 0.0075555537
0.060951583 -0.056485422 -0.092386715 -0.08489451 -0.005849461 -0.049608994 -0.06741709 0.024941243
-0.05944194 -0.034052193 -0.014465676 0.058835637 0.054861676 0.08536784 0.053370334 0.03604246
0.004461608 -0.047309056 0.06194225 0.026796317 0.02268037 0.05290819 -0.077619 0.08250777
0.027850412 0.022053817 -0.03057081 -0.039403953 -0.03820196 0.090313055 -0.018667953 0.036709614
-0.049454436 -0.09477851 -0.029992916 -0.0008867405 -0.03924153 0.059182037 -0.008811356 -0.016470954
-0.003701329 0.008297211 0.032164562 0.04078789 -0.06827456 0.015997889 -0.05476703 0.058046408
-0.0038145224 -0.025001533 -0.00935771 0.07086151 0.06983986 -0.030150777 0.04079483 0.04443186
-0.07242817 -0.024517827 -0.047452983 -0.05157826 -0.003882276 0.005350884 -0.048445653 -0.079463266
-0.078700356 0.025108848 0.08995528 0.098572835 -0.038242206 -0.04943967 -0.05247023 -0.061294384
0.011510232 -0.0358867 -0.07304954 -0.049388696 -0.065955386 -0.08397098 -0.08136844 -0.033695806

lstm.bias_ih_l1 f4 [512]
00000000: aff2 45bd 3320 6a3d 2b3b 643d 5754 89bd
00000010: 9119 3ebd 5f42 843d 672a b7bd a7b7 34bd
00000020: 2725 0ebd 2e5a 203d 4e05 41bd 9a10 c6bc
00000030: 5fbe 393d 4697 e7bd f97a dbb9 e563 a2bd
00000040: e80f 96bd ae4c dbbd 16a1 bcbc 8dfb 10bd
00000050: c325 fabc 47ba faba 8849 d5bd 042b 543d
00000060: be41 053d 9245 47bd 333f de3b 5a47 373c
00000070: 3c13 efbd e9cc b1bd 7986 373b ef88 8abc
00000080: d7fd 87bd 1ba7 733d a213 343d 6947 933d
00000090: bb89 893c b0d3 b13c 9633 d4bd ebdd d13b
000000a0: f2c2 8f3d 6cab c03b 5168 b7bd 999f 083d
000000b0: d078 5a3d 470f 91bd 5115 63bd 09fd 58bd
000000c0: f8e6 26bd 4998 a53d d75b 923d 6fe3 80bc
000000d0: 7c7e 83b8 5e16 813d 4849 44bd 0e99 ee3c
000000e0: f001 453d aa0d 133d 9599 eabc fdad 37bc
000000f0: 8a66 85bc f0bb 113d 1b72 6ebd 7337 803d
00000100: a0ff 533d 0773 7fbd 624e d33c 9d98 f9bc
00000110: c89b 9a3d 987b bc3d 06a1 213c 9062 96bd
00000120: df12 4d3d de2e 00bd 4800 3d3a c823 90bb
00000130: 4cda d1bd 74c7 823d 7612 20bd 20b6 e63c
00000140: 96e1 4b3d 7d1f 97bd 403f 05bd d4f7 9ebd
00000150: 4342 5c3d 098a dcbd 1434 41bd 70f5 bcbd
00000160: a1ae 8bbd 3c38 bd3d abe4 5fbc 4612 adbd
00000170: 1c6a 0b3d 6fd5 123d 4518 71bd 0990 2cbd
00000180: f03b 853b 581c c3bd ba0b ec3c 8245 9bbc
00000190: e9ed 5e3d 4113 7abd 5ce3 c2bc 3d26 973d
000001a0: cce7 afbd 7743 99bc 0d1f 643c 3595 72bd
000001b0: 6a19 393d e61a a43d 47b3 b7bd 1357 093d
000001c0: d837 91bd f69f 26bd 87cb 63bd 0dbc 493d
000001d0: f60b a6bd 2388 e43b 4c9a b0ba 361a 43bd
000001e0: ce33 1e3d 6fe8 96bd 6211 80bd e714 b1bd
000001f0: 78be 353d ee97 85ba 697b 943b 6327 483c
00000200: a914 4c3d 9572 24bc 07e3 8dbc 6054 193d
00000210: a168 953c 6595 453d 591b 393d d553 d13c
00000220: 66d3 97bb d079 913d 98d2 b8bc cf78 453c
00000230: 3adc ac3c 46b7 693d 93ec c0bd 5b93 9ebc
00000240: 9128 6ebd 3853 50bd f527 80bd 9e0b 9bbd
00000250: 90e9 aabd c39b c6bd ba8c c3bc a945 193d
00000260: 07bd 69bd c02c 873d c607 98bd 9828 ef3c
00000270: 976a 5b3d 239f bebb 5c2a 8bbd d22b 4ebd
00000280: 37a9 e83c b820 4e3d 188a b8bc ce3f abbd
00000290: 7208 233d de9e 263b 6609 423d b2ea 1e3d
000002a0: feb9 413d 2a1e feb9 062b c6bc 9cff dfbd
000002b0: 3de9 2c3d 4b44 f3bb dc4a 2fbd 03b9 7a3d
000002c0: ab34 833d 4c1e 9e3d 2943 32bc 0f22 9ebd
000002d0: 1409 b7bd a20e 80bd 2203 88bd 4df3 80bd
000002e0: 9c5e 743d dc1c 4a3d e4db 9e3c dd50 a0bc
000002f0: bcab 98bd 3673 83bd 3b8f 123d 0298 60bd
00000300: 667c 4f3d b3f7 a8bc 87b1 5bbd 8336 98bc
00000310: f7ed a1bd 7f4b 453d 054c bcbd eac1 85bd
00000320: 39dc a13d ac5b a63d 4ea5 573d 6fa0 45bd
00000330: 756c 7cbd 8eb9 c4bc 0596 aebd 02c7 35bd
00000340: 6cde 573d 6b74 0d3c 9423 a4bd fb6c 603c
00000350: c13a 63bd 201f 523c 8876 273d 4797 183c
00000360: 7eee 01bd a45d 58bc d3b5 833d 49d6 2d3d
00000370: 6930 b2bd be0a 22bc de0b af3a 47a2 43bd
00000380: 8e4b f2bb 1d29 6e3d 6774 b0bd 776a 99bd
00000390: d12b 0cbd f585 f73c d237 aabd e041 a23c
000003a0: 3c1b 5ebd 4d27 d63c 0347 8bbc a323 c8bc
000003b0: 3e47 15bd 6746 88bd 8c74 973c 3d92 9bbd
000003c0: cc5f 01bd 981e f43b 7a28 58bd dcd2 0abc
000003d0: bb80 4f3d fce7 493d 63ca 49bd 15d7 58bd
000003e0: bfae 8dbd 8990 903d bbb4 153d fda4 c7bc
000003f0: 164c ed3c 8737 b63c 7408 c8bd ffef 483b
-0.048327144 0.057159614 0.05572049 -0.0670554 -0.0464111 0.06457972 -0.089436345 -0.044120457
-0.0347034 0.039148502 -0.0471242 -0.024177838 0.045347568 -0.1130815 -0.00041862557 -0.079292096
-0.073272526 -0.10707985 -0.02302603 -0.035396148 -0.030535584 -0.0019129001 -0.104144156 0.051798835
0.0325334 -0.04865033 0.0067824363 0.011186445 -0.116735905 -0.08681662 0.0028003736 -0.016910998
-0.06640213 0.059485536 0.043964036 0.07191355 0.016789308 0.021707386 -0.10361402 0.0064046285
0.07019605 0.00587981 -0.08955444 0.03335533 0.053337872 -0.07082992 -0.05544025 -0.052975688
-0.040747613 0.08085687 0.07146423 -0.015733449 -6.270126e-05 0.06303094 -0.04792145 0.029125717
0.04809755 0.035901703 -0.028637687 -0.011210916 -0.016284246 0.03557962 -0.05821429 0.06260576
0.051757455 -0.062365558 0.025794212 -0.03046828 0.07549244 0.09203261 0.009865051 -0.07343018
0.050066825 -0.031294696 0.000720982 -0.0043987967 -0.10246715 0.06385699 -0.039080106 0.028163016
0.049775682 -0.07379053 -0.032531023 -0.07762113 0.05377413 -0.107685156 -0.047168806 -0.09226501
-0.06820417 0.092392415 -0.013665359 -0.08450751 0.03403674 0.035848077 -0.058861036 -0.04212955
0.004065983 -0.095268905 0.028814185 -0.018954042 0.054426108 -0.06105352 -0.023790054 0.0738034
-0.085891336 -0.018708928 0.013923419 -0.059224326 0.045190252 0.08012943 -0.08969741 0.033530306
-0.070907295 -0.040679894 -0.05561402 0.049251605 -0.0810775 0.0069742366 -0.0013473718 -0.04763242
0.038623624 -0.07368552 -0.062533155 -0.08646565 0.0443711 -0.0010192373 0.004531313 0.012216422
0.04982439 -0.010037084 -0.01732017 0.037433982 0.018238368 0.048238177 0.045192096 0.02555267
-0.004633355 0.07103312 -0.022561356 0.012052729 0.021101106 0.05705955 -0.09420123 -0.019357374
-0.058144156 -0.050860614 -0.06257621 -0.07570575 -0.0834533 -0.09697678 -0.023870815 0.03741995
-0.057065036 0.06600332 -0.07423358 0.029194161 0.05356845 -0.0058173104 -0.06795189 -0.05033476
0.028401 0.05032417 -0.022526786 -0.08361779 0.039802976 0.0025424282 0.047372244 0.03879804
0.047296517 -0.0004846913 -0.024190437 -0.109374255 0.04221462 -0.0074239126 -0.042796 0.061211597
0.0640653 0.077206224 -0.01088027 -0.0772134 -0.089372784 -0.06252791 -0.066412225 -0.06296406
0.05966054 0.04934393 0.019391961 -0.019569809 -0.07454631 -0.06418459 0.035781126 -0.054832466
0.050655745 -0.020625925 -0.0536361 -0.01858068 -0.07906716 0.0481677 -0.09194187 -0.06531127
0.07903332 0.08122954 0.05264788 -0.048248705 -0.06162687 -0.02401426 -0.08524708 -0.04437924
0.052702352 0.008633713 -0.080145985 0.013697858 -0.055475954 0.012824804 0.040884525 0.009313411
-0.031721584 -0.013205919 0.064311646 0.042440686 -0.0870064 -0.009890256 0.0013354977 -0.04776218
-0.0073942607 0.058144677 -0.08615952 -0.0749101 -0.034221474 0.030215243 -0.08311428 0.019806802
-0.05422519 0.026141787 -0.017001634 -0.024431055 -0.036444895 -0.06654053 0.018488191 -0.07596252
-0.0315855 0.007449936 -0.052772976 -0.008473124 0.050659876 0.049293503 -0.049265277 -0.052939493
-0.06918096 0.07058818 0.03654931 -0.024370665 0.028966945 0.022243274 -0.09767237 0.0030660627
