models/NVDA_lstm.pth (torch, 809509 bytes, 9 tensors)

lstm.weight_ih_l0 f4 [512, 5]
000000 7c 1e 3f bd 38 32 d5 bd 47 2d 8e bd d3 98 8d bd
       -0.04665993 -0.10409969 -0.0694223 -0.069139145
000010 6f 57 8f 3b f3 12 1f bd e0 0b 17 3d 2e 29 10 be
       0.0043744366 -0.03883643 0.03687656 -0.14078209
000020 c5 33 d9 bd 51 c7 d1 3c 72 ba 39 bd 1c 80 b4 3d
       -0.106055774 0.025607737 -0.045343824 0.088134974
000030 25 40 12 3c 9d ae b5 bd 08 fa 6a 3d 2b b7 a7 bd
       0.008926426 -0.088711955 0.057367355 -0.081892334
000040 77 18 5b bd fe d0 ae bb af 02 ca 3c 3f 8d 38 3c
       -0.05349013 -0.0053349724 0.024659483 0.011264144
000050 cd 9e 83 bd 83 3e b6 3d a1 64 2b 3d ef c2 e2 bc
       -0.06426773 0.08898642 0.041844014 -0.027680842
000060 8d 86 72 3d c2 c2 e7 bc a7 84 82 3d 5a ca ab 3d
       0.05921035 -0.02829111 0.06372958 0.08388205
000070 cc 2f 84 3d 25 ec e2 3d 8e 10 cc 3c cc b4 ad ba
       0.06454429 0.11080197 0.024910238 -0.0013252734
000080 b2 a0 6a 3b ef 15 39 bc 8c 7b b7 bd fa 9f 62 bd
       0.0035801348 -0.011296733 -0.089591116 -0.055328347
000090 55 a9 a0 bd e2 68 0f bd fa 91 e6 bc 47 0e a6 bd
       -0.078447975 -0.035012133 -0.028145779 -0.08108192
0000a0 05 6d 2c bc da 2f d0 bd 02 37 b2 3c 41 91 6f 3d
       -0.010524039 -0.10165377 0.021754745 0.058488134
0000b0 8c 5b 36 3c c1 e1 1e 3d 07 aa da bc ca 9b 2b 3d
       0.011130225 0.038789514 -0.026692403 0.04189662
0000c0 4d ed 97 bd 27 5c ee bd aa 3b 4a bd 9b d4 5e bd
       -0.074183084 -0.116386704 -0.049373306 -0.054401975
0000d0 14 fc d6 3d 40 a2 33 3d d9 4f 6e bd 82 7a 4b 3d
       0.10497299 0.043855906 -0.058181617 0.04967738
0000e0 0e 9b 35 bd eb e3 26 bd f7 0f fb bc 11 9b 14 3e
       -0.044337325 -0.040744703 -0.030647261 0.14512278
0000f0 a7 9a 64 3d 78 31 a8 bd 15 17 5f bd 5d 50 89 bd
       0.05581155 -0.082125604 -0.054465372 -0.06704781
000100 51 39 05 3d 24 eb 53 bd 45 28 2a bd 68 e1 6a bd
       0.032525364 -0.05173792 -0.04154231 -0.05734387
000110 80 c1 ad 3c 42 b8 a7 3c f2 56 10 bc 8f b5 0a bd
       0.021210432 0.020473603 -0.008809792 -0.033864554
000120 06 ac 84 bd 6d c0 82 bc 73 9e ec bc eb a2 41 3d
       -0.06478123 -0.015960896 -0.028884148 0.04727451
000130 0e 42 20 3d 15 d6 f4 3d 3b cb e6 ba 25 ad 8b bc
       0.039125495 0.119548954 -0.0017608175 -0.017050335
000140 f5 ae d6 bc 71 2b 94 bd 18 06 aa bc 14 3c 47 3c
       -0.026206473 -0.07234848 -0.020754859 0.01216032
000150 bf 8f af bd d2 c0 c6 3c e6 94 3d 3c eb b8 ea bd
       -0.08572339 0.024261866 0.011571145 -0.114610516
000160 8a 77 9c bd ac 83 da 3c 1e c9 10 be 82 99 7a 3d
       -0.07639988 0.026674114 -0.1413922 0.061181553
000170 9a 26 34 bd 16 8f 88 3c 3d be ca 3d 27 6b 80 bd
       -0.043982126 0.016669791 0.09899566 -0.06270438
000180 83 16 c9 3c 48 19 32 be 97 55 23 bd a3 e0 41 bd
       0.024546867 -0.17392457 -0.039876547 -0.04733337
000190 97 fe d9 3c 13 82 a7 bd 53 25 80 3d bc 7e 41 3d
       0.026610656 -0.081791066 0.06257119 0.047240004
0001a0 fd 2d 4a 3d 9e 83 49 3d 02 0d ad 3b eb 4b 0b bd
       0.049360264 0.049197786 0.0052810917 -0.034007948
0001b0 df 3e e1 3d 5b 19 87 3d be f9 de 3d 67 d3 9e bd
       0.1099832 0.06596633 0.10887478 -0.077551655
0001c0 de cb 6f bd db fc 85 bd f8 0b c9 3b f5 55 fc bd
       -0.058544032 -0.06542369 0.00613546 -0.123210825
0001d0 cf 17 f7 bc b4 f6 7d bb 2a cd 87 bd 8a a0 c1 bd
       -0.03016272 -0.0038751783 -0.06630929 -0.094544485
0001e0 59 f8 0a 3e 1d 04 49 bd db 73 c5 3d e8 12 16 3d
       0.135713 -0.04907619 0.09641238 0.036639124
0001f0 90 e0 fd bc 28 89 2c 3c 0d ab 06 be 56 97 93 bd
       -0.030990869 0.0105307475 -0.13151188 -0.072065994
000200 a1 ce 48 bd a5 bf 05 be 62 cc 0b ba 34 fc c3 bc
       -0.04902518 -0.13061388 -0.00053328846 -0.02392397
000210 8d 42 f1 bc fd 3b b3 bd 5c ee 39 bd 31 53 ce bd
       -0.02945068 -0.08751676 -0.045393333 -0.10074461
000220 42 71 4f bd 11 75 b9 bd c0 f1 ca bd 6d 7f 03 3d
       -0.05064512 -0.09055532 -0.099093914 0.032103945
000230 02 c1 d2 3c 77 41 99 bc 71 2e aa bd 10 b5 80 bd
       0.025726799 -0.018707974 -0.08309639 -0.06284535
000240 da ab 36 bd 9b 00 d5 bd c3 f1 b3 bd 59 41 4b bd
       -0.044597484 -0.10400506 -0.08786347 -0.049622867
000250 20 37 03 bd 42 f8 b8 bd 16 cc 85 3d 22 fd 99 bd
       -0.032034993 -0.090317264 0.06533067 -0.075189844
000260 3c a2 a9 bc e9 5b 94 bc 7a 07 b2 3c 21 9e d9 3d
       -0.020707242 -0.018110232 0.02173208 0.10625864
000270 e3 7f c4 bd 13 ad 87 3d 84 29 c2 3c dc e4 c6 bc
       -0.09594705 0.06624808 0.023701437 -0.02427905
000280 bd af 03 3d ea bc 42 bd 3c 46 42 3d 2f c8 22 bd
       0.03215002 -0.047543444 0.047430262 -0.03974169
000290 6c de b3 3d 73 5c 5a bd cc c9 31 bc 1e cc 2b 3d
       0.08782658 -0.053310823 -0.010851335 0.04194271
0002a0 9a c5 14 bd b6 6e 81 3d e9 11 b9 bd dc 12 18 3d
       -0.03632126 0.063199446 -0.09036619 0.03712736
0002b0 c8 a6 a2 bc ba 4c 6e 3d 62 ee 79 bd 11 f8 c8 3d
       -0.019854918 0.05817864 -0.061018355 0.0981294
0002c0 2a 9f f8 39 f4 0f de 3d 07 5d d3 3c 9d 5d 8f 3c
       0.00047420833 0.108428866 0.025801195 0.017500693
0002d0 54 d7 b9 3b 20 15 28 bd 94 0a 6f bc 70 9a 9f 3d
       0.005671421 -0.04103577 -0.014589924 0.077931285
0002e0 aa cb 81 3d ea d6 ed 3d b4 f7 04 bb d4 fc dd 3d
       0.06337674 0.11613257 -0.0020289244 0.10839239
0002f0 fd 1d 1c bd 93 ae 4e bd 32 89 96 3d 25 e9 1b 3d
       -0.038114537 -0.050459456 0.07350387 0.03806414
000300 81 d5 94 bc b5 39 92 3d a9 85 9c 3d 94 f4 64 bd
       -0.018168213 0.07139913 0.07642681 -0.05589731
000310 ec e6 f6 bd 91 c4 6e bd 09 53 54 bc f1 ac 34 bd
       -0.120557636 -0.05829293 -0.01295925 -0.044110242
000320 5d 15 c1 bd 18 e3 54 3d bd 33 9e bd c9 f5 e5 bd
       -0.09427903 0.051974386 -0.07724712 -0.112285204
000330 91 14 c3 bd 74 ae 24 bd 3c 4f 0e 3d a4 08 83 bd
       -0.09525407 -0.040205434 0.034743533 -0.063981324
000340 1a a0 b9 bd cd 17 e9 3c a1 d5 15 bd 05 f4 9e 3d
       -0.0906374 0.028453732 -0.036580686 0.07761387
000350 7c 84 46 3d ff aa 6e bd e7 8b 70 3d 33 17 81 bd
       0.04846619 -0.058268543 0.05872717 -0.06303253
000360 4b 32 83 bd e4 91 b3 3c 0b 9a c8 bd b3 23 8b 3c
       -0.06406077 0.021920152 -0.09795006 0.016984796
000370 b1 f1 de bb ef de e6 bd ab c7 ac bc af a9 78 bd
       -0.006803714 -0.1127299 -0.021091303 -0.060708698
000380 3d 2b 3e 3d f3 f7 45 3d b3 30 93 bc 3f 17 59 bd
       0.046427954 0.048332166 -0.017967558 -0.053000685
000390 ad 57 b8 3d e2 6d c0 bd 3f f3 9b bc c0 e0 54 3c
       0.09001098 -0.093959585 -0.019036887 0.012993038
0003a0 f7 e5 84 3d d4 1e f0 3c 1f 41 e6 3c 74 f1 01 be
       0.06489175 0.029311575 0.028107224 -0.12689763
0003b0 f9 51 8e bc 8a 72 4e bd ee 83 bb 3c e7 97 12 3c
       -0.017373072 -0.0504022 0.022890057 0.008947349
0003c0 47 5a c0 bd 79 83 5d bd a0 56 37 bd 82 d9 84 3b
       -0.09392219 -0.05408046 -0.044760346 0.0040542493
0003d0 29 57 84 bc 66 b0 a7 bc 26 5b a8 bd 92 b4 ba 3d
       -0.016154842 -0.020469856 -0.0822051 0.09116472
0003e0 f1 b6 0e 3d a8 39 c4 3d 3f f9 9f bc ef ec f0 3a
       0.034842435 0.095813096 -0.01952803 0.0018381159
0003f0 69 ca 43 bd 7c 36 89 3d ee b7 8e 3d 95 04 64 bd
       -0.047800455 0.06699845 0.069686756 -0.055668432

lstm.weight_hh_l0 f4 [512, 128]
000000 4d 53 e8 3c 24 09 87 3d ab ab 94 3c 76 84 52 3d
       0.028360033 0.0659354 0.018148264 0.051395856
000010 72 6e 22 3d bc a1 d9 3d ba e8 9f bd 81 64 ae 3d
       0.03965611 0.106265515 -0.07808061 0.08515263
000020 b0 c9 2c 3d 7a 49 cc bd 8b 4a b4 bc 61 e3 c8 bd
       0.04218453 -0.09974952 -0.022008201 -0.09808994
000030 62 d8 2f bd 90 cf 34 bc 70 2a da 3d 38 0e 3a ba
       -0.042930968 -0.011035815 0.106526256 -0.00070974557
000040 50 2c 53 3d ca b3 0b 3d 26 27 94 3b d3 75 6a bd
       0.05155593 0.034107007 0.0045212684 -0.057241272
000050 09 32 43 3d 50 bb ef 3d eb 21 ec 3d 7d 70 72 3d
       0.04765514 0.11705649 0.11529907 0.05918931
000060 86 f6 b9 ba ae e2 b0 3d 13 b8 cf 3d 84 2d a5 3d
       -0.001418785 0.08636986 0.10142531 0.08065322
000070 91 6a 00 3d 99 1a af 3d 62 59 1c ba af 59 05 3e
       0.03135163 0.08549995 -0.0005964247 0.13022493
000080 be f4 f5 3d d6 a9 89 3c 0c e7 95 bc d8 b3 2a bd
       0.120095715 0.016804617 -0.018298648 -0.04167542
000090 13 1d 08 bd 5a 3c 51 b9 e6 97 90 bd d6 ef 1b bc
       -0.033230852 -0.00019954276 -0.07060222 -0.009517631
0000a0 4f 6b 87 3d 28 41 eb bc 39 00 25 3d cc fe 08 3e
       0.06612264 -0.028717592 0.040283415 0.13378447
0000b0 17 ff 97 3b ed 39 ac 3d 5f 36 0d 3b 20 67 47 bb
       0.0046385634 0.08409486 0.00215473 -0.0030426458
0000c0 68 37 31 3b 6f b7 05 be 7b 7f 64 bd 20 c0 60 3d
       0.0027041081 -0.13058256 -0.055785637 0.054870725
0000d0 fc 5e 4c 3c 28 c1 8d bc f1 c0 a5 bd 7d 76 a1 bd
       0.012473818 -0.017304018 -0.08093441 -0.07883928
0000e0 0a 94 0d 3c 41 a6 cf 3d 88 1f 5c 3d 88 a2 a5 3d
       0.008641252 0.10139132 0.053741008 0.08087641
0000f0 ac 9c e3 bc 4e 4e 38 bc 97 5b 19 3c 94 0e 24 bd
       -0.027784668 -0.011249138 0.009360216 -0.040052965
000100 c2 2e 9b bc 22 38 e6 bd 44 b5 e2 bb a4 47 98 bd
       -0.018943194 -0.11241175 -0.006918581 -0.07435539
000110 58 9a 2d 3d d5 f1 90 3d fd 1f ae 3a b3 2e 30 bd
       0.04238352 0.07077376 0.001328468 -0.043013286
000120 ac 7a 64 3c c3 57 5a 3d d8 2b 8b 3a 23 43 7c 3d
       0.013945263 0.053306352 0.0010617925 0.061587464
000130 7f 74 3b 3d 5a cc 26 3d 1d fc 9f 3d 39 a4 98 bc
       0.045765396 0.04072223 0.07811759 -0.018632995
000140 42 e3 92 3d 6e 2b 73 3d 54 a7 b5 3d 77 c0 cc 3d
       0.07172252 0.05936759 0.08869806 0.09997647
000150 e7 33 8f 3d b4 5b fa 3c cc 9c cb 3d d7 b6 83 3d
       0.069923215 0.030561306 0.09942016 0.06431358
000160 4e ad 8d bd 75 14 5c bc 0e a9 8c bc 66 50 63 bd
       -0.06917821 -0.013432612 -0.017170455 -0.055496596
000170 59 f6 56 bc b4 6f 2f bd c8 ab 26 bd a9 11 94 bd
       -0.013120257 -0.042831138 -0.040691167 -0.07229931
000180 78 7b 3d bd 8e 00 85 ba 25 8e 93 bd d8 b7 9a 3d
       -0.046260327 -0.001014726 -0.07204846 0.07554597
000190 22 3f 24 bd 56 07 72 3d 68 71 94 bd 97 5f 0d 3d
       -0.04009927 0.059089027 -0.07248193 0.03451499
0001a0 aa 3c 96 3d 11 52 81 3d 8e 2b 65 bd 45 ff 00 bd
       0.073357895 0.06314481 -0.05594974 -0.031493444
0001b0 36 b7 a8 3d 1a 4c f5 bd ab 15 b4 3d b1 b0 73 bd
       0.0823807 -0.11977406 0.08793195 -0.059494678
0001c0 1e b9 38 bc ee c8 dd bc 23 28 ad bc e8 db 2c 3c
       -0.011274604 -0.02707335 -0.021137303 0.010550477
0001d0 4e bf de 3c 42 ff 88 bd 67 79 42 3d 86 0d b5 3d
       0.02719083 -0.066893116 0.04747906 0.0884047
0001e0 3d 83 d2 3d 90 03 ec 3d bb bd b9 3d bb dc a9 bb
       0.10278938 0.11524117 0.09069391 -0.005183784
0001f0 55 62 c2 3d 4d 96 8e 3c d8 4b 02 3d be f6 26 3c
       0.094914116 0.017405653 0.03181061 0.010190664
000200 16 c0 fa ba dc 26 7d bc 07 de 27 bd 97 dd 6b 3c
       -0.0019130732 -0.015451159 -0.040983226 0.014396093
000210 20 02 3f bd 77 2e c5 3d 06 3a 85 bb 3f fe d1 bb
       -0.046632886 0.09628003 -0.004065755 -0.0064084823
000220 a7 d0 e2 bd 46 c4 5c 3c 6c 71 bd 3c 30 4d f2 bd
       -0.110749535 0.01347453 0.023125373 -0.118311286
000230 7b d1 93 3c 23 84 1a bd 8c 28 f6 3b c6 78 8e 3d
       0.018044224 -0.03772367 0.007512158 0.069566295
000240 db da a7 3b 67 41 82 3c 6f 95 93 3c bd a9 04 3d
       0.005122525 0.015900327 0.018015591 0.032388438
000250 b8 b5 40 bd f1 f8 6e 3d 2e f2 c8 3d 65 83 d8 3b
       -0.0470483 0.058342878 0.09811817 0.0066074603
000260 2c ef 07 3e 4d 73 a0 3d 14 5c 0f bc d0 1e 11 bd
       0.1327483 0.07834492 -0.0087499805 -0.035429776
000270 26 b0 2a 3d a9 91 e3 bc 58 ad bf bd 7d c5 d4 3d
       0.041671894 -0.027779417 -0.093592346 0.103892304
000280 14 62 19 3d 44 04 d3 bd 9b dd be 3d 24 ce 21 bc
       0.03744705 -0.10303548 0.09319612 -0.009875808
000290 66 c0 e1 3c 35 44 cb bc 1d 2c b0 bc 64 5b 29 3d
       0.027557563 -0.024812797 -0.02150541 0.041346923
0002a0 b0 5d 3c 3d 8c 49 50 3d 4f fe ad bd c3 7f c4 3d
       0.045987785 0.05085139 -0.08495771 0.09594681
0002b0 47 56 00 3d e8 04 75 3d 6b 2c 23 3d 64 af 7f 3d
       0.03133228 0.059819132 0.039837282 0.062423125
0002c0 08 fc b4 3d 77 fa 9f 3a cb a7 a2 bd 8c c3 f4 bb
       0.08837134 0.0012205382 -0.0794216 -0.0074696
0002d0 bb 93 90 bd d0 39 fb 3c 72 0a 7e 3c 9c 50 a1 bb
       -0.07059427 0.030667216 0.01550542 -0.0049229395
0002e0 bf 1d 7c 3d e9 1a 85 3d 6a d4 6d bd 1c 4e a2 3c
       0.061551806 0.06499273 -0.058063902 0.019812636
0002f0 37 90 75 3d e8 85 a0 bb ae 36 ab bd da d9 46 bd
       0.059951987 -0.0048987754 -0.08360039 -0.048547603
000300 db 17 26 bd 52 4c 80 3d 94 b5 86 3d 87 bc 49 3d
       -0.040550094 0.06264557 0.06577602 0.04925206
000310 51 c5 7c 3d 77 85 fa bc 6b ac ee bd 4d fb c2 3d
       0.061711613 -0.03058122 -0.1165398 0.09520588
000320 5e 67 85 3d 26 e0 69 3b 64 64 a3 3c 8b e3 53 bd
       0.06513856 0.0035686581 0.01994533 -0.051730674
000330 78 cf ad 3d 14 df cb bd aa 86 73 3d f4 8e 98 bd
       0.08486837 -0.09954658 0.059454598 -0.07449141
000340 73 bd 74 bd 82 d0 8f bc 4b d4 b8 bd 2c a6 4e 3d
       -0.059750985 -0.017555479 -0.09024867 0.050451443
000350 e4 17 c0 3c 66 02 be bb e7 25 46 bd 6c 54 90 bd
       0.023448892 -0.0057986258 -0.04837599 -0.07047352
000360 41 2a c3 bc 99 55 4b 3b 96 c1 f2 bb 34 99 29 3d
       -0.02382386 0.0031026362 -0.007408331 0.04140587
000370 aa 64 20 bd 4e 57 48 3d ef 7e 57 bd 0b 3b ae 3d
       -0.0391585 0.048911385 -0.052611288 0.08507355
000380 b5 9f c3 3c 75 23 77 bd a1 9a 33 3d f2 1e 80 bd
       0.023879865 -0.06033655 0.043848637 -0.06255902
000390 53 a2 57 3d 18 0b 8b bd 26 29 8b bd f9 f9 55 3c
       0.05264504 -0.06789225 -0.06794958 0.013060086
0003a0 d5 71 d0 3d f8 c9 dd 3c 8c 37 29 3c 41 7b d9 bc
       0.10177962 0.027073845 0.010328185 -0.02654803
0003b0 52 b4 d1 3d ef 1d da 3c a6 a2 47 3d ed 01 65 bd
       0.102394715 0.026625602 0.048739098 -0.05591004
0003c0 41 29 54 bd 03 ae 14 bd b8 34 1c 3d af d1 9f bd
       -0.051797155 -0.036298763 0.038136214 -0.07803666
0003d0 1f 25 20 bd b7 ba 5f 3c 29 59 83 3d e5 f3 be 3b
       -0.0390979 0.013655356 0.0641349 0.0058274143
0003e0 a6 3f eb 3d e9 ac af 3d 83 25 ba 3d 67 e8 a7 3c
       0.11486749 0.08577902 0.09089186 0.02049656
0003f0 45 cb 04 3c 8c 68 ad 3c b7 14 0e 3d 11 f5 93 3d
       0.008105104 0.021168016 0.034687724 0.07224477

lstm.bias_ih_l0 f4 [512]
000000 97 04 f8 bc 8e 0a da bd 3b 28 75 3d 67 b9 5b bd
       -0.030275626 -0.106465444 0.05985282 -0.05364361
000010 27 a1 87 bd b1 8c 95 3c 2f 1d a6 bc 69 be 79 3c
       -0.06622534 0.018255563 -0.020277588 0.015243151
000020 dc e3 7e 3b b7 1e 40 3d 6c 23 9a bd 50 b6 1f bd
       0.003889314 0.046904292 -0.075262874 -0.038992226
000030 84 12 56 bd f2 fb 0f 3c b4 f1 fc bc 49 cb 01 bd
       -0.05226375 0.008788096 -0.030876972 -0.03168801
000040 b3 fc 78 bd 9e b2 c2 bc e6 fb bf 3d 75 1c c3 bd
       -0.060787868 -0.023766812 0.09374218 -0.09526912
000050 0b e7 33 3d 1d 8f 9c bd 14 58 77 3d 71 15 e1 bd
       0.04392151 -0.07644484 0.060386732 -0.10990418
000060 47 d2 d4 3d 55 f6 af 3b 7e 74 9e 3c 46 d1 10 3c
       0.1039167 0.0053699412 0.019342657 0.008838957
000070 45 bf b1 bd 21 6d 5b bd bf 5b ea bc c7 90 7c bd
       -0.0867906 -0.05357087 -0.028608201 -0.061661508
000080 82 28 54 bd d6 7a bf 3c 84 78 58 bd 79 b4 3c bc
       -0.051796444 0.023374002 -0.052849308 -0.011517637
000090 db 6e 12 bd 47 de 62 3d 02 82 b2 3c 50 76 13 be
       -0.03575025 0.05538776 0.021790508 -0.14400601
0000a0 e3 b9 3e bd bb cc d7 bd b0 6e 41 3d 95 00 1f 3d
       -0.046563994 -0.10537096 0.0472247 0.038818914
0000b0 ec 65 f5 bd c5 ea 8c bd e9 b3 c5 bd 1d 6d 31 3d
       -0.11982331 -0.06880716 -0.09653456 0.04331695
0000c0 0e 17 45 bd 0b 68 fa 3a 0d 82 5b bd b0 30 b5 bd
       -0.04811769 0.0019104494 -0.053590823 -0.08847177
0000d0 e3 82 5b 3a 21 a1 a2 bd de d3 d8 bc 14 cb 8c bb
       0.00083736907 -0.07940889 -0.026468214 -0.0042966697
0000e0 9f a1 cb 3d 3a 4b 90 3b f3 b4 5c 3d fb 6b a1 bd
       0.09942936 0.004403499 0.053883504 -0.07881924
0000f0 97 9e 6a bd 2b 4a 87 3d f1 18 e1 bd 88 f3 f8 bd
       -0.05728015 0.06605943 -0.10991085 -0.12155825
000100 f5 a9 17 bd ba 3f d6 bc 68 35 23 3d 91 80 1e 3d
       -0.037027318 -0.026153434 0.039845854 0.03869683
000110 35 15 82 3c 80 bc 76 bd 83 21 91 bc d8 1e c0 bc
       0.015879253 -0.06023836 -0.017716175 -0.023452207
000120 28 0d 85 bb 67 d6 e3 bc 71 56 9c bd 02 0f a1 bd
       -0.0040604062 -0.027812196 -0.07633675 -0.07864191
000130 b6 59 97 bc cb 13 8c bd e1 d6 50 bd 04 1b 98 3d
       -0.018475395 -0.06839713 -0.050986174 0.07427028
000140 b9 ca d6 3c 9d 38 15 bd af fe c4 3c 7d 94 a2 bd
       0.026219713 -0.036430944 0.024047224 -0.07938478
000150 91 7d 14 bd 34 f3 1d 3d 6e 56 4d bd 13 0d e6 3b
       -0.036252562 0.038562015 -0.050131254 0.0070206015
000160 54 a5 58 bd 36 13 54 3c e3 88 c0 3c 07 34 25 bd
       -0.052892044 0.012944033 0.023502773 -0.04033282
000170 78 6d b0 bd 8d 3a 11 3b ef b2 40 3d 48 cc 93 3b
       -0.086146295 0.0022160143 0.047045644 0.004510436
000180 df 2d b6 bd 26 4f 59 3d dd a6 09 bd 5b 24 cf 39
       -0.08895468 0.053053997 -0.0336064 0.00039509204
000190 a7 84 31 bd 19 f4 2b bd 47 fa d7 bd 32 12 fa bc
       -0.043339398 -0.041980837 -0.105457835 -0.030526254
0001a0 08 86 24 3d 66 ff 35 bd 3a e7 40 bd dd 64 88 bd
       0.040166885 -0.04443302 -0.047095515 -0.06659863
0001b0 0b 38 a9 3d 0d 78 26 3d 0f e1 5a bd bd cd 0c bd
       0.082626425 0.040641833 -0.05343729 -0.034375895
0001c0 8f d5 c7 bd 9a 27 8a bb c3 b4 ca 3b c6 14 cd bd
       -0.0975753 -0.0042161467 0.0061860993 -0.10013728
0001d0 56 85 e2 bc 34 56 96 3d 46 70 81 3d fe 9e 41 3d
       -0.02765147 0.07340661 0.063202426 0.047270767
0001e0 4f 76 be 3c cb 87 94 bd 64 81 0c bd 37 29 e0 bc
       0.023249773 -0.07252463 -0.034303084 -0.027363403
0001f0 61 91 17 3c cd f0 88 3d 96 ff 1a bd 03 8e 6a bc
       0.00925097 0.06686554 -0.037841402 -0.014316085
000200 75 4f b1 3c d8 1b 18 3d 56 87 63 bd c9 a6 12 3d
       0.021644333 0.03713593 -0.05554899 0.03580359
000210 2d 7a ad bd 9c 27 2c bd 92 00 e4 3c 36 34 97 bd
       -0.08470569 -0.042029962 0.027832303 -0.07383005
000220 18 cc 91 3c c8 47 a8 bd b1 e2 b0 bd 0e e7 c0 3d
       0.017797515 -0.08216816 -0.08636988 0.0941907
000230 b2 d4 61 bd 49 1d 1e bd 02 99 bd 3c de 11 35 bc
       -0.055134483 -0.038602147 0.023144249 -0.011051623
000240 dd ee 42 bd 54 43 91 bd f6 08 60 3d b0 e8 e3 bd
       -0.04759108 -0.0709292 0.054696046 -0.11128366
000250 91 1a 87 bb 55 35 8f bd d9 23 d0 bd 56 3c c8 3c
       -0.00412304 -0.06992594 -0.101630874 0.024442833
000260 da 90 8e 3d bd dd ca bd 87 ab bf bd 84 8d 28 3d
       0.06961222 -0.099055745 -0.09358888 0.041150585
000270 5d 74 e0 bb 45 3b 93 bd 92 e1 bf bd 7f 37 3b bd
       -0.006849809 -0.07189039 -0.09369196 -0.045707222
000280 d2 99 a9 3b 43 e2 8e 3c b6 8b 1b bc cc 1f ec 3b
       0.0051758075 0.017441874 -0.009493759 0.007205939
000290 19 19 80 bd 37 c5 45 3c 5c b3 75 bd 0e d9 91 bd
       -0.06254787 0.012070945 -0.059985504 -0.07121478
0002a0 1d 48 88 bd 8c 26 fd 3b 44 d1 b3 bd 6e c3 04 bd
       -0.066543795 0.0077255424 -0.087801486 -0.03241294
0002b0 0e 8c 91 bd 6d 61 3f 3d 11 d5 ff bd 94 19 76 bd
       -0.071067914 0.04672377 -0.12491811 -0.060082987
0002c0 3c ab 9b bd 46 2d 1f 3d 72 ae e0 bc f4 33 87 bd
       -0.0760102 0.038861535 -0.027426932 -0.06601706
0002d0 24 02 90 bd 68 c0 5e 3d 34 09 bf bd 68 ae b3 bd
       -0.07031658 0.05438271 -0.09327927 -0.087735
0002e0 3b 3b 87 3c 68 66 cf 3c dd d2 5a bd b2 0c 8b bb
       0.016507735 0.025317386 -0.05342375 -0.0042434568
0002f0 72 05 fa bd b2 18 a8 bd 92 95 6d bc 0f b0 93 3c
       -0.1220807 -0.08207835 -0.014500992 0.018028287
000300 36 e7 49 3d 00 bd 8f bd 1d 0a 39 3c 5f 1d ca bd
       0.049292766 -0.07018471 0.011293915 -0.09868883
000310 4a 32 cb bd c2 d5 d3 bd fb 31 ab 3c 2a 54 95 bd
       -0.09921701 -0.103435054 0.020897856 -0.07291444
000320 6d 4b fb bb 8b 04 99 bd 98 b4 ea 3b 1b 75 3f 3d
       -0.0076689036 -0.0747157 0.0071626417 0.04674254
000330 85 d6 78 3d 4d 41 e1 bc b9 60 e9 3c 03 97 0b 3d
       0.060751457 -0.027496958 0.028488504 0.034079563
000340 30 da 9d bd 17 d5 91 bd 27 8b 10 3d 8b 57 3d 3d
       -0.077076316 -0.07120722 0.035288956 0.046226066
000350 06 59 8e bd d8 23 cf bd 2c c3 c1 3c 9c b5 0f bd
       -0.069505736 -0.101142585 0.023652636 -0.035085306
000360 56 b8 a9 bd a2 6b 1a 3c 69 35 be bd 06 44 2a bc
       -0.082871124 0.009425076 -0.09287531 -0.010392195
000370 a6 bb fc bd 24 47 9c 3c 94 ea c1 bc bf 1a d3 3c
       -0.123404786 0.019076891 -0.023671426 0.02576959
000380 06 f3 cb bd 7e 8a 37 3d 52 8d 95 3d 44 08 65 3d
       -0.099584624 0.04480981 0.07302345 0.055916086
000390 81 5b 9a bd 74 c8 01 3d 68 2c 06 bc 7d fe 15 bd
       -0.07536984 0.031685308 -0.008189298 -0.036619652
0003a0 5f 6f 96 3c 92 38 93 bd 2d fe 03 be 2a ae 21 bd
       0.018363653 -0.07188524 -0.12889929 -0.039472736
0003b0 b9 6d 02 bd 0d 55 57 3d 1b 64 4f bd 06 51 d5 bc
       -0.03184292 0.052571345 -0.050632577 -0.026039612
0003c0 52 89 88 bd fb 0c 2f 3d c8 e8 8a 3d 6f a8 89 bd
       -0.06666817 0.04273699 0.06782681 -0.06721579
0003d0 bb 8f 8c 3d c6 49 52 bd ff ec 8a bd 92 ef 68 ba
       0.06863352 -0.051339887 -0.06783485 -0.00088857964
0003e0 b9 b0 bc 3c 9c 1a 83 3d b3 4a c7 3c 73 a4 e3 3c
       0.023033487 0.0640156 0.024327612 0.027788376
0003f0 29 c6 af bd e0 9b 93 bd 61 6c ea bd 48 04 70 3d
       -0.08582718 -0.07207465 -0.11446453 0.058597833

lstm.bias_hh_l0 f4 [512]
000000 0b db 32 bd f7 bd 6a bd 87 57 68 bd c7 89 51 bc
       -0.043665927 -0.05731007 -0.056724098 -0.012789196
000010 df 2d 83 bc c3 62 6b bd 2f ce c2 3c fe 7e 2b bc
       -0.016013084 -0.057467233 0.023779957 -0.010467289
000020 90 9f c2 bd ec 36 bc bc 84 ca 8e bd 82 f1 48 bd
       -0.095030904 -0.022975408 -0.069722205 -0.049058445
000030 85 50 75 bd 25 5a 33 3c 60 c1 66 3d 69 a6 b7 bd
       -0.059891243 0.010946785 0.05633676 -0.08967287
000040 66 97 9d bd 5a 4c c0 bd 5a b2 b0 bc 0d 45 21 bd
       -0.076948926 -0.09389563 -0.02156942 -0.039372493
000050 8f 59 b4 3d 61 d6 54 bd 0d dc 7e 3c 4a 3d a8 3c
       0.088061444 -0.05196226 0.015555394 0.020537037
000060 39 51 a6 3d 90 ec 16 be 55 fc ca bd e4 f2 19 bd
       0.08120961 -0.14738679 -0.0991141 -0.037585154
000070 21 2b 4c 3d 8a 57 d6 bc 90 0a 5f bd 2b 59 7c bd
       0.04984582 -0.026164789 -0.054453433 -0.061608475
000080 e7 41 9e bd 96 47 09 3d 00 f7 2b bd 84 b6 01 3c
       -0.077274136 0.033515535 -0.041983604 0.00791705
000090 0e 03 73 3c bf 15 0c bb dc a7 79 3b 82 74 07 be
       0.014832271 -0.0021375266 0.0038094437 -0.13228038
0000a0 6d d9 57 3d 83 17 ee 3c 30 2b 90 bd d2 36 8a 3d
       0.052697588 0.029063946 -0.07039487 0.067487374
0000b0 a3 3a d3 bd 83 9d 80 bc f5 ff f4 bc a4 4c 54 39
       -0.103139184 -0.015700107 -0.029907206 0.00020246446
0000c0 82 a8 46 3c 48 4a 7a 3d bd 31 d7 3a 57 ec 30 3d
       0.012125136 0.061105996 0.0016418021 0.04319414
0000d0 9b ff 9b bd 87 e0 72 3d c6 e5 1f 3b c1 cf 87 bd
       -0.07617112 0.059296157 0.002439843 -0.06631423
0000e0 46 e8 77 bc da 81 aa 3d ca 5e b9 bd 25 cd 02 bb
       -0.015131062 0.083255485 -0.09051283 -0.0019958701
0000f0 56 8d 94 bd d3 7a 78 3d e4 a9 4b bc 8c d8 b0 bc
       -0.0725352 0.06066401 -0.012430642 -0.021587633
000100 1d b6 51 bd 38 9e c1 bd f1 29 b0 3d e1 5d b5 bd
       -0.051199067 -0.09454006 0.0860175 -0.088557966
000110 24 b1 81 3d e1 14 1a bd 22 60 51 bc ec 13 bf bd
       0.06332615 -0.037617568 -0.0127792675 -0.09329972
000120 e4 8d d8 bd 3c d8 9e bd 4b c1 94 3d 96 25 7a 3c
       -0.105739385 -0.07756087 0.0726343 0.01526775
000130 f1 74 83 3d 51 4f 91 bd b0 3f 99 bb 6e 8a 9b 3d
       0.06418789 -0.070952065 -0.0046767816 0.07594763
000140 92 3a da bd d9 fc 33 3d 75 c1 5a bd aa 79 7e bd
       -0.10655703 0.043942306 -0.05340715 -0.062127747
000150 a2 2e 27 3c 51 86 d4 3c 48 28 5f bd 24 00 b7 bd
       0.010203989 0.025942953 -0.054481775 -0.08935574
000160 f8 09 0f bd 89 50 b0 3c ef 29 44 3d ba 56 b3 bd
       -0.034921616 0.021522777 0.047891553 -0.08756776
000170 82 61 8a bc 92 be db bc 8b 86 85 bd 31 04 31 bc
       -0.016892198 -0.02682427 -0.06519803 -0.010804222
000180 75 c1 46 3d 20 a1 8e bd c5 4b 48 3d 44 78 ef bd
       0.04852434 -0.06964326 0.048900384 -0.11692861
000190 b1 fa 75 bc 25 a3 76 bd 72 26 97 bd 39 e5 96 bd
       -0.015013383 -0.06021418 -0.0738038 -0.073679395
0001a0 78 10 6a 3d 09 87 ae 3c 8a 70 06 bd be f7 a8 bc
       0.057144612 0.021304624 -0.03282217 -0.020625945
0001b0 59 2b 2d bd 28 a6 2a bd ef 40 08 bd 25 d0 f5 3b
       -0.042277668 -0.041662365 -0.03326505 0.0075016194
0001c0 5d 15 1e 3d 43 70 97 bc 8a 58 94 bd 28 01 e9 bd
       0.038594592 -0.018486148 -0.0724345 -0.11377174
0001d0 05 66 68 3c 94 2f 9d bd ac e1 d1 3c 78 fd 35 bd
       0.01418448 -0.076750904 0.025620304 -0.04443118
0001e0 e7 e3 5d 3d 69 6e 09 bd 3f 4d c0 bc ff 7f c1 bc
       0.054172423 -0.03355256 -0.023474334 -0.023620604
0001f0 06 42 3e 3d 14 d3 39 3b 54 da 44 3d 0c 75 86 3d
       0.046449684 0.0028354572 0.048059776 0.06565294
000200 d6 10 af 3c 54 f0 c1 bd 43 2b 9b 3d 77 ed 6c 3d
       0.021370333 -0.09469667 0.07576611 0.05784365
000210 41 f3 97 3d 7c 59 2f 3d 94 07 8d bd 6e 0c f4 3b
       0.07419444 0.04280995 -0.06886211 0.007447771
000220 87 28 6e bd 7a 8c b4 bc 7f d8 be bd 0c 1b 57 3d
       -0.05814412 -0.02203964 -0.09318637 0.05251603
000230 d3 0f 22 bb 37 ba c9 bc f8 12 9e bc 52 35 20 3d
       -0.002472867 -0.024624927 -0.019296154 0.03911335
000240 88 de ec bd 18 2c fa bd a5 7d f4 3b 41 ab 71 bd
       -0.11565882 -0.122154415 0.007461267 -0.05900121
000250 97 6c 7f 3c 90 82 3c bd f2 e1 1d bd bc 90 bf 38
       0.015589855 -0.04602295 -0.038545556 9.1345486e-05
000260 f3 bd 1e bd b8 eb 64 bd 76 08 68 bd 31 e2 bc bd
       -0.03875537 -0.05588886 -0.056648694 -0.0922283
000270 f4 85 18 3d 61 75 68 bd 5c a1 ac bb 06 ea c0 bc
       0.037237123 -0.056752566 -0.005268259 -0.023549091
000280 40 b1 73 bd 58 2b 3d bd 78 9d 6a 3d 46 7f 9d 3c
       -0.05949521 -0.046183914 0.05727908 0.019225728
000290 13 42 53 bc 3f 20 59 bb f7 59 ce bd 0f bc 05 be
       -0.012894171 -0.0033130792 -0.10075753 -0.1306002
0002a0 37 d4 a3 bd b6 95 d9 3c 86 78 94 bd 7d 79 f5 ba
       -0.07999461 0.026560646 -0.072495505 -0.0018728223
0002b0 5d 98 76 3c 01 0a 3d 3d 9a df 01 be 3e d5 0f bd
       0.015050975 0.04615212 -0.12682953 -0.035115473
0002c0 40 ec 07 bd 56 41 39 bc ab 92 3d bc a1 4c dd 3c
       -0.03318429 -0.011307081 -0.011570613 0.027014079
0002d0 60 f9 a5 bd e8 cc 0c 3d 7c 22 29 3b f4 ff 90 bd
       -0.08104205 0.0343751 0.0025807908 -0.07080069
0002e0 43 4b af bc 0f df 40 bd 13 22 7d 3c f9 74 a6 bd
       -0.021398192 -0.047087725 0.015450018 -0.081277795
0002f0 10 f7 28 be 96 0c bf bc a3 be 4b 3d e3 5f b3 3c
       -0.16500497 -0.023321431 0.049742352 0.021896308
000300 7a f6 6e bd 6d 7a 95 bd c5 92 71 bd 1a bb a3 3c
       -0.058340527 -0.072987415 -0.05897786 0.019986678
000310 fe 52 8b bd 55 1b 1b be fe fc 9c bd a8 36 37 3d
       -0.06802939 -0.15147145 -0.07665442 0.04472986
000320 0e 74 f2 bd d1 42 b6 bd b5 03 8a 3c 9b 9f 7a 3d
       -0.11838542 -0.08899463 0.01684747 0.061187368
000330 12 d8 fb 3c de 4b f2 3b d7 05 bd 3b 7f 6e f7 bb
       0.030742679 0.007394298 0.0057685184 -0.007551014
000340 37 29 74 bd a9 34 c5 bd bd f2 b3 bd ee b2 a4 3c
       -0.059609618 -0.09629185 -0.08786533 0.020104852
000350 0e 2e 04 3d 8a c4 de bd 88 a3 d7 bc 1d bb d2 bd
       0.032270484 -0.108773306 -0.026323095 -0.10289595
000360 95 5c 42 bd 33 3a 06 3c c0 ab 41 3d 3a 36 e5 b7
       -0.047451574 0.008192587 0.047282934 -2.7324179e-05
000370 e7 e8 e4 bb 84 9d b4 bd 6b 72 12 bc 79 3a cb 3c
       -0.006985772 -0.08819106 -0.008938412 0.024808155
000380 3d 4a 38 bc 41 e2 d2 3c 42 66 a9 bd 0b ee 8f 3c
       -0.011248169 0.025742652 -0.08271457 0.017569562
000390 97 47 02 3c dc 8e bb bc 5a 65 11 3d d1 a4 24 b9
       0.007951639 -0.02289527 0.035497047 -0.00015701658
0003a0 2c 36 8e bd 6f 9a 28 3b 4d 07 3f bc e4 d3 93 bd
       -0.06943926 0.0025726815 -0.0116594555 -0.07218149
0003b0 f6 da e6 3c a7 2b 53 3d 8b 30 4e bc 0b d4 6e 3d
       0.02818058 0.051555302 -0.012584816 0.05830769
0003c0 26 88 21 bd b4 b6 3f 3b 1f 74 40 3b b1 6b 2d bd
       -0.039436482 0.0029253187 0.0029366089 -0.04233903
0003d0 e7 d4 fc bc 31 f5 92 3d 6b 4b 23 bd e0 6f e4 bc
       -0.030863238 0.07175673 -0.039866846 -0.027885377
0003e0 db 3c 0d bc 24 c5 bc bd fa 93 8b 3c 7e e5 6e bd
       -0.008620466 -0.09217289 0.017038334 -0.05832433
0003f0 4d 8a 7f bd 58 23 ab 3c b3 a8 cb 3c ae ac a8 bd
       -0.062387753 0.020890877 0.024860715 -0.08236061

lstm.weight_ih_l1 f4 [512, 128]
000000 dc ff 87 3d cd f9 9f 3d f4 e7 85 bd fc 92 87 bd
       0.06640598 0.078113176 -0.06538382 -0.06619832
000010 be f1 b8 bd a6 d5 91 bd 03 ea 88 3c 37 c8 15 3d
       -0.09030484 -0.07120828 0.016713148 0.036567893
000020 b4 df 43 bc 57 fe cd 3c f9 f9 5a bd 59 97 98 3d
       -0.01195519 0.025145693 -0.05346105 0.07450742
000030 da 72 db bc 7b 2d 79 3c fb b1 87 3d e2 31 63 3d
       -0.026788164 0.015208597 0.06625744 0.055467494
000040 72 1f 32 bd 6f 86 0c 3d 53 1a d5 bc 28 d8 40 3c
       -0.04348702 0.034307893 -0.026013529 0.011770286
000050 ca 5e f6 3c b2 c2 b7 bc 96 dd b8 3d 0a d0 af bd
       0.030074496 -0.022431705 0.09026639 -0.08584602
000060 bd 7b bc 3d b7 59 08 bc e9 bc 83 bc 8a f5 6d bc
       0.09203289 -0.008322171 -0.01608129 -0.014523873
000070 26 2c 7a ba fd 7b 87 bd ee 05 87 3d 49 2b 4d 3d
       -0.0009543322 -0.06615446 0.06592928 0.050090108
000080 c0 44 c8 3d a1 e1 a8 3a 42 56 98 bd 59 db d6 3d
       0.09778738 0.0012884625 -0.07438327 0.10491056
000090 14 af e3 3c 2c f0 d5 3d 00 8e 29 bd b5 7d 26 3b
       0.027793445 0.104462 -0.041395187 0.0025404517
0000a0 54 6e bd bd 8d 3f d7 3c 0c 02 d6 bd 70 ed ca bc
       -0.09249559 0.02627542 -0.10449609 -0.024771422
0000b0 c0 4d 53 3d ca 8e 48 3d 17 16 b7 bd a1 60 a6 3c
       0.05158782 0.0489643 -0.0893976 0.020309748
0000c0 ae 14 78 bd ed 3c 17 bc e1 92 70 bd 90 c9 9f bd
       -0.060566597 -0.009230834 -0.058733825 -0.07802117
0000d0 11 ac bf bd 8c b3 0a 3d 04 c0 66 bd c3 8f 6c 3d
       -0.09358991 0.033862635 -0.056335464 0.05775429
0000e0 ba 57 c3 3d 51 19 54 bd 4d 19 cd bc 12 b1 65 bc
       0.09538217 -0.051781956 -0.025036478 -0.014019268
0000f0 a2 a4 6b 3a c9 eb 0c bd b7 3d d3 bd 8d 57 26 bd
       0.0008989071 -0.03440455 -0.103145055 -0.04061084
000100 e6 8b 0a bc 43 64 c5 bd b1 a2 38 bb e8 67 be bb
       -0.008456206 -0.09638264 -0.0028173144 -0.0058107264
000110 ba 02 af bd d7 8c fa bc dc c0 a7 bc 1c 9a b8 3d
       -0.08545442 -0.030584736 -0.020477705 0.09013769
000120 07 83 9a 3d 33 4a c4 bc d8 ae 97 bd 4f bb 68 3d
       0.07544523 -0.023961162 -0.07406396 0.056819256
000130 76 9b 14 3d ad 89 cf 3c 34 ef aa bd 3c 05 aa bd
       0.03628107 0.025334204 -0.083464056 -0.0830178
000140 0d 48 5b 3d 3a 40 52 3d 19 97 92 bd df 88 84 3d
       0.05353551 0.051330782 -0.07157726 0.064714186
000150 fa e2 1f bd 0a 69 88 bd d4 5d b4 bc ab f5 0a bd
       -0.03903482 -0.066606596 -0.022017397 -0.033925693
000160 12 48 4a 3d c7 f4 2a 3d cc d5 3b 3d 21 35 4f 3d
       0.049385138 0.041737344 0.04585819 0.050587777
000170 f4 0d 94 bb 15 33 a1 ba 22 5c 44 3d 1c 65 e5 3d
       -0.004518265 -0.0012298549 0.047939427 0.11200926
000180 92 fb 7d bd c1 11 8b 3c f5 d9 7e bd 69 1f 9d bc
       -0.062007494 0.01697624 -0.06221958 -0.019180017
000190 96 99 8b 3d e0 9e 94 bd 16 4e 00 3c 1f 9a f0 3c
       0.068164036 -0.072568655 0.007831117 0.029370366
0001a0 42 3a c8 3d 38 f9 0f bd 61 c4 52 bc eb 1e 30 bd
       0.09776737 -0.035149783 -0.012864203 -0.042998236
0001b0 48 67 b3 3c d7 5b e7 bd 44 b2 77 3d 89 4b 45 3c
       0.021899834 -0.11296814 0.06047274 0.012041935
0001c0 e0 04 ab 3d dc 6a 93 3c 96 90 9a bd 56 65 d6 bd
       0.08350539 0.01799529 -0.07547109 -0.10468547
0001d0 d7 c3 92 bd 8f f9 d5 b9 83 8c 02 3c 98 71 7e 3d
       -0.0716626 -0.00040812462 0.007968071 0.06212005
0001e0 c7 dc e3 3c 4b af c9 3d 79 84 d9 3d 55 b3 fc bb
       0.027815236 0.098478876 0.1062097 -0.0077118077
0001f0 8e ac f3 bb 67 e3 88 3c bc c3 c1 3d 65 99 ef bc
       -0.0074363416 0.016709996 0.094611615 -0.029247949
000200 36 0f 58 3d 0f c8 c6 3d 17 e1 4a 3d 15 89 4c bc
       0.05274888 0.09706127 0.04953107 -0.012483855
000210 a5 a2 4a bc 3f 99 0c bd 9b 69 43 bd c4 2f 89 3d
       -0.012367879 -0.034325834 -0.047708135 0.06698564
000220 06 c5 83 3d 4a 85 61 bd a5 3e 95 3d c9 9e b0 3c
       0.064340636 -0.055058755 0.07287339 0.02156009
000230 65 54 94 bc 77 85 81 3a c2 65 09 bc 0a d4 77 3d
       -0.018106649 0.0009881695 -0.008386077 0.06050495
000240 a0 22 6d 3d 40 23 5f bd 37 48 d3 bd c9 91 db bb
       0.05789435 -0.054476976 -0.10316508 -0.0067007286
000250 05 d0 14 bd 85 43 87 bd e4 75 59 bd d3 a3 7a bd
       -0.036331195 -0.06604675 -0.053090945 -0.06119139
000260 ab 27 42 bd ef 8f b2 bd 66 ed 96 bd df 5c a8 3d
       -0.04740111 -0.087188594 -0.07369499 0.08220839
000270 e2 6f 52 3d 75 66 fb 3c 63 07 17 3d 36 a4 12 3d
       0.05137623 0.030688504 0.03687228 0.035801135
000280 3c 00 3c 3c 75 24 42 3d ae 17 e3 3c c0 46 a2 ba
       0.011474665 0.04739805 0.027721252 -0.0012380704
000290 bf df be 3d 8c 00 85 bc 63 9b 89 3c 83 c8 9b bd
       0.0932002 -0.016235612 0.016797727 -0.07606604
0002a0 88 e5 cb bb db 9f 03 3d e9 02 2e bd 04 bf 75 3d
       -0.0062224306 0.032134872 -0.042483244 0.05999662
0002b0 bc fa b1 3d 84 92 98 bd f5 6b 5f 3d 80 d3 98 bd
       0.08690402 -0.07449821 0.054546315 -0.074622154
0002c0 12 8b e3 bd 69 2d 1d 3d 8a 3a 12 3a 0b 1e 52 bd
       -0.1111051 0.038373385 0.0005578181 -0.051298182
0002d0 f1 93 b6 3c f9 6d 51 3d 7d 0c a7 bd d3 ff 58 bd
       0.02228734 0.05113027 -0.08156679 -0.052978348
0002e0 c1 29 50 3d 13 3d af 3d fe d8 87 3d 1b c9 d8 3d
       0.05082107 0.08556571 0.06633185 0.10585233
0002f0 5b f6 55 3d 78 ea 2d bd 89 3e 43 3d 50 63 15 3d
       0.052236896 -0.042459935 0.04766706 0.036471665
000300 ee af 2a 3c fd 11 ae bc 3c 51 ac 3c 2a 31 1d 3c
       0.0104179215 -0.021248812 0.02103483 0.009594241
000310 62 d0 0d bd 9a 81 26 3d 6f 50 e3 3a 2e 59 ae 3d
       -0.034622557 0.04065094 0.0017342697 0.085131034
000320 c7 7d c9 bb b6 6f 46 3d 66 ba ca bd 99 6e 37 bc
       -0.006149027 0.04844638 -0.09898834 -0.011195802
000330 bb 7a 8c bd db 1b 72 bd 24 87 d0 bd e8 2d d0 3c
       -0.068593465 -0.059108596 -0.10182026 0.025412515
000340 61 d0 c1 bb e3 a8 39 bc 82 56 5d 3d 7e a8 8d bc
       -0.0059147333 -0.01133177 0.05403758 -0.017292257
000350 34 6e 78 3d 40 bd 58 bc 41 c9 87 3d 8d 04 0c bd
       0.060651973 -0.0132287145 0.06630183 -0.034184027
000360 29 19 99 3d 07 ce 91 3d aa fb 28 bd 99 a0 f5 ba
       0.07475502 0.07119375 -0.04125563 -0.0018739878
000370 1e 5a c0 3d eb 73 c0 bd 4c 69 53 3d 79 bb 97 3d
       0.093921885 -0.093971096 0.05161409 0.074088044
000380 7c a2 7a 3d f2 7c 97 bd 8d 8f 7f 3b 1b 88 c3 bd
       0.061190113 -0.07396878 0.0038995475 -0.095474444
000390 e1 ec 7b bc bf de 91 bd c9 bd 8e bd a0 97 a4 3a
       -0.015376301 -0.071225636 -0.069697924 0.0012557395
0003a0 5b 0b a1 bc e3 d2 a5 3d 03 09 a7 3c 90 f7 40 bd
       -0.019658735 0.08096864 0.02039004 -0.047111094
0003b0 67 49 1a 3d 05 a6 c3 3b 3c 72 bd 3d bc 0a 80 bc
       0.03766766 0.005970719 0.09250304 -0.015630119
0003c0 b9 3f ca 3d 1e c8 96 3d 57 e0 6a 3d 2e b5 32 bd
       0.098754354 0.07362388 0.057342853 -0.043629818
0003d0 9b 36 29 3d 46 53 e4 bd 17 ed 35 bd 12 d9 81 3d
       0.04131184 -0.11148696 -0.04441556 0.06340231
0003e0 27 ea aa 3d 23 6d 83 3d 82 65 4d 3a a6 d8 9f bd
       0.08345442 0.064173006 0.0007835255 -0.07804994
0003f0 97 02 b5 bd a2 39 75 3d 3a 56 72 3d d7 79 d6 bc
       -0.088383846 0.059869416 0.059164263 -0.026181145

lstm.weight_hh_l1 f4 [512, 128]
000000 af 95 db bc ee bf 84 ba a4 4c a3 3c 24 b1 82 bc
       -0.026804773 -0.0010128 0.019934006 -0.015953608
000010 1f d5 62 3d f1 06 3e 3c c4 ea 6d 3b 73 ac f1 bc
       0.05537903 0.011598335 0.0036303261 -0.029501176
000020 8a 6f 1c 3d ba 61 24 3b 05 34 f7 3a e5 36 2b 3c
       0.03819231 0.0025082664 0.0018860108 0.0104501
000030 61 a4 41 3d a9 d0 0c 3d 67 54 a0 3d 2c 49 9e 3b
       0.047275905 0.03437868 0.078285985 0.0048305
000040 55 ec 14 bd 59 fe 8d 3b 3f 0f 88 bc 13 ef 3a 3d
       -0.036358196 0.004333299 -0.016608832 0.045638155
000050 b9 21 48 bd 76 01 8c 3d 99 29 02 bd ea 3b e0 bd
       -0.048860285 0.06836216 -0.031777952 -0.10948928
000060 58 99 52 3d 94 c7 48 bd bc 26 aa 3d e2 b9 76 3c
       0.05141577 -0.049018458 0.08308169 0.015058966
000070 b5 2c 88 bd 4f 1f be 3d e1 65 f9 bd e9 2a 68 3d
       -0.06649152 0.092833154 -0.12177635 0.056681547
000080 0e 4c b0 bc a3 0d b4 3b a1 e1 5c 3c 13 84 77 bc
       -0.02152064 0.0054947897 0.0134815285 -0.015107173
000090 35 4d d6 bc fa 49 06 3d e1 97 da bc d6 b8 11 bd
       -0.026159862 0.032785393 -0.02668375 -0.035576664
0000a0 ff 6b b1 3c eb 40 6a bc a7 05 d1 3d bf dc 9c bd
       0.021657942 -0.014297704 0.10206156 -0.076592915
0000b0 66 d7 a9 3d 8c ce 76 bd b8 70 84 3d 84 90 0b bd
       0.08293037 -0.060255572 0.06466812 -0.034073368
0000c0 87 49 8a 3d eb e1 ef bd 9e ab 2c bc 9b 5e e4 bc
       0.067523055 -0.11713012 -0.010538964 -0.027877143
0000d0 ff ba eb bc e5 cc ff 3d 08 f9 d3 bc d0 93 dc 3d
       -0.02877569 0.124902524 -0.025875583 0.107703805
0000e0 d8 27 53 bd c4 50 45 3d 60 2e 51 bd c5 ae 72 bd
       -0.05155167 0.048172727 -0.051069617 -0.059248704
0000f0 d4 71 46 bd 5c ee fb bd 5b 48 12 3b 10 72 9c 3c
       -0.0484484 -0.12301323 0.002232096 0.019097358
000100 05 61 0e bd d3 aa 3d bd a0 0a 79 bd af 49 f3 3c
       -0.034760494 -0.04630549 -0.06080115 0.029698221
000110 64 fc 26 bc bc dd d4 3d 3c 32 65 3d bd 16 0d 3d
       -0.010192011 0.10393855 0.05595611 0.034445513
000120 4f e0 7a 3d 24 7f e4 3d 4f f9 4d 3d 23 15 be bd
       0.061249074 0.11157063 0.050286587 -0.09281375
000130 df f3 78 bc a4 7f 92 bd 34 78 8f bd 0d 37 ce 3c
       -0.015194862 -0.07153252 -0.07005349 0.025172735
000140 53 89 8c bd 7c e6 31 37 ca dc 41 3c ee ee f0 3d
       -0.0686213 1.0603686e-05 0.011832425 0.11764322
000150 16 b1 ee 3c 82 19 9f bd 59 4c a5 3d e0 ac 32 3c
       0.029137176 -0.07768537 0.08071203 0.010905474
000160 fb ea ec bd ca 51 04 3d 77 84 ba bd a0 4b de bc
       -0.115682565 0.032304563 -0.09107297 -0.02713567
000170 6b 58 08 3d 6f 52 9a 3c ef 30 a0 3d 1b d6 24 3d
       0.033287447 0.018838136 0.07821833 0.04024325
000180 db ae 03 3e df 4b e5 b9 76 8a 88 bd c6 bc 91 bd
       0.12859671 -0.00043734812 -0.06667034 -0.07116084
000190 55 69 41 3d 23 92 c3 bd 91 7f 57 bb ec 2d 89 3d
       0.047219593 -0.09549358 -0.0032882432 0.06698212
0001a0 fd b5 b6 bc 82 a3 83 3c cb 23 67 bd 4e 31 f8 3d
       -0.022303576 0.016069178 -0.05643062 0.12118779
0001b0 f6 2b 63 3d 99 4f c4 3c f4 c5 c4 bd 41 56 7c bd
       0.055461846 0.023963736 -0.09608069 -0.061605696
0001c0 5f bb 2c 3d 69 14 29 bd 7b 3f fd bc 95 7e 70 bd
       0.04217088 -0.04127923 -0.030914059 -0.058714468
0001d0 56 c9 ea bc f9 be 97 bd e0 fe 9c bb dd 94 81 3d
       -0.028660458 -0.07409472 -0.0047911257 0.063272215
0001e0 43 5b eb bc 8b c4 0c bd 20 d9 ac bd f7 55 1f 3d
       -0.02873004 -0.034367125 -0.08439851 0.03890034
0001f0 6e 52 08 3d 25 1f 49 3d 5d 93 29 bd a8 5d 48 3c
       0.033281736 0.049101967 -0.041400302 0.012229361
000200 01 2c 64 bd 4b cc 24 bd 8e bf ca 3c 67 20 28 bd
       -0.055706028 -0.04023389 0.024749544 -0.041046526
000210 35 ed 99 bd 91 ef ce 3d 48 38 81 bd be c4 ba bd
       -0.07515947 0.101042874 -0.06309563 -0.09119557
000220 d9 df bb 3d 8e 36 d5 3d 61 ab 14 bd 08 48 cf bc
       0.09173555 0.10410796 -0.036296252 -0.025302902
000230 b7 cc f1 bd 74 bb 62 3d db 33 bd 3d d0 27 21 bc
       -0.118066244 0.05535455 0.09238406 -0.009836152
000240 f7 82 30 3d 52 de aa 3d 16 22 86 3c db 86 2d bd
       0.043093648 0.083431855 0.016373675 -0.042364936
000250 9b d5 66 bd c3 ab bf 3c c6 b1 89 3d 32 fe c4 3c
       -0.056356054 0.023397332 0.06723361 0.024046991
000260 25 1b e1 bc 0d fc 0d 3d 82 24 8e 3d 11 6f 10 bd
       -0.027478764 0.034664202 0.06940557 -0.03526217
000270 2b f7 12 3c 93 a4 7c 3d 98 7a 88 bd c9 1a 5c 3d
       0.008970062 0.061680388 -0.06664008 0.05373648
000280 7c b6 df 3d a1 99 e3 ba dc 82 01 bd 4c 0a 97 3c
       0.10923478 -0.001736451 -0.031618938 0.018437527
000290 27 7d 67 3c c7 50 32 3c 10 7f b3 bd 1e a3 fa 3c
       0.01412896 0.010883517 -0.087644696 0.030595358
0002a0 dd 06 f7 3c ec e8 1c 39 8c 77 20 bb 42 7e 77 bd
       0.03015464 0.0001496409 -0.0024485318 -0.060423143
0002b0 88 12 57 3d 72 bc fd 3c ec e5 4c 3d e1 73 38 bd
       0.052507907 0.030973647 0.050023958 -0.045032386
0002c0 74 81 80 3d 15 5f 6b bd 91 9e 0d 3d e9 7a f9 3c
       0.06274691 -0.057463724 0.03457505 0.030454116
0002d0 d3 43 68 ba d4 73 d1 3c 25 8d df 3c 83 4d 7e bd
       -0.0008860204 0.025567926 0.027288983 -0.06208564
0002e0 57 e6 43 bc 10 32 9b bd 42 71 8b bd ff 43 85 bd
       -0.011956773 -0.07577908 -0.068087116 -0.0650711
0002f0 5e 69 d7 bc 95 81 6f bd cc 7a 9e bd 38 22 d4 3d
       -0.02629536 -0.05847319 -0.077382654 0.10358089
000300 cd 8d f5 bc c9 09 bf 3d cd 5c 6e 3d ef c6 4b 3c
       -0.029974842 0.09328038 0.05819397 0.012437566
000310 9d 94 4f bd 4e 54 7f 3d 5f f6 38 3c 05 d3 de 3c
       -0.050678838 0.06233626 0.011289208 0.027200231
000320 52 c1 52 bd 39 25 0e bd dd f9 90 bd f3 1d cd 3c
       -0.051453896 -0.034703467 -0.07078908 0.025038695
000330 b7 9b b7 bc 8a 0d 66 bd 64 15 e6 bc c0 ab 0a bc
       -0.022413118 -0.056165256 -0.028086372 -0.0084638
000340 3e bf 55 bd fa a8 e1 bd fa 3d 6a bc 2f d8 c0 3d
       -0.052184336 -0.11018558 -0.014297003 0.09416234
000350 84 e2 23 3c 88 52 16 3d d7 e8 08 bd 59 8a 2e 3b
       0.010002736 0.0366998 -0.03342518 0.0026632755
000360 21 13 9f 3c 51 5a 56 3d 04 ad 53 bd 02 cb aa bd
       0.019418301 0.052332226 -0.051678672 -0.08339502
000370 31 88 85 bd 64 92 cd 3d 67 db 3a bc 44 28 7f bd
       -0.06520117 0.100376874 -0.011404849 -0.06229426
000380 dd ff ab bc d0 43 03 3d 3e 2c 83 3d 82 8a 1d 3c
       -0.020996029 0.032047093 0.06404923 0.009615542
000390 d1 aa b0 bd 9d f5 97 3d 23 d8 60 3d 31 2c 4f bc
       -0.08626331 0.07419894 0.054893624 -0.012644813
0003a0 78 b4 de bd 04 5f 59 bd 87 8f 9a 3c de e8 05 bd
       -0.108742654 -0.05306913 0.018867267 -0.032692783
0003b0 95 36 7b bd 51 6b 00 bb e6 56 6f 3d df 07 20 3d
       -0.06133135 -0.0019595216 0.058432482 0.039070006
0003c0 ed 03 b2 bd 9f 02 03 3b ba 0f 30 bd 70 97 c3 bc
       -0.08692155 0.0019990576 -0.042983748 -0.023875922
0003d0 7a 57 91 bd dc 5d 49 bd 97 db 83 3d 5f 0e 8e bd
       -0.07096763 -0.049161777 0.06438368 -0.06936335
0003e0 6a 2c bc bd 31 c4 08 bc 17 0b 7c 3d f7 2b 8a 3c
       -0.09188159 -0.008347557 0.061534014 0.016866667
0003f0 90 6b c9 bc 8a ef 46 bd fb 78 95 bd 29 4f f5 bc
       -0.024587423 -0.048568286 -0.07298466 -0.029944973

lstm.bias_ih_l1 f4 [512]
000000 51 a2 7c 3c 1d c4 06 bd 03 1b 6e bd 47 cc 07 be
       0.015419559 -0.032901872 -0.05813123 -0.1326152
000010 3e 7f 03 bd 7a 14 cc bc e0 ea 50 bd 1e 60 fd bd
       -0.03210377 -0.024912108 -0.051005244 -0.123718485
000020 78 a7 11 3c 5e 64 89 bd 14 cf af bc df ae 9b bc
       0.008890025 -0.06708597 -0.021461047 -0.019004283
000030 3c 9a 9c 3c 71 f5 3b 3c d0 d2 cd bc 02 b5 4b ba
       0.019116513 0.011472092 -0.025124937 -0.0007770808
000040 14 b3 d7 bc e7 b6 e2 bd 72 3f 1e 3b 79 9b d9 bd
       -0.026330508 -0.11070042 0.0024146703 -0.10625357
000050 e4 a9 f2 bd 32 31 9f bd 81 f2 f8 bd e1 a4 19 bd
       -0.1184881 -0.07773055 -0.12155629 -0.037510756
000060 09 cc 87 bd 54 67 b3 bd 1b 03 8e 3d 0e 35 ae bd
       -0.066307135 -0.08759943 0.06934186 -0.08506213
000070 6d 19 03 be 08 7b 1e bd 9a 43 da 3d 29 30 bc bb
       -0.12802668 -0.03869155 0.10657425 -0.005743046
000080 58 a7 b0 bd ca 42 78 bd d9 7a b0 bd 58 07 bc bd
       -0.08625668 -0.06061057 -0.08617181 -0.09181088
000090 d6 96 cc bc 63 5f 68 3d 8e 16 fa bd 69 05 28 bd
       -0.024974268 0.056731593 -0.12211333 -0.041020785
0000a0 5b ba fe bd ec 1e ae bc ff d2 13 be 4f 34 6d bc
       -0.12437888 -0.02125498 -0.14435957 -0.014477803
0000b0 14 37 ad 3c b1 2c 9a bc 7e 30 00 bd af 3e 77 3d
       0.021144427 -0.018820139 -0.031296246 0.060362514
0000c0 ec 2c 07 3c d4 6c 29 3d 61 f9 91 bd 16 67 83 3c
       0.008250456 0.041363552 -0.071276434 0.016040366
0000d0 23 bc 88 bc b6 14 64 bd d6 9f b6 bd ac 45 5c bd
       -0.016691273 -0.055683814 -0.08917205 -0.05377738
0000e0 e3 6c e9 bc 16 7d 1d bd 38 48 d5 bd e8 36 8e 3c
       -0.028494304 -0.03844937 -0.10414165 0.017360166
0000f0 47 1f 7f bd cd 37 94 bc 22 1f ef bd 00 d3 ac bd
       -0.062285688 -0.018093014 -0.1167586 -0.084386826
000100 e9 97 b0 3c 36 35 ad 3c 1a 3f 2b bd 01 37 c2 3d
       0.021556811 0.021143537 -0.041808225 0.094831474
000110 d6 e9 cb bc 40 8d 3e bc 6c 86 37 bd 97 70 06 3d
       -0.024891775 -0.011630356 -0.04480593 0.032822218
000120 44 14 dc bd 49 e0 0c 3d cd af 3f bd 24 5c df 3c
       -0.10746053 0.034393582 -0.046798516 0.027265616
000130 ea c9 d3 3c ac 3a f1 bb 1f 22 19 3d de 48 ad bd
       0.025853116 -0.0073617306 0.037386056 -0.08461164
000140 a5 3e 8e bd d4 6a 59 3b fe 1c d8 3c 1e 26 69 bd
       -0.06945542 0.0033175247 0.026381012 -0.056921117
000150 b4 0d 84 bd 04 30 7b 3c 46 2a 72 bb 73 32 f1 3c
       -0.06447926 0.015331272 -0.0036951466 0.029443001
000160 e2 a5 46 bd 67 f2 49 3c 30 0c fb bb 3c d4 84 bd
       -0.048498042 0.01232586 -0.007661365 -0.06485793
000170 ea 9a 0d be ba d2 5d bc ea d6 02 bd 40 5c 28 3d
       -0.13828626 -0.013539011 -0.03194324 0.0411036
000180 fd aa 40 3d cb c9 9d bd 84 3a 27 3d c5 41 93 bd
       0.047038067 -0.077045046 0.04082729 -0.07190279
000190 c3 91 be bd c2 ec e3 bd e0 4f b9 bd 66 08 14 3d
       -0.093051456 -0.11129142 -0.09048438 0.036140822
0001a0 d0 12 0e bd 45 cd 80 bd 8b eb 92 bd 36 38 9f 3c
       -0.03468591 -0.06289152 -0.071738325 0.019435983
0001b0 ed 24 0e bd db 6e 96 3b 4a 11 f6 bd 4c 79 05 be
       -0.034703184 0.0045908517 -0.120150164 -0.13034552
0001c0 b2 23 b9 bd 63 f2 f2 3b 7b 44 12 bd 08 c3 20 bc
       -0.090400115 0.0074141487 -0.03570984 -0.009812124
0001d0 26 0c 05 bd 48 0f 25 3d c5 f2 39 bc 6d 9b 29 bd
       -0.03248229 0.040297776 -0.011349385 -0.04140799
0001e0 13 79 d3 bd 49 28 1d bd 3b 45 20 bd 48 4d 45 bd
       -0.103258274 -0.038368497 -0.039128523 -0.048169404
0001f0 e7 f8 eb bb 90 b4 81 bd c5 14 5f bc ee 9b 8c bd
       -0.0072013023 -0.06333268 -0.013615792 -0.06865679
000200 80 8f b1 3c 31 ce 92 3b 8d 27 19 be ff d0 4a 3c
       0.021674871 0.0044801463 -0.14956494 0.01237893
000210 18 14 c1 bd 0d f3 14 3c 93 9d a6 bd cf 73 f0 bb
       -0.09427661 0.009091151 -0.08135524 -0.007338024
000220 7a 3c e0 bd a7 8b 3f 3d f3 9e 10 be 12 e0 b0 3c
       -0.10949035 0.046764042 -0.14123134 0.02159122
000230 fb 82 9b bc 8c d8 03 be af 30 df 3c e1 af c6 3c
       -0.018983355 -0.12875575 0.027244894 0.024253787
000240 7d c3 f1 bc b6 c4 95 bc e0 fb d7 bc 22 75 89 bd
       -0.029512161 -0.018282276 -0.02636522 -0.067117944
000250 be a8 11 3c bc 4e b1 bc d4 05 ab bd 54 6b e7 3c
       0.008890329 -0.021643989 -0.08350721 0.02824942
000260 eb 92 6c bc 0d 53 16 3d cc 5c 45 bd b1 3d da 3c
       -0.014439325 0.036700297 -0.0481842 0.026640745
000270 4b 9d 88 bd d5 b0 fe bd 41 ff 61 3d ab bc 8f bc
       -0.06670626 -0.12436072 0.05517507 -0.017546019
000280 84 95 69 3d 44 01 80 bd 0b 7b 9d bd d2 ca 91 3c
       0.057027355 -0.062502414 -0.07689484 0.017796908
000290 32 ee 45 bd 68 1b 8d 3c e4 48 14 be 62 a6 2a bd
       -0.048322864 0.017224982 -0.1448093 -0.04166258
0002a0 c0 dd cd 3a 8c 69 16 be ae 52 f9 bd 47 49 e3 3a
       0.0015706345 -0.146887 -0.12173973 0.0017340564
0002b0 9e 15 05 be 07 15 de bb 47 81 2f bd fa 26 5d 3d
       -0.12996528 -0.006777409 -0.042847898 0.05399225
0002c0 b2 c4 9b 3a cf 3a d2 3c 65 ea e8 3c 7f 7a 45 bb
       0.0011884181 0.025662808 0.02843208 -0.0030132828
0002d0 b7 74 dc bc ec ca ba 3d 54 8c 12 bd 70 99 7e bd
       -0.026911123 0.091207355 -0.03577836 -0.06215805
0002e0 92 78 66 bd 18 65 da bd 5a 49 a3 3c eb 2c c8 bd
       -0.05626733 -0.10663813 0.019932438 -0.097741924
0002f0 7d dd 7c bd 7f 60 82 3d ea 04 06 be fe 0f 93 bd
       -0.061734665 0.063660614 -0.13087812 -0.07180785
000300 51 d6 cd bd 40 2e ea bb 27 9d d5 bd 01 b2 92 3d
       -0.10050643 -0.0071466267 -0.10430365 0.07162858
000310 62 5a f3 bd 63 a2 5e 3d b7 d7 f2 bd ff c0 a3 bd
       -0.118824735 0.054354083 -0.118575506 -0.079957955
000320 57 84 e2 bd c7 3b 69 b9 54 9a c2 bd 40 e7 75 bb
       -0.11060398 -0.0002224288 -0.09502092 -0.003752187
000330 3c 57 c6 bd 75 94 82 bd 6a 78 bd bd da cf bc bd
       -0.096846074 -0.06375972 -0.09251483 -0.09219332
000340 41 4b 86 bc 0e a9 5b 3d 6b 8b 7e bd 2b 90 8e bb
       -0.016393306 0.05362802 -0.062144678 -0.0043506823
000350 19 c5 0d be 52 7f 01 3d 30 2e be bc a5 dd a1 bc
       -0.13844718 0.031615563 -0.023215383 -0.019759009
000360 e1 1d 64 bd d3 00 e3 bd 72 0b a8 3c 7f 58 bf 3c
       -0.055692557 -0.110841416 0.02051327 0.023357628
000370 a0 cf 95 bb 06 44 fe 3c 94 b3 18 be 8b 5f 0d 3d
       -0.00457187 0.031038295 -0.14912254 0.034514945
000380 16 e7 ef bc 41 b7 3f bd 40 58 54 bd 75 cf 8c bd
       -0.029284995 -0.046805624 -0.051841974 -0.06875507
000390 cf a4 9d bd c6 50 cf bd 3e 3b ce 3c ab 69 9d 3c
       -0.0769745 -0.10122828 0.025174733 0.019215425
0003a0 aa 3a e1 bd 06 cc 13 bd 2c a4 1a bd b6 03 2f 3d
       -0.109975174 -0.036083244 -0.037754223 0.04272815
0003b0 7d 7a c6 bc f5 4f e1 bd de 06 18 bc 45 2a fc bb
       -0.024228329 -0.11001579 -0.009278981 -0.0076954686
0003c0 65 00 a3 bd 36 a9 51 bd 25 47 41 bc 3d 90 b7 bd
       -0.079590596 -0.051186763 -0.011796747 -0.08963058
0003d0 e5 7b f2 bd ae 1b 87 bd aa 56 41 3d 52 f5 5a bd
       -0.11840037 -0.06597076 0.04720179 -0.053456612
0003e0 86 bc 4a bd e3 bf 09 be a0 1d d4 bd 25 3a 3d bc
       -0.049496196 -0.13452105 -0.10357213 -0.011549507
0003f0 7b 02 ca bd 7a cb e5 3c 38 0d 5a 3c 34 17 1e be
       -0.09863754 0.028051127 0.013308816 -0.15438539
